{"format": "graph-model", "generatedBy": "2.15.0", "convertedBy": "TensorFlow.js Converter v4.17.0", "signature": {"inputs": {"input": {"name": "input:0", "dtype": "DT_FLOAT", "tensorShape": {"dim": [{"size": "-1"}, {"size": "-1"}, {"size": "-1"}, {"size": "-1"}]}}}, "outputs": {"output": {"name": "Identity:0", "dtype": "DT_FLOAT", "tensorShape": {"dim": [{"size": "-1"}, {"size": "-1"}, {"size": "-1"}, {"size": "3"}]}}}}, "modelTopology": {"node": [{"name": "unknown_279", "op": "Const", "attr": {"value": {"tensor": {"dtype": "DT_FLOAT", "tensorShape": {"dim": [{"size": "2"}]}}}, "dtype": {"type": "DT_FLOAT"}}}, {"name": "unknown_275", "op": "Const", "attr": {"value": {"tensor": {"dtype": "DT_FLOAT", "tensorShape": {"dim": [{"size": "2"}]}}}, "dtype": {"type": "DT_FLOAT"}}}, {"name": "unknown_257", "op": "Const", "attr": {"value": {"tensor": {"dtype": "DT_INT32", "tensorShape": {"dim": [{"size": "4"}, {"size": "2"}]}}}, "dtype": {"type": "DT_INT32"}}}, {"name": "unknown_258", "op": "Const", "attr": {"value": {"tensor": {"dtype": "DT_FLOAT", "tensorShape": {"dim": [{"size": "3"}, {"size": "3"}, {"size": "64"}, {"size": "32"}]}}}, "dtype": {"type": "DT_FLOAT"}}}, {"name": "unknown_259", "op": "Const", "attr": {"value": {"tensor": {"dtype": "DT_FLOAT", "tensorShape": {"dim": [{"size": "32"}]}}}, "dtype": {"type": "DT_FLOAT"}}}, {"name": "PartitionedCall/model_1/tf.concat_68/concat/axis", "op": "Const", "attr": {"value": {"tensor": {"dtype": "DT_INT32", "tensorShape": {}}}, "dtype": {"type": "DT_INT32"}}}, {"name": "unknown_260", "op": "Const", "attr": {"value": {"tensor": {"dtype": "DT_INT32", "tensorShape": {"dim": [{"size": "4"}, {"size": "2"}]}}}, "dtype": {"type": "DT_INT32"}}}, {"name": "unknown_261", "op": "Const", "attr": {"value": {"tensor": {"dtype": "DT_FLOAT", "tensorShape": {"dim": [{"size": "3"}, {"size": "3"}, {"size": "96"}, {"size": "32"}]}}}, "dtype": {"type": "DT_FLOAT"}}}, {"name": "unknown_262", "op": "Const", "attr": {"value": {"tensor": {"dtype": "DT_FLOAT", "tensorShape": {"dim": [{"size": "32"}]}}}, "dtype": {"type": "DT_FLOAT"}}}, {"name": "PartitionedCall/model_1/tf.concat_69/concat/axis", "op": "Const", "attr": {"value": {"tensor": {"dtype": "DT_INT32", "tensorShape": {}}}, "dtype": {"type": "DT_INT32"}}}, {"name": "unknown_263", "op": "Const", "attr": {"value": {"tensor": {"dtype": "DT_INT32", "tensorShape": {"dim": [{"size": "4"}, {"size": "2"}]}}}, "dtype": {"type": "DT_INT32"}}}, {"name": "unknown_264", "op": "Const", "attr": {"value": {"tensor": {"dtype": "DT_FLOAT", "tensorShape": {"dim": [{"size": "3"}, {"size": "3"}, {"size": "128"}, {"size": "32"}]}}}, "dtype": {"type": "DT_FLOAT"}}}, {"name": "unknown_265", "op": "Const", "attr": {"value": {"tensor": {"dtype": "DT_FLOAT", "tensorShape": {"dim": [{"size": "32"}]}}}, "dtype": {"type": "DT_FLOAT"}}}, {"name": "PartitionedCall/model_1/tf.concat_70/concat/axis", "op": "Const", "attr": {"value": {"tensor": {"dtype": "DT_INT32", "tensorShape": {}}}, "dtype": {"type": "DT_INT32"}}}, {"name": "unknown_266", "op": "Const", "attr": {"value": {"tensor": {"dtype": "DT_INT32", "tensorShape": {"dim": [{"size": "4"}, {"size": "2"}]}}}, "dtype": {"type": "DT_INT32"}}}, {"name": "unknown_267", "op": "Const", "attr": {"value": {"tensor": {"dtype": "DT_FLOAT", "tensorShape": {"dim": [{"size": "3"}, {"size": "3"}, {"size": "160"}, {"size": "32"}]}}}, "dtype": {"type": "DT_FLOAT"}}}, {"name": "unknown_268", "op": "Const", "attr": {"value": {"tensor": {"dtype": "DT_FLOAT", "tensorShape": {"dim": [{"size": "32"}]}}}, "dtype": {"type": "DT_FLOAT"}}}, {"name": "PartitionedCall/model_1/tf.concat_71/concat/axis", "op": "Const", "attr": {"value": {"tensor": {"dtype": "DT_INT32", "tensorShape": {}}}, "dtype": {"type": "DT_INT32"}}}, {"name": "unknown_269", "op": "Const", "attr": {"value": {"tensor": {"dtype": "DT_INT32", "tensorShape": {"dim": [{"size": "4"}, {"size": "2"}]}}}, "dtype": {"type": "DT_INT32"}}}, {"name": "unknown_270", "op": "Const", "attr": {"value": {"tensor": {"dtype": "DT_FLOAT", "tensorShape": {"dim": [{"size": "3"}, {"size": "3"}, {"size": "192"}, {"size": "64"}]}}}, "dtype": {"type": "DT_FLOAT"}}}, {"name": "unknown_271", "op": "Const", "attr": {"value": {"tensor": {"dtype": "DT_FLOAT", "tensorShape": {"dim": [{"size": "64"}]}}}, "dtype": {"type": "DT_FLOAT"}}}, {"name": "PartitionedCall/model_1/tf.math.multiply_44/Mul/y", "op": "Const", "attr": {"value": {"tensor": {"dtype": "DT_FLOAT", "tensorShape": {}}}, "dtype": {"type": "DT_FLOAT"}}}, {"name": "unknown_242", "op": "Const", "attr": {"value": {"tensor": {"dtype": "DT_INT32", "tensorShape": {"dim": [{"size": "4"}, {"size": "2"}]}}}, "dtype": {"type": "DT_INT32"}}}, {"name": "unknown_243", "op": "Const", "attr": {"value": {"tensor": {"dtype": "DT_FLOAT", "tensorShape": {"dim": [{"size": "3"}, {"size": "3"}, {"size": "64"}, {"size": "32"}]}}}, "dtype": {"type": "DT_FLOAT"}}}, {"name": "unknown_244", "op": "Const", "attr": {"value": {"tensor": {"dtype": "DT_FLOAT", "tensorShape": {"dim": [{"size": "32"}]}}}, "dtype": {"type": "DT_FLOAT"}}}, {"name": "PartitionedCall/model_1/tf.concat_64/concat/axis", "op": "Const", "attr": {"value": {"tensor": {"dtype": "DT_INT32", "tensorShape": {}}}, "dtype": {"type": "DT_INT32"}}}, {"name": "unknown_245", "op": "Const", "attr": {"value": {"tensor": {"dtype": "DT_INT32", "tensorShape": {"dim": [{"size": "4"}, {"size": "2"}]}}}, "dtype": {"type": "DT_INT32"}}}, {"name": "unknown_246", "op": "Const", "attr": {"value": {"tensor": {"dtype": "DT_FLOAT", "tensorShape": {"dim": [{"size": "3"}, {"size": "3"}, {"size": "96"}, {"size": "32"}]}}}, "dtype": {"type": "DT_FLOAT"}}}, {"name": "unknown_247", "op": "Const", "attr": {"value": {"tensor": {"dtype": "DT_FLOAT", "tensorShape": {"dim": [{"size": "32"}]}}}, "dtype": {"type": "DT_FLOAT"}}}, {"name": "PartitionedCall/model_1/tf.concat_65/concat/axis", "op": "Const", "attr": {"value": {"tensor": {"dtype": "DT_INT32", "tensorShape": {}}}, "dtype": {"type": "DT_INT32"}}}, {"name": "unknown_248", "op": "Const", "attr": {"value": {"tensor": {"dtype": "DT_INT32", "tensorShape": {"dim": [{"size": "4"}, {"size": "2"}]}}}, "dtype": {"type": "DT_INT32"}}}, {"name": "unknown_249", "op": "Const", "attr": {"value": {"tensor": {"dtype": "DT_FLOAT", "tensorShape": {"dim": [{"size": "3"}, {"size": "3"}, {"size": "128"}, {"size": "32"}]}}}, "dtype": {"type": "DT_FLOAT"}}}, {"name": "unknown_250", "op": "Const", "attr": {"value": {"tensor": {"dtype": "DT_FLOAT", "tensorShape": {"dim": [{"size": "32"}]}}}, "dtype": {"type": "DT_FLOAT"}}}, {"name": "PartitionedCall/model_1/tf.concat_66/concat/axis", "op": "Const", "attr": {"value": {"tensor": {"dtype": "DT_INT32", "tensorShape": {}}}, "dtype": {"type": "DT_INT32"}}}, {"name": "unknown_251", "op": "Const", "attr": {"value": {"tensor": {"dtype": "DT_INT32", "tensorShape": {"dim": [{"size": "4"}, {"size": "2"}]}}}, "dtype": {"type": "DT_INT32"}}}, {"name": "unknown_252", "op": "Const", "attr": {"value": {"tensor": {"dtype": "DT_FLOAT", "tensorShape": {"dim": [{"size": "3"}, {"size": "3"}, {"size": "160"}, {"size": "32"}]}}}, "dtype": {"type": "DT_FLOAT"}}}, {"name": "unknown_253", "op": "Const", "attr": {"value": {"tensor": {"dtype": "DT_FLOAT", "tensorShape": {"dim": [{"size": "32"}]}}}, "dtype": {"type": "DT_FLOAT"}}}, {"name": "PartitionedCall/model_1/tf.concat_67/concat/axis", "op": "Const", "attr": {"value": {"tensor": {"dtype": "DT_INT32", "tensorShape": {}}}, "dtype": {"type": "DT_INT32"}}}, {"name": "unknown_254", "op": "Const", "attr": {"value": {"tensor": {"dtype": "DT_INT32", "tensorShape": {"dim": [{"size": "4"}, {"size": "2"}]}}}, "dtype": {"type": "DT_INT32"}}}, {"name": "unknown_255", "op": "Const", "attr": {"value": {"tensor": {"dtype": "DT_FLOAT", "tensorShape": {"dim": [{"size": "3"}, {"size": "3"}, {"size": "192"}, {"size": "64"}]}}}, "dtype": {"type": "DT_FLOAT"}}}, {"name": "unknown_256", "op": "Const", "attr": {"value": {"tensor": {"dtype": "DT_FLOAT", "tensorShape": {"dim": [{"size": "64"}]}}}, "dtype": {"type": "DT_FLOAT"}}}, {"name": "PartitionedCall/model_1/tf.math.multiply_42/Mul/y", "op": "Const", "attr": {"value": {"tensor": {"dtype": "DT_FLOAT", "tensorShape": {}}}, "dtype": {"type": "DT_FLOAT"}}}, {"name": "unknown_227", "op": "Const", "attr": {"value": {"tensor": {"dtype": "DT_INT32", "tensorShape": {"dim": [{"size": "4"}, {"size": "2"}]}}}, "dtype": {"type": "DT_INT32"}}}, {"name": "unknown_228", "op": "Const", "attr": {"value": {"tensor": {"dtype": "DT_FLOAT", "tensorShape": {"dim": [{"size": "3"}, {"size": "3"}, {"size": "64"}, {"size": "32"}]}}}, "dtype": {"type": "DT_FLOAT"}}}, {"name": "unknown_229", "op": "Const", "attr": {"value": {"tensor": {"dtype": "DT_FLOAT", "tensorShape": {"dim": [{"size": "32"}]}}}, "dtype": {"type": "DT_FLOAT"}}}, {"name": "PartitionedCall/model_1/tf.concat_60/concat/axis", "op": "Const", "attr": {"value": {"tensor": {"dtype": "DT_INT32", "tensorShape": {}}}, "dtype": {"type": "DT_INT32"}}}, {"name": "unknown_230", "op": "Const", "attr": {"value": {"tensor": {"dtype": "DT_INT32", "tensorShape": {"dim": [{"size": "4"}, {"size": "2"}]}}}, "dtype": {"type": "DT_INT32"}}}, {"name": "unknown_231", "op": "Const", "attr": {"value": {"tensor": {"dtype": "DT_FLOAT", "tensorShape": {"dim": [{"size": "3"}, {"size": "3"}, {"size": "96"}, {"size": "32"}]}}}, "dtype": {"type": "DT_FLOAT"}}}, {"name": "unknown_232", "op": "Const", "attr": {"value": {"tensor": {"dtype": "DT_FLOAT", "tensorShape": {"dim": [{"size": "32"}]}}}, "dtype": {"type": "DT_FLOAT"}}}, {"name": "PartitionedCall/model_1/tf.concat_61/concat/axis", "op": "Const", "attr": {"value": {"tensor": {"dtype": "DT_INT32", "tensorShape": {}}}, "dtype": {"type": "DT_INT32"}}}, {"name": "unknown_233", "op": "Const", "attr": {"value": {"tensor": {"dtype": "DT_INT32", "tensorShape": {"dim": [{"size": "4"}, {"size": "2"}]}}}, "dtype": {"type": "DT_INT32"}}}, {"name": "unknown_234", "op": "Const", "attr": {"value": {"tensor": {"dtype": "DT_FLOAT", "tensorShape": {"dim": [{"size": "3"}, {"size": "3"}, {"size": "128"}, {"size": "32"}]}}}, "dtype": {"type": "DT_FLOAT"}}}, {"name": "unknown_235", "op": "Const", "attr": {"value": {"tensor": {"dtype": "DT_FLOAT", "tensorShape": {"dim": [{"size": "32"}]}}}, "dtype": {"type": "DT_FLOAT"}}}, {"name": "PartitionedCall/model_1/tf.concat_62/concat/axis", "op": "Const", "attr": {"value": {"tensor": {"dtype": "DT_INT32", "tensorShape": {}}}, "dtype": {"type": "DT_INT32"}}}, {"name": "unknown_236", "op": "Const", "attr": {"value": {"tensor": {"dtype": "DT_INT32", "tensorShape": {"dim": [{"size": "4"}, {"size": "2"}]}}}, "dtype": {"type": "DT_INT32"}}}, {"name": "unknown_237", "op": "Const", "attr": {"value": {"tensor": {"dtype": "DT_FLOAT", "tensorShape": {"dim": [{"size": "3"}, {"size": "3"}, {"size": "160"}, {"size": "32"}]}}}, "dtype": {"type": "DT_FLOAT"}}}, {"name": "unknown_238", "op": "Const", "attr": {"value": {"tensor": {"dtype": "DT_FLOAT", "tensorShape": {"dim": [{"size": "32"}]}}}, "dtype": {"type": "DT_FLOAT"}}}, {"name": "PartitionedCall/model_1/tf.concat_63/concat/axis", "op": "Const", "attr": {"value": {"tensor": {"dtype": "DT_INT32", "tensorShape": {}}}, "dtype": {"type": "DT_INT32"}}}, {"name": "unknown_239", "op": "Const", "attr": {"value": {"tensor": {"dtype": "DT_INT32", "tensorShape": {"dim": [{"size": "4"}, {"size": "2"}]}}}, "dtype": {"type": "DT_INT32"}}}, {"name": "unknown_240", "op": "Const", "attr": {"value": {"tensor": {"dtype": "DT_FLOAT", "tensorShape": {"dim": [{"size": "3"}, {"size": "3"}, {"size": "192"}, {"size": "64"}]}}}, "dtype": {"type": "DT_FLOAT"}}}, {"name": "unknown_241", "op": "Const", "attr": {"value": {"tensor": {"dtype": "DT_FLOAT", "tensorShape": {"dim": [{"size": "64"}]}}}, "dtype": {"type": "DT_FLOAT"}}}, {"name": "PartitionedCall/model_1/tf.math.multiply_40/Mul/y", "op": "Const", "attr": {"value": {"tensor": {"dtype": "DT_FLOAT", "tensorShape": {}}}, "dtype": {"type": "DT_FLOAT"}}}, {"name": "PartitionedCall/model_1/tf.math.multiply_46/Mul/y", "op": "Const", "attr": {"value": {"tensor": {"dtype": "DT_FLOAT", "tensorShape": {}}}, "dtype": {"type": "DT_FLOAT"}}}, {"name": "unknown_212", "op": "Const", "attr": {"value": {"tensor": {"dtype": "DT_INT32", "tensorShape": {"dim": [{"size": "4"}, {"size": "2"}]}}}, "dtype": {"type": "DT_INT32"}}}, {"name": "unknown_213", "op": "Const", "attr": {"value": {"tensor": {"dtype": "DT_FLOAT", "tensorShape": {"dim": [{"size": "3"}, {"size": "3"}, {"size": "64"}, {"size": "32"}]}}}, "dtype": {"type": "DT_FLOAT"}}}, {"name": "unknown_214", "op": "Const", "attr": {"value": {"tensor": {"dtype": "DT_FLOAT", "tensorShape": {"dim": [{"size": "32"}]}}}, "dtype": {"type": "DT_FLOAT"}}}, {"name": "PartitionedCall/model_1/tf.concat_56/concat/axis", "op": "Const", "attr": {"value": {"tensor": {"dtype": "DT_INT32", "tensorShape": {}}}, "dtype": {"type": "DT_INT32"}}}, {"name": "unknown_215", "op": "Const", "attr": {"value": {"tensor": {"dtype": "DT_INT32", "tensorShape": {"dim": [{"size": "4"}, {"size": "2"}]}}}, "dtype": {"type": "DT_INT32"}}}, {"name": "unknown_216", "op": "Const", "attr": {"value": {"tensor": {"dtype": "DT_FLOAT", "tensorShape": {"dim": [{"size": "3"}, {"size": "3"}, {"size": "96"}, {"size": "32"}]}}}, "dtype": {"type": "DT_FLOAT"}}}, {"name": "unknown_217", "op": "Const", "attr": {"value": {"tensor": {"dtype": "DT_FLOAT", "tensorShape": {"dim": [{"size": "32"}]}}}, "dtype": {"type": "DT_FLOAT"}}}, {"name": "PartitionedCall/model_1/tf.concat_57/concat/axis", "op": "Const", "attr": {"value": {"tensor": {"dtype": "DT_INT32", "tensorShape": {}}}, "dtype": {"type": "DT_INT32"}}}, {"name": "unknown_218", "op": "Const", "attr": {"value": {"tensor": {"dtype": "DT_INT32", "tensorShape": {"dim": [{"size": "4"}, {"size": "2"}]}}}, "dtype": {"type": "DT_INT32"}}}, {"name": "unknown_219", "op": "Const", "attr": {"value": {"tensor": {"dtype": "DT_FLOAT", "tensorShape": {"dim": [{"size": "3"}, {"size": "3"}, {"size": "128"}, {"size": "32"}]}}}, "dtype": {"type": "DT_FLOAT"}}}, {"name": "unknown_220", "op": "Const", "attr": {"value": {"tensor": {"dtype": "DT_FLOAT", "tensorShape": {"dim": [{"size": "32"}]}}}, "dtype": {"type": "DT_FLOAT"}}}, {"name": "PartitionedCall/model_1/tf.concat_58/concat/axis", "op": "Const", "attr": {"value": {"tensor": {"dtype": "DT_INT32", "tensorShape": {}}}, "dtype": {"type": "DT_INT32"}}}, {"name": "unknown_221", "op": "Const", "attr": {"value": {"tensor": {"dtype": "DT_INT32", "tensorShape": {"dim": [{"size": "4"}, {"size": "2"}]}}}, "dtype": {"type": "DT_INT32"}}}, {"name": "unknown_222", "op": "Const", "attr": {"value": {"tensor": {"dtype": "DT_FLOAT", "tensorShape": {"dim": [{"size": "3"}, {"size": "3"}, {"size": "160"}, {"size": "32"}]}}}, "dtype": {"type": "DT_FLOAT"}}}, {"name": "unknown_223", "op": "Const", "attr": {"value": {"tensor": {"dtype": "DT_FLOAT", "tensorShape": {"dim": [{"size": "32"}]}}}, "dtype": {"type": "DT_FLOAT"}}}, {"name": "PartitionedCall/model_1/tf.concat_59/concat/axis", "op": "Const", "attr": {"value": {"tensor": {"dtype": "DT_INT32", "tensorShape": {}}}, "dtype": {"type": "DT_INT32"}}}, {"name": "unknown_224", "op": "Const", "attr": {"value": {"tensor": {"dtype": "DT_INT32", "tensorShape": {"dim": [{"size": "4"}, {"size": "2"}]}}}, "dtype": {"type": "DT_INT32"}}}, {"name": "unknown_225", "op": "Const", "attr": {"value": {"tensor": {"dtype": "DT_FLOAT", "tensorShape": {"dim": [{"size": "3"}, {"size": "3"}, {"size": "192"}, {"size": "64"}]}}}, "dtype": {"type": "DT_FLOAT"}}}, {"name": "unknown_226", "op": "Const", "attr": {"value": {"tensor": {"dtype": "DT_FLOAT", "tensorShape": {"dim": [{"size": "64"}]}}}, "dtype": {"type": "DT_FLOAT"}}}, {"name": "PartitionedCall/model_1/tf.math.multiply_36/Mul/y", "op": "Const", "attr": {"value": {"tensor": {"dtype": "DT_FLOAT", "tensorShape": {}}}, "dtype": {"type": "DT_FLOAT"}}}, {"name": "unknown_197", "op": "Const", "attr": {"value": {"tensor": {"dtype": "DT_INT32", "tensorShape": {"dim": [{"size": "4"}, {"size": "2"}]}}}, "dtype": {"type": "DT_INT32"}}}, {"name": "unknown_198", "op": "Const", "attr": {"value": {"tensor": {"dtype": "DT_FLOAT", "tensorShape": {"dim": [{"size": "3"}, {"size": "3"}, {"size": "64"}, {"size": "32"}]}}}, "dtype": {"type": "DT_FLOAT"}}}, {"name": "unknown_199", "op": "Const", "attr": {"value": {"tensor": {"dtype": "DT_FLOAT", "tensorShape": {"dim": [{"size": "32"}]}}}, "dtype": {"type": "DT_FLOAT"}}}, {"name": "PartitionedCall/model_1/tf.concat_52/concat/axis", "op": "Const", "attr": {"value": {"tensor": {"dtype": "DT_INT32", "tensorShape": {}}}, "dtype": {"type": "DT_INT32"}}}, {"name": "unknown_200", "op": "Const", "attr": {"value": {"tensor": {"dtype": "DT_INT32", "tensorShape": {"dim": [{"size": "4"}, {"size": "2"}]}}}, "dtype": {"type": "DT_INT32"}}}, {"name": "unknown_201", "op": "Const", "attr": {"value": {"tensor": {"dtype": "DT_FLOAT", "tensorShape": {"dim": [{"size": "3"}, {"size": "3"}, {"size": "96"}, {"size": "32"}]}}}, "dtype": {"type": "DT_FLOAT"}}}, {"name": "unknown_202", "op": "Const", "attr": {"value": {"tensor": {"dtype": "DT_FLOAT", "tensorShape": {"dim": [{"size": "32"}]}}}, "dtype": {"type": "DT_FLOAT"}}}, {"name": "PartitionedCall/model_1/tf.concat_53/concat/axis", "op": "Const", "attr": {"value": {"tensor": {"dtype": "DT_INT32", "tensorShape": {}}}, "dtype": {"type": "DT_INT32"}}}, {"name": "unknown_203", "op": "Const", "attr": {"value": {"tensor": {"dtype": "DT_INT32", "tensorShape": {"dim": [{"size": "4"}, {"size": "2"}]}}}, "dtype": {"type": "DT_INT32"}}}, {"name": "unknown_204", "op": "Const", "attr": {"value": {"tensor": {"dtype": "DT_FLOAT", "tensorShape": {"dim": [{"size": "3"}, {"size": "3"}, {"size": "128"}, {"size": "32"}]}}}, "dtype": {"type": "DT_FLOAT"}}}, {"name": "unknown_205", "op": "Const", "attr": {"value": {"tensor": {"dtype": "DT_FLOAT", "tensorShape": {"dim": [{"size": "32"}]}}}, "dtype": {"type": "DT_FLOAT"}}}, {"name": "PartitionedCall/model_1/tf.concat_54/concat/axis", "op": "Const", "attr": {"value": {"tensor": {"dtype": "DT_INT32", "tensorShape": {}}}, "dtype": {"type": "DT_INT32"}}}, {"name": "unknown_206", "op": "Const", "attr": {"value": {"tensor": {"dtype": "DT_INT32", "tensorShape": {"dim": [{"size": "4"}, {"size": "2"}]}}}, "dtype": {"type": "DT_INT32"}}}, {"name": "unknown_207", "op": "Const", "attr": {"value": {"tensor": {"dtype": "DT_FLOAT", "tensorShape": {"dim": [{"size": "3"}, {"size": "3"}, {"size": "160"}, {"size": "32"}]}}}, "dtype": {"type": "DT_FLOAT"}}}, {"name": "unknown_208", "op": "Const", "attr": {"value": {"tensor": {"dtype": "DT_FLOAT", "tensorShape": {"dim": [{"size": "32"}]}}}, "dtype": {"type": "DT_FLOAT"}}}, {"name": "PartitionedCall/model_1/tf.concat_55/concat/axis", "op": "Const", "attr": {"value": {"tensor": {"dtype": "DT_INT32", "tensorShape": {}}}, "dtype": {"type": "DT_INT32"}}}, {"name": "unknown_209", "op": "Const", "attr": {"value": {"tensor": {"dtype": "DT_INT32", "tensorShape": {"dim": [{"size": "4"}, {"size": "2"}]}}}, "dtype": {"type": "DT_INT32"}}}, {"name": "unknown_210", "op": "Const", "attr": {"value": {"tensor": {"dtype": "DT_FLOAT", "tensorShape": {"dim": [{"size": "3"}, {"size": "3"}, {"size": "192"}, {"size": "64"}]}}}, "dtype": {"type": "DT_FLOAT"}}}, {"name": "unknown_211", "op": "Const", "attr": {"value": {"tensor": {"dtype": "DT_FLOAT", "tensorShape": {"dim": [{"size": "64"}]}}}, "dtype": {"type": "DT_FLOAT"}}}, {"name": "PartitionedCall/model_1/tf.math.multiply_34/Mul/y", "op": "Const", "attr": {"value": {"tensor": {"dtype": "DT_FLOAT", "tensorShape": {}}}, "dtype": {"type": "DT_FLOAT"}}}, {"name": "unknown_182", "op": "Const", "attr": {"value": {"tensor": {"dtype": "DT_INT32", "tensorShape": {"dim": [{"size": "4"}, {"size": "2"}]}}}, "dtype": {"type": "DT_INT32"}}}, {"name": "unknown_183", "op": "Const", "attr": {"value": {"tensor": {"dtype": "DT_FLOAT", "tensorShape": {"dim": [{"size": "3"}, {"size": "3"}, {"size": "64"}, {"size": "32"}]}}}, "dtype": {"type": "DT_FLOAT"}}}, {"name": "unknown_184", "op": "Const", "attr": {"value": {"tensor": {"dtype": "DT_FLOAT", "tensorShape": {"dim": [{"size": "32"}]}}}, "dtype": {"type": "DT_FLOAT"}}}, {"name": "PartitionedCall/model_1/tf.concat_48/concat/axis", "op": "Const", "attr": {"value": {"tensor": {"dtype": "DT_INT32", "tensorShape": {}}}, "dtype": {"type": "DT_INT32"}}}, {"name": "unknown_185", "op": "Const", "attr": {"value": {"tensor": {"dtype": "DT_INT32", "tensorShape": {"dim": [{"size": "4"}, {"size": "2"}]}}}, "dtype": {"type": "DT_INT32"}}}, {"name": "unknown_186", "op": "Const", "attr": {"value": {"tensor": {"dtype": "DT_FLOAT", "tensorShape": {"dim": [{"size": "3"}, {"size": "3"}, {"size": "96"}, {"size": "32"}]}}}, "dtype": {"type": "DT_FLOAT"}}}, {"name": "unknown_187", "op": "Const", "attr": {"value": {"tensor": {"dtype": "DT_FLOAT", "tensorShape": {"dim": [{"size": "32"}]}}}, "dtype": {"type": "DT_FLOAT"}}}, {"name": "PartitionedCall/model_1/tf.concat_49/concat/axis", "op": "Const", "attr": {"value": {"tensor": {"dtype": "DT_INT32", "tensorShape": {}}}, "dtype": {"type": "DT_INT32"}}}, {"name": "unknown_188", "op": "Const", "attr": {"value": {"tensor": {"dtype": "DT_INT32", "tensorShape": {"dim": [{"size": "4"}, {"size": "2"}]}}}, "dtype": {"type": "DT_INT32"}}}, {"name": "unknown_189", "op": "Const", "attr": {"value": {"tensor": {"dtype": "DT_FLOAT", "tensorShape": {"dim": [{"size": "3"}, {"size": "3"}, {"size": "128"}, {"size": "32"}]}}}, "dtype": {"type": "DT_FLOAT"}}}, {"name": "unknown_190", "op": "Const", "attr": {"value": {"tensor": {"dtype": "DT_FLOAT", "tensorShape": {"dim": [{"size": "32"}]}}}, "dtype": {"type": "DT_FLOAT"}}}, {"name": "PartitionedCall/model_1/tf.concat_50/concat/axis", "op": "Const", "attr": {"value": {"tensor": {"dtype": "DT_INT32", "tensorShape": {}}}, "dtype": {"type": "DT_INT32"}}}, {"name": "unknown_191", "op": "Const", "attr": {"value": {"tensor": {"dtype": "DT_INT32", "tensorShape": {"dim": [{"size": "4"}, {"size": "2"}]}}}, "dtype": {"type": "DT_INT32"}}}, {"name": "unknown_192", "op": "Const", "attr": {"value": {"tensor": {"dtype": "DT_FLOAT", "tensorShape": {"dim": [{"size": "3"}, {"size": "3"}, {"size": "160"}, {"size": "32"}]}}}, "dtype": {"type": "DT_FLOAT"}}}, {"name": "unknown_193", "op": "Const", "attr": {"value": {"tensor": {"dtype": "DT_FLOAT", "tensorShape": {"dim": [{"size": "32"}]}}}, "dtype": {"type": "DT_FLOAT"}}}, {"name": "PartitionedCall/model_1/tf.concat_51/concat/axis", "op": "Const", "attr": {"value": {"tensor": {"dtype": "DT_INT32", "tensorShape": {}}}, "dtype": {"type": "DT_INT32"}}}, {"name": "unknown_194", "op": "Const", "attr": {"value": {"tensor": {"dtype": "DT_INT32", "tensorShape": {"dim": [{"size": "4"}, {"size": "2"}]}}}, "dtype": {"type": "DT_INT32"}}}, {"name": "unknown_195", "op": "Const", "attr": {"value": {"tensor": {"dtype": "DT_FLOAT", "tensorShape": {"dim": [{"size": "3"}, {"size": "3"}, {"size": "192"}, {"size": "64"}]}}}, "dtype": {"type": "DT_FLOAT"}}}, {"name": "unknown_196", "op": "Const", "attr": {"value": {"tensor": {"dtype": "DT_FLOAT", "tensorShape": {"dim": [{"size": "64"}]}}}, "dtype": {"type": "DT_FLOAT"}}}, {"name": "PartitionedCall/model_1/tf.math.multiply_32/Mul/y", "op": "Const", "attr": {"value": {"tensor": {"dtype": "DT_FLOAT", "tensorShape": {}}}, "dtype": {"type": "DT_FLOAT"}}}, {"name": "PartitionedCall/model_1/tf.math.multiply_38/Mul/y", "op": "Const", "attr": {"value": {"tensor": {"dtype": "DT_FLOAT", "tensorShape": {}}}, "dtype": {"type": "DT_FLOAT"}}}, {"name": "unknown_167", "op": "Const", "attr": {"value": {"tensor": {"dtype": "DT_INT32", "tensorShape": {"dim": [{"size": "4"}, {"size": "2"}]}}}, "dtype": {"type": "DT_INT32"}}}, {"name": "unknown_168", "op": "Const", "attr": {"value": {"tensor": {"dtype": "DT_FLOAT", "tensorShape": {"dim": [{"size": "3"}, {"size": "3"}, {"size": "64"}, {"size": "32"}]}}}, "dtype": {"type": "DT_FLOAT"}}}, {"name": "unknown_169", "op": "Const", "attr": {"value": {"tensor": {"dtype": "DT_FLOAT", "tensorShape": {"dim": [{"size": "32"}]}}}, "dtype": {"type": "DT_FLOAT"}}}, {"name": "PartitionedCall/model_1/tf.concat_44/concat/axis", "op": "Const", "attr": {"value": {"tensor": {"dtype": "DT_INT32", "tensorShape": {}}}, "dtype": {"type": "DT_INT32"}}}, {"name": "unknown_170", "op": "Const", "attr": {"value": {"tensor": {"dtype": "DT_INT32", "tensorShape": {"dim": [{"size": "4"}, {"size": "2"}]}}}, "dtype": {"type": "DT_INT32"}}}, {"name": "unknown_171", "op": "Const", "attr": {"value": {"tensor": {"dtype": "DT_FLOAT", "tensorShape": {"dim": [{"size": "3"}, {"size": "3"}, {"size": "96"}, {"size": "32"}]}}}, "dtype": {"type": "DT_FLOAT"}}}, {"name": "unknown_172", "op": "Const", "attr": {"value": {"tensor": {"dtype": "DT_FLOAT", "tensorShape": {"dim": [{"size": "32"}]}}}, "dtype": {"type": "DT_FLOAT"}}}, {"name": "PartitionedCall/model_1/tf.concat_45/concat/axis", "op": "Const", "attr": {"value": {"tensor": {"dtype": "DT_INT32", "tensorShape": {}}}, "dtype": {"type": "DT_INT32"}}}, {"name": "unknown_173", "op": "Const", "attr": {"value": {"tensor": {"dtype": "DT_INT32", "tensorShape": {"dim": [{"size": "4"}, {"size": "2"}]}}}, "dtype": {"type": "DT_INT32"}}}, {"name": "unknown_174", "op": "Const", "attr": {"value": {"tensor": {"dtype": "DT_FLOAT", "tensorShape": {"dim": [{"size": "3"}, {"size": "3"}, {"size": "128"}, {"size": "32"}]}}}, "dtype": {"type": "DT_FLOAT"}}}, {"name": "unknown_175", "op": "Const", "attr": {"value": {"tensor": {"dtype": "DT_FLOAT", "tensorShape": {"dim": [{"size": "32"}]}}}, "dtype": {"type": "DT_FLOAT"}}}, {"name": "PartitionedCall/model_1/tf.concat_46/concat/axis", "op": "Const", "attr": {"value": {"tensor": {"dtype": "DT_INT32", "tensorShape": {}}}, "dtype": {"type": "DT_INT32"}}}, {"name": "unknown_176", "op": "Const", "attr": {"value": {"tensor": {"dtype": "DT_INT32", "tensorShape": {"dim": [{"size": "4"}, {"size": "2"}]}}}, "dtype": {"type": "DT_INT32"}}}, {"name": "unknown_177", "op": "Const", "attr": {"value": {"tensor": {"dtype": "DT_FLOAT", "tensorShape": {"dim": [{"size": "3"}, {"size": "3"}, {"size": "160"}, {"size": "32"}]}}}, "dtype": {"type": "DT_FLOAT"}}}, {"name": "unknown_178", "op": "Const", "attr": {"value": {"tensor": {"dtype": "DT_FLOAT", "tensorShape": {"dim": [{"size": "32"}]}}}, "dtype": {"type": "DT_FLOAT"}}}, {"name": "PartitionedCall/model_1/tf.concat_47/concat/axis", "op": "Const", "attr": {"value": {"tensor": {"dtype": "DT_INT32", "tensorShape": {}}}, "dtype": {"type": "DT_INT32"}}}, {"name": "unknown_179", "op": "Const", "attr": {"value": {"tensor": {"dtype": "DT_INT32", "tensorShape": {"dim": [{"size": "4"}, {"size": "2"}]}}}, "dtype": {"type": "DT_INT32"}}}, {"name": "unknown_180", "op": "Const", "attr": {"value": {"tensor": {"dtype": "DT_FLOAT", "tensorShape": {"dim": [{"size": "3"}, {"size": "3"}, {"size": "192"}, {"size": "64"}]}}}, "dtype": {"type": "DT_FLOAT"}}}, {"name": "unknown_181", "op": "Const", "attr": {"value": {"tensor": {"dtype": "DT_FLOAT", "tensorShape": {"dim": [{"size": "64"}]}}}, "dtype": {"type": "DT_FLOAT"}}}, {"name": "PartitionedCall/model_1/tf.math.multiply_28/Mul/y", "op": "Const", "attr": {"value": {"tensor": {"dtype": "DT_FLOAT", "tensorShape": {}}}, "dtype": {"type": "DT_FLOAT"}}}, {"name": "unknown_152", "op": "Const", "attr": {"value": {"tensor": {"dtype": "DT_INT32", "tensorShape": {"dim": [{"size": "4"}, {"size": "2"}]}}}, "dtype": {"type": "DT_INT32"}}}, {"name": "unknown_153", "op": "Const", "attr": {"value": {"tensor": {"dtype": "DT_FLOAT", "tensorShape": {"dim": [{"size": "3"}, {"size": "3"}, {"size": "64"}, {"size": "32"}]}}}, "dtype": {"type": "DT_FLOAT"}}}, {"name": "unknown_154", "op": "Const", "attr": {"value": {"tensor": {"dtype": "DT_FLOAT", "tensorShape": {"dim": [{"size": "32"}]}}}, "dtype": {"type": "DT_FLOAT"}}}, {"name": "PartitionedCall/model_1/tf.concat_40/concat/axis", "op": "Const", "attr": {"value": {"tensor": {"dtype": "DT_INT32", "tensorShape": {}}}, "dtype": {"type": "DT_INT32"}}}, {"name": "unknown_155", "op": "Const", "attr": {"value": {"tensor": {"dtype": "DT_INT32", "tensorShape": {"dim": [{"size": "4"}, {"size": "2"}]}}}, "dtype": {"type": "DT_INT32"}}}, {"name": "unknown_156", "op": "Const", "attr": {"value": {"tensor": {"dtype": "DT_FLOAT", "tensorShape": {"dim": [{"size": "3"}, {"size": "3"}, {"size": "96"}, {"size": "32"}]}}}, "dtype": {"type": "DT_FLOAT"}}}, {"name": "unknown_157", "op": "Const", "attr": {"value": {"tensor": {"dtype": "DT_FLOAT", "tensorShape": {"dim": [{"size": "32"}]}}}, "dtype": {"type": "DT_FLOAT"}}}, {"name": "PartitionedCall/model_1/tf.concat_41/concat/axis", "op": "Const", "attr": {"value": {"tensor": {"dtype": "DT_INT32", "tensorShape": {}}}, "dtype": {"type": "DT_INT32"}}}, {"name": "unknown_158", "op": "Const", "attr": {"value": {"tensor": {"dtype": "DT_INT32", "tensorShape": {"dim": [{"size": "4"}, {"size": "2"}]}}}, "dtype": {"type": "DT_INT32"}}}, {"name": "unknown_159", "op": "Const", "attr": {"value": {"tensor": {"dtype": "DT_FLOAT", "tensorShape": {"dim": [{"size": "3"}, {"size": "3"}, {"size": "128"}, {"size": "32"}]}}}, "dtype": {"type": "DT_FLOAT"}}}, {"name": "unknown_160", "op": "Const", "attr": {"value": {"tensor": {"dtype": "DT_FLOAT", "tensorShape": {"dim": [{"size": "32"}]}}}, "dtype": {"type": "DT_FLOAT"}}}, {"name": "PartitionedCall/model_1/tf.concat_42/concat/axis", "op": "Const", "attr": {"value": {"tensor": {"dtype": "DT_INT32", "tensorShape": {}}}, "dtype": {"type": "DT_INT32"}}}, {"name": "unknown_161", "op": "Const", "attr": {"value": {"tensor": {"dtype": "DT_INT32", "tensorShape": {"dim": [{"size": "4"}, {"size": "2"}]}}}, "dtype": {"type": "DT_INT32"}}}, {"name": "unknown_162", "op": "Const", "attr": {"value": {"tensor": {"dtype": "DT_FLOAT", "tensorShape": {"dim": [{"size": "3"}, {"size": "3"}, {"size": "160"}, {"size": "32"}]}}}, "dtype": {"type": "DT_FLOAT"}}}, {"name": "unknown_163", "op": "Const", "attr": {"value": {"tensor": {"dtype": "DT_FLOAT", "tensorShape": {"dim": [{"size": "32"}]}}}, "dtype": {"type": "DT_FLOAT"}}}, {"name": "PartitionedCall/model_1/tf.concat_43/concat/axis", "op": "Const", "attr": {"value": {"tensor": {"dtype": "DT_INT32", "tensorShape": {}}}, "dtype": {"type": "DT_INT32"}}}, {"name": "unknown_164", "op": "Const", "attr": {"value": {"tensor": {"dtype": "DT_INT32", "tensorShape": {"dim": [{"size": "4"}, {"size": "2"}]}}}, "dtype": {"type": "DT_INT32"}}}, {"name": "unknown_165", "op": "Const", "attr": {"value": {"tensor": {"dtype": "DT_FLOAT", "tensorShape": {"dim": [{"size": "3"}, {"size": "3"}, {"size": "192"}, {"size": "64"}]}}}, "dtype": {"type": "DT_FLOAT"}}}, {"name": "unknown_166", "op": "Const", "attr": {"value": {"tensor": {"dtype": "DT_FLOAT", "tensorShape": {"dim": [{"size": "64"}]}}}, "dtype": {"type": "DT_FLOAT"}}}, {"name": "PartitionedCall/model_1/tf.math.multiply_26/Mul/y", "op": "Const", "attr": {"value": {"tensor": {"dtype": "DT_FLOAT", "tensorShape": {}}}, "dtype": {"type": "DT_FLOAT"}}}, {"name": "unknown_137", "op": "Const", "attr": {"value": {"tensor": {"dtype": "DT_INT32", "tensorShape": {"dim": [{"size": "4"}, {"size": "2"}]}}}, "dtype": {"type": "DT_INT32"}}}, {"name": "unknown_138", "op": "Const", "attr": {"value": {"tensor": {"dtype": "DT_FLOAT", "tensorShape": {"dim": [{"size": "3"}, {"size": "3"}, {"size": "64"}, {"size": "32"}]}}}, "dtype": {"type": "DT_FLOAT"}}}, {"name": "unknown_139", "op": "Const", "attr": {"value": {"tensor": {"dtype": "DT_FLOAT", "tensorShape": {"dim": [{"size": "32"}]}}}, "dtype": {"type": "DT_FLOAT"}}}, {"name": "PartitionedCall/model_1/tf.concat_36/concat/axis", "op": "Const", "attr": {"value": {"tensor": {"dtype": "DT_INT32", "tensorShape": {}}}, "dtype": {"type": "DT_INT32"}}}, {"name": "unknown_140", "op": "Const", "attr": {"value": {"tensor": {"dtype": "DT_INT32", "tensorShape": {"dim": [{"size": "4"}, {"size": "2"}]}}}, "dtype": {"type": "DT_INT32"}}}, {"name": "unknown_141", "op": "Const", "attr": {"value": {"tensor": {"dtype": "DT_FLOAT", "tensorShape": {"dim": [{"size": "3"}, {"size": "3"}, {"size": "96"}, {"size": "32"}]}}}, "dtype": {"type": "DT_FLOAT"}}}, {"name": "unknown_142", "op": "Const", "attr": {"value": {"tensor": {"dtype": "DT_FLOAT", "tensorShape": {"dim": [{"size": "32"}]}}}, "dtype": {"type": "DT_FLOAT"}}}, {"name": "PartitionedCall/model_1/tf.concat_37/concat/axis", "op": "Const", "attr": {"value": {"tensor": {"dtype": "DT_INT32", "tensorShape": {}}}, "dtype": {"type": "DT_INT32"}}}, {"name": "unknown_143", "op": "Const", "attr": {"value": {"tensor": {"dtype": "DT_INT32", "tensorShape": {"dim": [{"size": "4"}, {"size": "2"}]}}}, "dtype": {"type": "DT_INT32"}}}, {"name": "unknown_144", "op": "Const", "attr": {"value": {"tensor": {"dtype": "DT_FLOAT", "tensorShape": {"dim": [{"size": "3"}, {"size": "3"}, {"size": "128"}, {"size": "32"}]}}}, "dtype": {"type": "DT_FLOAT"}}}, {"name": "unknown_145", "op": "Const", "attr": {"value": {"tensor": {"dtype": "DT_FLOAT", "tensorShape": {"dim": [{"size": "32"}]}}}, "dtype": {"type": "DT_FLOAT"}}}, {"name": "PartitionedCall/model_1/tf.concat_38/concat/axis", "op": "Const", "attr": {"value": {"tensor": {"dtype": "DT_INT32", "tensorShape": {}}}, "dtype": {"type": "DT_INT32"}}}, {"name": "unknown_146", "op": "Const", "attr": {"value": {"tensor": {"dtype": "DT_INT32", "tensorShape": {"dim": [{"size": "4"}, {"size": "2"}]}}}, "dtype": {"type": "DT_INT32"}}}, {"name": "unknown_147", "op": "Const", "attr": {"value": {"tensor": {"dtype": "DT_FLOAT", "tensorShape": {"dim": [{"size": "3"}, {"size": "3"}, {"size": "160"}, {"size": "32"}]}}}, "dtype": {"type": "DT_FLOAT"}}}, {"name": "unknown_148", "op": "Const", "attr": {"value": {"tensor": {"dtype": "DT_FLOAT", "tensorShape": {"dim": [{"size": "32"}]}}}, "dtype": {"type": "DT_FLOAT"}}}, {"name": "PartitionedCall/model_1/tf.concat_39/concat/axis", "op": "Const", "attr": {"value": {"tensor": {"dtype": "DT_INT32", "tensorShape": {}}}, "dtype": {"type": "DT_INT32"}}}, {"name": "unknown_149", "op": "Const", "attr": {"value": {"tensor": {"dtype": "DT_INT32", "tensorShape": {"dim": [{"size": "4"}, {"size": "2"}]}}}, "dtype": {"type": "DT_INT32"}}}, {"name": "unknown_150", "op": "Const", "attr": {"value": {"tensor": {"dtype": "DT_FLOAT", "tensorShape": {"dim": [{"size": "3"}, {"size": "3"}, {"size": "192"}, {"size": "64"}]}}}, "dtype": {"type": "DT_FLOAT"}}}, {"name": "unknown_151", "op": "Const", "attr": {"value": {"tensor": {"dtype": "DT_FLOAT", "tensorShape": {"dim": [{"size": "64"}]}}}, "dtype": {"type": "DT_FLOAT"}}}, {"name": "PartitionedCall/model_1/tf.math.multiply_24/Mul/y", "op": "Const", "attr": {"value": {"tensor": {"dtype": "DT_FLOAT", "tensorShape": {}}}, "dtype": {"type": "DT_FLOAT"}}}, {"name": "PartitionedCall/model_1/tf.math.multiply_30/Mul/y", "op": "Const", "attr": {"value": {"tensor": {"dtype": "DT_FLOAT", "tensorShape": {}}}, "dtype": {"type": "DT_FLOAT"}}}, {"name": "unknown_122", "op": "Const", "attr": {"value": {"tensor": {"dtype": "DT_INT32", "tensorShape": {"dim": [{"size": "4"}, {"size": "2"}]}}}, "dtype": {"type": "DT_INT32"}}}, {"name": "unknown_123", "op": "Const", "attr": {"value": {"tensor": {"dtype": "DT_FLOAT", "tensorShape": {"dim": [{"size": "3"}, {"size": "3"}, {"size": "64"}, {"size": "32"}]}}}, "dtype": {"type": "DT_FLOAT"}}}, {"name": "unknown_124", "op": "Const", "attr": {"value": {"tensor": {"dtype": "DT_FLOAT", "tensorShape": {"dim": [{"size": "32"}]}}}, "dtype": {"type": "DT_FLOAT"}}}, {"name": "PartitionedCall/model_1/tf.concat_32/concat/axis", "op": "Const", "attr": {"value": {"tensor": {"dtype": "DT_INT32", "tensorShape": {}}}, "dtype": {"type": "DT_INT32"}}}, {"name": "unknown_125", "op": "Const", "attr": {"value": {"tensor": {"dtype": "DT_INT32", "tensorShape": {"dim": [{"size": "4"}, {"size": "2"}]}}}, "dtype": {"type": "DT_INT32"}}}, {"name": "unknown_126", "op": "Const", "attr": {"value": {"tensor": {"dtype": "DT_FLOAT", "tensorShape": {"dim": [{"size": "3"}, {"size": "3"}, {"size": "96"}, {"size": "32"}]}}}, "dtype": {"type": "DT_FLOAT"}}}, {"name": "unknown_127", "op": "Const", "attr": {"value": {"tensor": {"dtype": "DT_FLOAT", "tensorShape": {"dim": [{"size": "32"}]}}}, "dtype": {"type": "DT_FLOAT"}}}, {"name": "PartitionedCall/model_1/tf.concat_33/concat/axis", "op": "Const", "attr": {"value": {"tensor": {"dtype": "DT_INT32", "tensorShape": {}}}, "dtype": {"type": "DT_INT32"}}}, {"name": "unknown_128", "op": "Const", "attr": {"value": {"tensor": {"dtype": "DT_INT32", "tensorShape": {"dim": [{"size": "4"}, {"size": "2"}]}}}, "dtype": {"type": "DT_INT32"}}}, {"name": "unknown_129", "op": "Const", "attr": {"value": {"tensor": {"dtype": "DT_FLOAT", "tensorShape": {"dim": [{"size": "3"}, {"size": "3"}, {"size": "128"}, {"size": "32"}]}}}, "dtype": {"type": "DT_FLOAT"}}}, {"name": "unknown_130", "op": "Const", "attr": {"value": {"tensor": {"dtype": "DT_FLOAT", "tensorShape": {"dim": [{"size": "32"}]}}}, "dtype": {"type": "DT_FLOAT"}}}, {"name": "PartitionedCall/model_1/tf.concat_34/concat/axis", "op": "Const", "attr": {"value": {"tensor": {"dtype": "DT_INT32", "tensorShape": {}}}, "dtype": {"type": "DT_INT32"}}}, {"name": "unknown_131", "op": "Const", "attr": {"value": {"tensor": {"dtype": "DT_INT32", "tensorShape": {"dim": [{"size": "4"}, {"size": "2"}]}}}, "dtype": {"type": "DT_INT32"}}}, {"name": "unknown_132", "op": "Const", "attr": {"value": {"tensor": {"dtype": "DT_FLOAT", "tensorShape": {"dim": [{"size": "3"}, {"size": "3"}, {"size": "160"}, {"size": "32"}]}}}, "dtype": {"type": "DT_FLOAT"}}}, {"name": "unknown_133", "op": "Const", "attr": {"value": {"tensor": {"dtype": "DT_FLOAT", "tensorShape": {"dim": [{"size": "32"}]}}}, "dtype": {"type": "DT_FLOAT"}}}, {"name": "PartitionedCall/model_1/tf.concat_35/concat/axis", "op": "Const", "attr": {"value": {"tensor": {"dtype": "DT_INT32", "tensorShape": {}}}, "dtype": {"type": "DT_INT32"}}}, {"name": "unknown_134", "op": "Const", "attr": {"value": {"tensor": {"dtype": "DT_INT32", "tensorShape": {"dim": [{"size": "4"}, {"size": "2"}]}}}, "dtype": {"type": "DT_INT32"}}}, {"name": "unknown_135", "op": "Const", "attr": {"value": {"tensor": {"dtype": "DT_FLOAT", "tensorShape": {"dim": [{"size": "3"}, {"size": "3"}, {"size": "192"}, {"size": "64"}]}}}, "dtype": {"type": "DT_FLOAT"}}}, {"name": "unknown_136", "op": "Const", "attr": {"value": {"tensor": {"dtype": "DT_FLOAT", "tensorShape": {"dim": [{"size": "64"}]}}}, "dtype": {"type": "DT_FLOAT"}}}, {"name": "PartitionedCall/model_1/tf.math.multiply_20/Mul/y", "op": "Const", "attr": {"value": {"tensor": {"dtype": "DT_FLOAT", "tensorShape": {}}}, "dtype": {"type": "DT_FLOAT"}}}, {"name": "unknown_107", "op": "Const", "attr": {"value": {"tensor": {"dtype": "DT_INT32", "tensorShape": {"dim": [{"size": "4"}, {"size": "2"}]}}}, "dtype": {"type": "DT_INT32"}}}, {"name": "unknown_108", "op": "Const", "attr": {"value": {"tensor": {"dtype": "DT_FLOAT", "tensorShape": {"dim": [{"size": "3"}, {"size": "3"}, {"size": "64"}, {"size": "32"}]}}}, "dtype": {"type": "DT_FLOAT"}}}, {"name": "unknown_109", "op": "Const", "attr": {"value": {"tensor": {"dtype": "DT_FLOAT", "tensorShape": {"dim": [{"size": "32"}]}}}, "dtype": {"type": "DT_FLOAT"}}}, {"name": "PartitionedCall/model_1/tf.concat_28/concat/axis", "op": "Const", "attr": {"value": {"tensor": {"dtype": "DT_INT32", "tensorShape": {}}}, "dtype": {"type": "DT_INT32"}}}, {"name": "unknown_110", "op": "Const", "attr": {"value": {"tensor": {"dtype": "DT_INT32", "tensorShape": {"dim": [{"size": "4"}, {"size": "2"}]}}}, "dtype": {"type": "DT_INT32"}}}, {"name": "unknown_111", "op": "Const", "attr": {"value": {"tensor": {"dtype": "DT_FLOAT", "tensorShape": {"dim": [{"size": "3"}, {"size": "3"}, {"size": "96"}, {"size": "32"}]}}}, "dtype": {"type": "DT_FLOAT"}}}, {"name": "unknown_112", "op": "Const", "attr": {"value": {"tensor": {"dtype": "DT_FLOAT", "tensorShape": {"dim": [{"size": "32"}]}}}, "dtype": {"type": "DT_FLOAT"}}}, {"name": "PartitionedCall/model_1/tf.concat_29/concat/axis", "op": "Const", "attr": {"value": {"tensor": {"dtype": "DT_INT32", "tensorShape": {}}}, "dtype": {"type": "DT_INT32"}}}, {"name": "unknown_113", "op": "Const", "attr": {"value": {"tensor": {"dtype": "DT_INT32", "tensorShape": {"dim": [{"size": "4"}, {"size": "2"}]}}}, "dtype": {"type": "DT_INT32"}}}, {"name": "unknown_114", "op": "Const", "attr": {"value": {"tensor": {"dtype": "DT_FLOAT", "tensorShape": {"dim": [{"size": "3"}, {"size": "3"}, {"size": "128"}, {"size": "32"}]}}}, "dtype": {"type": "DT_FLOAT"}}}, {"name": "unknown_115", "op": "Const", "attr": {"value": {"tensor": {"dtype": "DT_FLOAT", "tensorShape": {"dim": [{"size": "32"}]}}}, "dtype": {"type": "DT_FLOAT"}}}, {"name": "PartitionedCall/model_1/tf.concat_30/concat/axis", "op": "Const", "attr": {"value": {"tensor": {"dtype": "DT_INT32", "tensorShape": {}}}, "dtype": {"type": "DT_INT32"}}}, {"name": "unknown_116", "op": "Const", "attr": {"value": {"tensor": {"dtype": "DT_INT32", "tensorShape": {"dim": [{"size": "4"}, {"size": "2"}]}}}, "dtype": {"type": "DT_INT32"}}}, {"name": "unknown_117", "op": "Const", "attr": {"value": {"tensor": {"dtype": "DT_FLOAT", "tensorShape": {"dim": [{"size": "3"}, {"size": "3"}, {"size": "160"}, {"size": "32"}]}}}, "dtype": {"type": "DT_FLOAT"}}}, {"name": "unknown_118", "op": "Const", "attr": {"value": {"tensor": {"dtype": "DT_FLOAT", "tensorShape": {"dim": [{"size": "32"}]}}}, "dtype": {"type": "DT_FLOAT"}}}, {"name": "PartitionedCall/model_1/tf.concat_31/concat/axis", "op": "Const", "attr": {"value": {"tensor": {"dtype": "DT_INT32", "tensorShape": {}}}, "dtype": {"type": "DT_INT32"}}}, {"name": "unknown_119", "op": "Const", "attr": {"value": {"tensor": {"dtype": "DT_INT32", "tensorShape": {"dim": [{"size": "4"}, {"size": "2"}]}}}, "dtype": {"type": "DT_INT32"}}}, {"name": "unknown_120", "op": "Const", "attr": {"value": {"tensor": {"dtype": "DT_FLOAT", "tensorShape": {"dim": [{"size": "3"}, {"size": "3"}, {"size": "192"}, {"size": "64"}]}}}, "dtype": {"type": "DT_FLOAT"}}}, {"name": "unknown_121", "op": "Const", "attr": {"value": {"tensor": {"dtype": "DT_FLOAT", "tensorShape": {"dim": [{"size": "64"}]}}}, "dtype": {"type": "DT_FLOAT"}}}, {"name": "PartitionedCall/model_1/tf.math.multiply_18/Mul/y", "op": "Const", "attr": {"value": {"tensor": {"dtype": "DT_FLOAT", "tensorShape": {}}}, "dtype": {"type": "DT_FLOAT"}}}, {"name": "unknown_92", "op": "Const", "attr": {"value": {"tensor": {"dtype": "DT_INT32", "tensorShape": {"dim": [{"size": "4"}, {"size": "2"}]}}}, "dtype": {"type": "DT_INT32"}}}, {"name": "unknown_93", "op": "Const", "attr": {"value": {"tensor": {"dtype": "DT_FLOAT", "tensorShape": {"dim": [{"size": "3"}, {"size": "3"}, {"size": "64"}, {"size": "32"}]}}}, "dtype": {"type": "DT_FLOAT"}}}, {"name": "unknown_94", "op": "Const", "attr": {"value": {"tensor": {"dtype": "DT_FLOAT", "tensorShape": {"dim": [{"size": "32"}]}}}, "dtype": {"type": "DT_FLOAT"}}}, {"name": "PartitionedCall/model_1/tf.concat_24/concat/axis", "op": "Const", "attr": {"value": {"tensor": {"dtype": "DT_INT32", "tensorShape": {}}}, "dtype": {"type": "DT_INT32"}}}, {"name": "unknown_95", "op": "Const", "attr": {"value": {"tensor": {"dtype": "DT_INT32", "tensorShape": {"dim": [{"size": "4"}, {"size": "2"}]}}}, "dtype": {"type": "DT_INT32"}}}, {"name": "unknown_96", "op": "Const", "attr": {"value": {"tensor": {"dtype": "DT_FLOAT", "tensorShape": {"dim": [{"size": "3"}, {"size": "3"}, {"size": "96"}, {"size": "32"}]}}}, "dtype": {"type": "DT_FLOAT"}}}, {"name": "unknown_97", "op": "Const", "attr": {"value": {"tensor": {"dtype": "DT_FLOAT", "tensorShape": {"dim": [{"size": "32"}]}}}, "dtype": {"type": "DT_FLOAT"}}}, {"name": "PartitionedCall/model_1/tf.concat_25/concat/axis", "op": "Const", "attr": {"value": {"tensor": {"dtype": "DT_INT32", "tensorShape": {}}}, "dtype": {"type": "DT_INT32"}}}, {"name": "unknown_98", "op": "Const", "attr": {"value": {"tensor": {"dtype": "DT_INT32", "tensorShape": {"dim": [{"size": "4"}, {"size": "2"}]}}}, "dtype": {"type": "DT_INT32"}}}, {"name": "unknown_99", "op": "Const", "attr": {"value": {"tensor": {"dtype": "DT_FLOAT", "tensorShape": {"dim": [{"size": "3"}, {"size": "3"}, {"size": "128"}, {"size": "32"}]}}}, "dtype": {"type": "DT_FLOAT"}}}, {"name": "unknown_100", "op": "Const", "attr": {"value": {"tensor": {"dtype": "DT_FLOAT", "tensorShape": {"dim": [{"size": "32"}]}}}, "dtype": {"type": "DT_FLOAT"}}}, {"name": "PartitionedCall/model_1/tf.concat_26/concat/axis", "op": "Const", "attr": {"value": {"tensor": {"dtype": "DT_INT32", "tensorShape": {}}}, "dtype": {"type": "DT_INT32"}}}, {"name": "unknown_101", "op": "Const", "attr": {"value": {"tensor": {"dtype": "DT_INT32", "tensorShape": {"dim": [{"size": "4"}, {"size": "2"}]}}}, "dtype": {"type": "DT_INT32"}}}, {"name": "unknown_102", "op": "Const", "attr": {"value": {"tensor": {"dtype": "DT_FLOAT", "tensorShape": {"dim": [{"size": "3"}, {"size": "3"}, {"size": "160"}, {"size": "32"}]}}}, "dtype": {"type": "DT_FLOAT"}}}, {"name": "unknown_103", "op": "Const", "attr": {"value": {"tensor": {"dtype": "DT_FLOAT", "tensorShape": {"dim": [{"size": "32"}]}}}, "dtype": {"type": "DT_FLOAT"}}}, {"name": "PartitionedCall/model_1/tf.concat_27/concat/axis", "op": "Const", "attr": {"value": {"tensor": {"dtype": "DT_INT32", "tensorShape": {}}}, "dtype": {"type": "DT_INT32"}}}, {"name": "unknown_104", "op": "Const", "attr": {"value": {"tensor": {"dtype": "DT_INT32", "tensorShape": {"dim": [{"size": "4"}, {"size": "2"}]}}}, "dtype": {"type": "DT_INT32"}}}, {"name": "unknown_105", "op": "Const", "attr": {"value": {"tensor": {"dtype": "DT_FLOAT", "tensorShape": {"dim": [{"size": "3"}, {"size": "3"}, {"size": "192"}, {"size": "64"}]}}}, "dtype": {"type": "DT_FLOAT"}}}, {"name": "unknown_106", "op": "Const", "attr": {"value": {"tensor": {"dtype": "DT_FLOAT", "tensorShape": {"dim": [{"size": "64"}]}}}, "dtype": {"type": "DT_FLOAT"}}}, {"name": "PartitionedCall/model_1/tf.math.multiply_16/Mul/y", "op": "Const", "attr": {"value": {"tensor": {"dtype": "DT_FLOAT", "tensorShape": {}}}, "dtype": {"type": "DT_FLOAT"}}}, {"name": "PartitionedCall/model_1/tf.math.multiply_22/Mul/y", "op": "Const", "attr": {"value": {"tensor": {"dtype": "DT_FLOAT", "tensorShape": {}}}, "dtype": {"type": "DT_FLOAT"}}}, {"name": "unknown_77", "op": "Const", "attr": {"value": {"tensor": {"dtype": "DT_INT32", "tensorShape": {"dim": [{"size": "4"}, {"size": "2"}]}}}, "dtype": {"type": "DT_INT32"}}}, {"name": "unknown_78", "op": "Const", "attr": {"value": {"tensor": {"dtype": "DT_FLOAT", "tensorShape": {"dim": [{"size": "3"}, {"size": "3"}, {"size": "64"}, {"size": "32"}]}}}, "dtype": {"type": "DT_FLOAT"}}}, {"name": "unknown_79", "op": "Const", "attr": {"value": {"tensor": {"dtype": "DT_FLOAT", "tensorShape": {"dim": [{"size": "32"}]}}}, "dtype": {"type": "DT_FLOAT"}}}, {"name": "PartitionedCall/model_1/tf.concat_20/concat/axis", "op": "Const", "attr": {"value": {"tensor": {"dtype": "DT_INT32", "tensorShape": {}}}, "dtype": {"type": "DT_INT32"}}}, {"name": "unknown_80", "op": "Const", "attr": {"value": {"tensor": {"dtype": "DT_INT32", "tensorShape": {"dim": [{"size": "4"}, {"size": "2"}]}}}, "dtype": {"type": "DT_INT32"}}}, {"name": "unknown_81", "op": "Const", "attr": {"value": {"tensor": {"dtype": "DT_FLOAT", "tensorShape": {"dim": [{"size": "3"}, {"size": "3"}, {"size": "96"}, {"size": "32"}]}}}, "dtype": {"type": "DT_FLOAT"}}}, {"name": "unknown_82", "op": "Const", "attr": {"value": {"tensor": {"dtype": "DT_FLOAT", "tensorShape": {"dim": [{"size": "32"}]}}}, "dtype": {"type": "DT_FLOAT"}}}, {"name": "PartitionedCall/model_1/tf.concat_21/concat/axis", "op": "Const", "attr": {"value": {"tensor": {"dtype": "DT_INT32", "tensorShape": {}}}, "dtype": {"type": "DT_INT32"}}}, {"name": "unknown_83", "op": "Const", "attr": {"value": {"tensor": {"dtype": "DT_INT32", "tensorShape": {"dim": [{"size": "4"}, {"size": "2"}]}}}, "dtype": {"type": "DT_INT32"}}}, {"name": "unknown_84", "op": "Const", "attr": {"value": {"tensor": {"dtype": "DT_FLOAT", "tensorShape": {"dim": [{"size": "3"}, {"size": "3"}, {"size": "128"}, {"size": "32"}]}}}, "dtype": {"type": "DT_FLOAT"}}}, {"name": "unknown_85", "op": "Const", "attr": {"value": {"tensor": {"dtype": "DT_FLOAT", "tensorShape": {"dim": [{"size": "32"}]}}}, "dtype": {"type": "DT_FLOAT"}}}, {"name": "PartitionedCall/model_1/tf.concat_22/concat/axis", "op": "Const", "attr": {"value": {"tensor": {"dtype": "DT_INT32", "tensorShape": {}}}, "dtype": {"type": "DT_INT32"}}}, {"name": "unknown_86", "op": "Const", "attr": {"value": {"tensor": {"dtype": "DT_INT32", "tensorShape": {"dim": [{"size": "4"}, {"size": "2"}]}}}, "dtype": {"type": "DT_INT32"}}}, {"name": "unknown_87", "op": "Const", "attr": {"value": {"tensor": {"dtype": "DT_FLOAT", "tensorShape": {"dim": [{"size": "3"}, {"size": "3"}, {"size": "160"}, {"size": "32"}]}}}, "dtype": {"type": "DT_FLOAT"}}}, {"name": "unknown_88", "op": "Const", "attr": {"value": {"tensor": {"dtype": "DT_FLOAT", "tensorShape": {"dim": [{"size": "32"}]}}}, "dtype": {"type": "DT_FLOAT"}}}, {"name": "PartitionedCall/model_1/tf.concat_23/concat/axis", "op": "Const", "attr": {"value": {"tensor": {"dtype": "DT_INT32", "tensorShape": {}}}, "dtype": {"type": "DT_INT32"}}}, {"name": "unknown_89", "op": "Const", "attr": {"value": {"tensor": {"dtype": "DT_INT32", "tensorShape": {"dim": [{"size": "4"}, {"size": "2"}]}}}, "dtype": {"type": "DT_INT32"}}}, {"name": "unknown_90", "op": "Const", "attr": {"value": {"tensor": {"dtype": "DT_FLOAT", "tensorShape": {"dim": [{"size": "3"}, {"size": "3"}, {"size": "192"}, {"size": "64"}]}}}, "dtype": {"type": "DT_FLOAT"}}}, {"name": "unknown_91", "op": "Const", "attr": {"value": {"tensor": {"dtype": "DT_FLOAT", "tensorShape": {"dim": [{"size": "64"}]}}}, "dtype": {"type": "DT_FLOAT"}}}, {"name": "PartitionedCall/model_1/tf.math.multiply_12/Mul/y", "op": "Const", "attr": {"value": {"tensor": {"dtype": "DT_FLOAT", "tensorShape": {}}}, "dtype": {"type": "DT_FLOAT"}}}, {"name": "unknown_62", "op": "Const", "attr": {"value": {"tensor": {"dtype": "DT_INT32", "tensorShape": {"dim": [{"size": "4"}, {"size": "2"}]}}}, "dtype": {"type": "DT_INT32"}}}, {"name": "unknown_63", "op": "Const", "attr": {"value": {"tensor": {"dtype": "DT_FLOAT", "tensorShape": {"dim": [{"size": "3"}, {"size": "3"}, {"size": "64"}, {"size": "32"}]}}}, "dtype": {"type": "DT_FLOAT"}}}, {"name": "unknown_64", "op": "Const", "attr": {"value": {"tensor": {"dtype": "DT_FLOAT", "tensorShape": {"dim": [{"size": "32"}]}}}, "dtype": {"type": "DT_FLOAT"}}}, {"name": "PartitionedCall/model_1/tf.concat_16/concat/axis", "op": "Const", "attr": {"value": {"tensor": {"dtype": "DT_INT32", "tensorShape": {}}}, "dtype": {"type": "DT_INT32"}}}, {"name": "unknown_65", "op": "Const", "attr": {"value": {"tensor": {"dtype": "DT_INT32", "tensorShape": {"dim": [{"size": "4"}, {"size": "2"}]}}}, "dtype": {"type": "DT_INT32"}}}, {"name": "unknown_66", "op": "Const", "attr": {"value": {"tensor": {"dtype": "DT_FLOAT", "tensorShape": {"dim": [{"size": "3"}, {"size": "3"}, {"size": "96"}, {"size": "32"}]}}}, "dtype": {"type": "DT_FLOAT"}}}, {"name": "unknown_67", "op": "Const", "attr": {"value": {"tensor": {"dtype": "DT_FLOAT", "tensorShape": {"dim": [{"size": "32"}]}}}, "dtype": {"type": "DT_FLOAT"}}}, {"name": "PartitionedCall/model_1/tf.concat_17/concat/axis", "op": "Const", "attr": {"value": {"tensor": {"dtype": "DT_INT32", "tensorShape": {}}}, "dtype": {"type": "DT_INT32"}}}, {"name": "unknown_68", "op": "Const", "attr": {"value": {"tensor": {"dtype": "DT_INT32", "tensorShape": {"dim": [{"size": "4"}, {"size": "2"}]}}}, "dtype": {"type": "DT_INT32"}}}, {"name": "unknown_69", "op": "Const", "attr": {"value": {"tensor": {"dtype": "DT_FLOAT", "tensorShape": {"dim": [{"size": "3"}, {"size": "3"}, {"size": "128"}, {"size": "32"}]}}}, "dtype": {"type": "DT_FLOAT"}}}, {"name": "unknown_70", "op": "Const", "attr": {"value": {"tensor": {"dtype": "DT_FLOAT", "tensorShape": {"dim": [{"size": "32"}]}}}, "dtype": {"type": "DT_FLOAT"}}}, {"name": "PartitionedCall/model_1/tf.concat_18/concat/axis", "op": "Const", "attr": {"value": {"tensor": {"dtype": "DT_INT32", "tensorShape": {}}}, "dtype": {"type": "DT_INT32"}}}, {"name": "unknown_71", "op": "Const", "attr": {"value": {"tensor": {"dtype": "DT_INT32", "tensorShape": {"dim": [{"size": "4"}, {"size": "2"}]}}}, "dtype": {"type": "DT_INT32"}}}, {"name": "unknown_72", "op": "Const", "attr": {"value": {"tensor": {"dtype": "DT_FLOAT", "tensorShape": {"dim": [{"size": "3"}, {"size": "3"}, {"size": "160"}, {"size": "32"}]}}}, "dtype": {"type": "DT_FLOAT"}}}, {"name": "unknown_73", "op": "Const", "attr": {"value": {"tensor": {"dtype": "DT_FLOAT", "tensorShape": {"dim": [{"size": "32"}]}}}, "dtype": {"type": "DT_FLOAT"}}}, {"name": "PartitionedCall/model_1/tf.concat_19/concat/axis", "op": "Const", "attr": {"value": {"tensor": {"dtype": "DT_INT32", "tensorShape": {}}}, "dtype": {"type": "DT_INT32"}}}, {"name": "unknown_74", "op": "Const", "attr": {"value": {"tensor": {"dtype": "DT_INT32", "tensorShape": {"dim": [{"size": "4"}, {"size": "2"}]}}}, "dtype": {"type": "DT_INT32"}}}, {"name": "unknown_75", "op": "Const", "attr": {"value": {"tensor": {"dtype": "DT_FLOAT", "tensorShape": {"dim": [{"size": "3"}, {"size": "3"}, {"size": "192"}, {"size": "64"}]}}}, "dtype": {"type": "DT_FLOAT"}}}, {"name": "unknown_76", "op": "Const", "attr": {"value": {"tensor": {"dtype": "DT_FLOAT", "tensorShape": {"dim": [{"size": "64"}]}}}, "dtype": {"type": "DT_FLOAT"}}}, {"name": "PartitionedCall/model_1/tf.math.multiply_10/Mul/y", "op": "Const", "attr": {"value": {"tensor": {"dtype": "DT_FLOAT", "tensorShape": {}}}, "dtype": {"type": "DT_FLOAT"}}}, {"name": "unknown_47", "op": "Const", "attr": {"value": {"tensor": {"dtype": "DT_INT32", "tensorShape": {"dim": [{"size": "4"}, {"size": "2"}]}}}, "dtype": {"type": "DT_INT32"}}}, {"name": "unknown_48", "op": "Const", "attr": {"value": {"tensor": {"dtype": "DT_FLOAT", "tensorShape": {"dim": [{"size": "3"}, {"size": "3"}, {"size": "64"}, {"size": "32"}]}}}, "dtype": {"type": "DT_FLOAT"}}}, {"name": "unknown_49", "op": "Const", "attr": {"value": {"tensor": {"dtype": "DT_FLOAT", "tensorShape": {"dim": [{"size": "32"}]}}}, "dtype": {"type": "DT_FLOAT"}}}, {"name": "PartitionedCall/model_1/tf.concat_12/concat/axis", "op": "Const", "attr": {"value": {"tensor": {"dtype": "DT_INT32", "tensorShape": {}}}, "dtype": {"type": "DT_INT32"}}}, {"name": "unknown_50", "op": "Const", "attr": {"value": {"tensor": {"dtype": "DT_INT32", "tensorShape": {"dim": [{"size": "4"}, {"size": "2"}]}}}, "dtype": {"type": "DT_INT32"}}}, {"name": "unknown_51", "op": "Const", "attr": {"value": {"tensor": {"dtype": "DT_FLOAT", "tensorShape": {"dim": [{"size": "3"}, {"size": "3"}, {"size": "96"}, {"size": "32"}]}}}, "dtype": {"type": "DT_FLOAT"}}}, {"name": "unknown_52", "op": "Const", "attr": {"value": {"tensor": {"dtype": "DT_FLOAT", "tensorShape": {"dim": [{"size": "32"}]}}}, "dtype": {"type": "DT_FLOAT"}}}, {"name": "PartitionedCall/model_1/tf.concat_13/concat/axis", "op": "Const", "attr": {"value": {"tensor": {"dtype": "DT_INT32", "tensorShape": {}}}, "dtype": {"type": "DT_INT32"}}}, {"name": "unknown_53", "op": "Const", "attr": {"value": {"tensor": {"dtype": "DT_INT32", "tensorShape": {"dim": [{"size": "4"}, {"size": "2"}]}}}, "dtype": {"type": "DT_INT32"}}}, {"name": "unknown_54", "op": "Const", "attr": {"value": {"tensor": {"dtype": "DT_FLOAT", "tensorShape": {"dim": [{"size": "3"}, {"size": "3"}, {"size": "128"}, {"size": "32"}]}}}, "dtype": {"type": "DT_FLOAT"}}}, {"name": "unknown_55", "op": "Const", "attr": {"value": {"tensor": {"dtype": "DT_FLOAT", "tensorShape": {"dim": [{"size": "32"}]}}}, "dtype": {"type": "DT_FLOAT"}}}, {"name": "PartitionedCall/model_1/tf.concat_14/concat/axis", "op": "Const", "attr": {"value": {"tensor": {"dtype": "DT_INT32", "tensorShape": {}}}, "dtype": {"type": "DT_INT32"}}}, {"name": "unknown_56", "op": "Const", "attr": {"value": {"tensor": {"dtype": "DT_INT32", "tensorShape": {"dim": [{"size": "4"}, {"size": "2"}]}}}, "dtype": {"type": "DT_INT32"}}}, {"name": "unknown_57", "op": "Const", "attr": {"value": {"tensor": {"dtype": "DT_FLOAT", "tensorShape": {"dim": [{"size": "3"}, {"size": "3"}, {"size": "160"}, {"size": "32"}]}}}, "dtype": {"type": "DT_FLOAT"}}}, {"name": "unknown_58", "op": "Const", "attr": {"value": {"tensor": {"dtype": "DT_FLOAT", "tensorShape": {"dim": [{"size": "32"}]}}}, "dtype": {"type": "DT_FLOAT"}}}, {"name": "PartitionedCall/model_1/tf.concat_15/concat/axis", "op": "Const", "attr": {"value": {"tensor": {"dtype": "DT_INT32", "tensorShape": {}}}, "dtype": {"type": "DT_INT32"}}}, {"name": "unknown_59", "op": "Const", "attr": {"value": {"tensor": {"dtype": "DT_INT32", "tensorShape": {"dim": [{"size": "4"}, {"size": "2"}]}}}, "dtype": {"type": "DT_INT32"}}}, {"name": "unknown_60", "op": "Const", "attr": {"value": {"tensor": {"dtype": "DT_FLOAT", "tensorShape": {"dim": [{"size": "3"}, {"size": "3"}, {"size": "192"}, {"size": "64"}]}}}, "dtype": {"type": "DT_FLOAT"}}}, {"name": "unknown_61", "op": "Const", "attr": {"value": {"tensor": {"dtype": "DT_FLOAT", "tensorShape": {"dim": [{"size": "64"}]}}}, "dtype": {"type": "DT_FLOAT"}}}, {"name": "PartitionedCall/model_1/tf.math.multiply_8/Mul/y", "op": "Const", "attr": {"value": {"tensor": {"dtype": "DT_FLOAT", "tensorShape": {}}}, "dtype": {"type": "DT_FLOAT"}}}, {"name": "PartitionedCall/model_1/tf.math.multiply_14/Mul/y", "op": "Const", "attr": {"value": {"tensor": {"dtype": "DT_FLOAT", "tensorShape": {}}}, "dtype": {"type": "DT_FLOAT"}}}, {"name": "unknown_32", "op": "Const", "attr": {"value": {"tensor": {"dtype": "DT_INT32", "tensorShape": {"dim": [{"size": "4"}, {"size": "2"}]}}}, "dtype": {"type": "DT_INT32"}}}, {"name": "unknown_33", "op": "Const", "attr": {"value": {"tensor": {"dtype": "DT_FLOAT", "tensorShape": {"dim": [{"size": "3"}, {"size": "3"}, {"size": "64"}, {"size": "32"}]}}}, "dtype": {"type": "DT_FLOAT"}}}, {"name": "unknown_34", "op": "Const", "attr": {"value": {"tensor": {"dtype": "DT_FLOAT", "tensorShape": {"dim": [{"size": "32"}]}}}, "dtype": {"type": "DT_FLOAT"}}}, {"name": "PartitionedCall/model_1/tf.concat_8/concat/axis", "op": "Const", "attr": {"value": {"tensor": {"dtype": "DT_INT32", "tensorShape": {}}}, "dtype": {"type": "DT_INT32"}}}, {"name": "unknown_35", "op": "Const", "attr": {"value": {"tensor": {"dtype": "DT_INT32", "tensorShape": {"dim": [{"size": "4"}, {"size": "2"}]}}}, "dtype": {"type": "DT_INT32"}}}, {"name": "unknown_36", "op": "Const", "attr": {"value": {"tensor": {"dtype": "DT_FLOAT", "tensorShape": {"dim": [{"size": "3"}, {"size": "3"}, {"size": "96"}, {"size": "32"}]}}}, "dtype": {"type": "DT_FLOAT"}}}, {"name": "unknown_37", "op": "Const", "attr": {"value": {"tensor": {"dtype": "DT_FLOAT", "tensorShape": {"dim": [{"size": "32"}]}}}, "dtype": {"type": "DT_FLOAT"}}}, {"name": "PartitionedCall/model_1/tf.concat_9/concat/axis", "op": "Const", "attr": {"value": {"tensor": {"dtype": "DT_INT32", "tensorShape": {}}}, "dtype": {"type": "DT_INT32"}}}, {"name": "unknown_38", "op": "Const", "attr": {"value": {"tensor": {"dtype": "DT_INT32", "tensorShape": {"dim": [{"size": "4"}, {"size": "2"}]}}}, "dtype": {"type": "DT_INT32"}}}, {"name": "unknown_39", "op": "Const", "attr": {"value": {"tensor": {"dtype": "DT_FLOAT", "tensorShape": {"dim": [{"size": "3"}, {"size": "3"}, {"size": "128"}, {"size": "32"}]}}}, "dtype": {"type": "DT_FLOAT"}}}, {"name": "unknown_40", "op": "Const", "attr": {"value": {"tensor": {"dtype": "DT_FLOAT", "tensorShape": {"dim": [{"size": "32"}]}}}, "dtype": {"type": "DT_FLOAT"}}}, {"name": "PartitionedCall/model_1/tf.concat_10/concat/axis", "op": "Const", "attr": {"value": {"tensor": {"dtype": "DT_INT32", "tensorShape": {}}}, "dtype": {"type": "DT_INT32"}}}, {"name": "unknown_41", "op": "Const", "attr": {"value": {"tensor": {"dtype": "DT_INT32", "tensorShape": {"dim": [{"size": "4"}, {"size": "2"}]}}}, "dtype": {"type": "DT_INT32"}}}, {"name": "unknown_42", "op": "Const", "attr": {"value": {"tensor": {"dtype": "DT_FLOAT", "tensorShape": {"dim": [{"size": "3"}, {"size": "3"}, {"size": "160"}, {"size": "32"}]}}}, "dtype": {"type": "DT_FLOAT"}}}, {"name": "unknown_43", "op": "Const", "attr": {"value": {"tensor": {"dtype": "DT_FLOAT", "tensorShape": {"dim": [{"size": "32"}]}}}, "dtype": {"type": "DT_FLOAT"}}}, {"name": "PartitionedCall/model_1/tf.concat_11/concat/axis", "op": "Const", "attr": {"value": {"tensor": {"dtype": "DT_INT32", "tensorShape": {}}}, "dtype": {"type": "DT_INT32"}}}, {"name": "unknown_44", "op": "Const", "attr": {"value": {"tensor": {"dtype": "DT_INT32", "tensorShape": {"dim": [{"size": "4"}, {"size": "2"}]}}}, "dtype": {"type": "DT_INT32"}}}, {"name": "unknown_45", "op": "Const", "attr": {"value": {"tensor": {"dtype": "DT_FLOAT", "tensorShape": {"dim": [{"size": "3"}, {"size": "3"}, {"size": "192"}, {"size": "64"}]}}}, "dtype": {"type": "DT_FLOAT"}}}, {"name": "unknown_46", "op": "Const", "attr": {"value": {"tensor": {"dtype": "DT_FLOAT", "tensorShape": {"dim": [{"size": "64"}]}}}, "dtype": {"type": "DT_FLOAT"}}}, {"name": "PartitionedCall/model_1/tf.math.multiply_4/Mul/y", "op": "Const", "attr": {"value": {"tensor": {"dtype": "DT_FLOAT", "tensorShape": {}}}, "dtype": {"type": "DT_FLOAT"}}}, {"name": "unknown_17", "op": "Const", "attr": {"value": {"tensor": {"dtype": "DT_INT32", "tensorShape": {"dim": [{"size": "4"}, {"size": "2"}]}}}, "dtype": {"type": "DT_INT32"}}}, {"name": "unknown_18", "op": "Const", "attr": {"value": {"tensor": {"dtype": "DT_FLOAT", "tensorShape": {"dim": [{"size": "3"}, {"size": "3"}, {"size": "64"}, {"size": "32"}]}}}, "dtype": {"type": "DT_FLOAT"}}}, {"name": "unknown_19", "op": "Const", "attr": {"value": {"tensor": {"dtype": "DT_FLOAT", "tensorShape": {"dim": [{"size": "32"}]}}}, "dtype": {"type": "DT_FLOAT"}}}, {"name": "PartitionedCall/model_1/tf.concat_4/concat/axis", "op": "Const", "attr": {"value": {"tensor": {"dtype": "DT_INT32", "tensorShape": {}}}, "dtype": {"type": "DT_INT32"}}}, {"name": "unknown_20", "op": "Const", "attr": {"value": {"tensor": {"dtype": "DT_INT32", "tensorShape": {"dim": [{"size": "4"}, {"size": "2"}]}}}, "dtype": {"type": "DT_INT32"}}}, {"name": "unknown_21", "op": "Const", "attr": {"value": {"tensor": {"dtype": "DT_FLOAT", "tensorShape": {"dim": [{"size": "3"}, {"size": "3"}, {"size": "96"}, {"size": "32"}]}}}, "dtype": {"type": "DT_FLOAT"}}}, {"name": "unknown_22", "op": "Const", "attr": {"value": {"tensor": {"dtype": "DT_FLOAT", "tensorShape": {"dim": [{"size": "32"}]}}}, "dtype": {"type": "DT_FLOAT"}}}, {"name": "PartitionedCall/model_1/tf.concat_5/concat/axis", "op": "Const", "attr": {"value": {"tensor": {"dtype": "DT_INT32", "tensorShape": {}}}, "dtype": {"type": "DT_INT32"}}}, {"name": "unknown_23", "op": "Const", "attr": {"value": {"tensor": {"dtype": "DT_INT32", "tensorShape": {"dim": [{"size": "4"}, {"size": "2"}]}}}, "dtype": {"type": "DT_INT32"}}}, {"name": "unknown_24", "op": "Const", "attr": {"value": {"tensor": {"dtype": "DT_FLOAT", "tensorShape": {"dim": [{"size": "3"}, {"size": "3"}, {"size": "128"}, {"size": "32"}]}}}, "dtype": {"type": "DT_FLOAT"}}}, {"name": "unknown_25", "op": "Const", "attr": {"value": {"tensor": {"dtype": "DT_FLOAT", "tensorShape": {"dim": [{"size": "32"}]}}}, "dtype": {"type": "DT_FLOAT"}}}, {"name": "PartitionedCall/model_1/tf.concat_6/concat/axis", "op": "Const", "attr": {"value": {"tensor": {"dtype": "DT_INT32", "tensorShape": {}}}, "dtype": {"type": "DT_INT32"}}}, {"name": "unknown_26", "op": "Const", "attr": {"value": {"tensor": {"dtype": "DT_INT32", "tensorShape": {"dim": [{"size": "4"}, {"size": "2"}]}}}, "dtype": {"type": "DT_INT32"}}}, {"name": "unknown_27", "op": "Const", "attr": {"value": {"tensor": {"dtype": "DT_FLOAT", "tensorShape": {"dim": [{"size": "3"}, {"size": "3"}, {"size": "160"}, {"size": "32"}]}}}, "dtype": {"type": "DT_FLOAT"}}}, {"name": "unknown_28", "op": "Const", "attr": {"value": {"tensor": {"dtype": "DT_FLOAT", "tensorShape": {"dim": [{"size": "32"}]}}}, "dtype": {"type": "DT_FLOAT"}}}, {"name": "PartitionedCall/model_1/tf.concat_7/concat/axis", "op": "Const", "attr": {"value": {"tensor": {"dtype": "DT_INT32", "tensorShape": {}}}, "dtype": {"type": "DT_INT32"}}}, {"name": "unknown_29", "op": "Const", "attr": {"value": {"tensor": {"dtype": "DT_INT32", "tensorShape": {"dim": [{"size": "4"}, {"size": "2"}]}}}, "dtype": {"type": "DT_INT32"}}}, {"name": "unknown_30", "op": "Const", "attr": {"value": {"tensor": {"dtype": "DT_FLOAT", "tensorShape": {"dim": [{"size": "3"}, {"size": "3"}, {"size": "192"}, {"size": "64"}]}}}, "dtype": {"type": "DT_FLOAT"}}}, {"name": "unknown_31", "op": "Const", "attr": {"value": {"tensor": {"dtype": "DT_FLOAT", "tensorShape": {"dim": [{"size": "64"}]}}}, "dtype": {"type": "DT_FLOAT"}}}, {"name": "PartitionedCall/model_1/tf.math.multiply_2/Mul/y", "op": "Const", "attr": {"value": {"tensor": {"dtype": "DT_FLOAT", "tensorShape": {}}}, "dtype": {"type": "DT_FLOAT"}}}, {"name": "unknown_2", "op": "Const", "attr": {"value": {"tensor": {"dtype": "DT_INT32", "tensorShape": {"dim": [{"size": "4"}, {"size": "2"}]}}}, "dtype": {"type": "DT_INT32"}}}, {"name": "unknown_3", "op": "Const", "attr": {"value": {"tensor": {"dtype": "DT_FLOAT", "tensorShape": {"dim": [{"size": "3"}, {"size": "3"}, {"size": "64"}, {"size": "32"}]}}}, "dtype": {"type": "DT_FLOAT"}}}, {"name": "unknown_4", "op": "Const", "attr": {"value": {"tensor": {"dtype": "DT_FLOAT", "tensorShape": {"dim": [{"size": "32"}]}}}, "dtype": {"type": "DT_FLOAT"}}}, {"name": "PartitionedCall/model_1/tf.concat/concat/axis", "op": "Const", "attr": {"value": {"tensor": {"dtype": "DT_INT32", "tensorShape": {}}}, "dtype": {"type": "DT_INT32"}}}, {"name": "unknown_5", "op": "Const", "attr": {"value": {"tensor": {"dtype": "DT_INT32", "tensorShape": {"dim": [{"size": "4"}, {"size": "2"}]}}}, "dtype": {"type": "DT_INT32"}}}, {"name": "unknown_6", "op": "Const", "attr": {"value": {"tensor": {"dtype": "DT_FLOAT", "tensorShape": {"dim": [{"size": "3"}, {"size": "3"}, {"size": "96"}, {"size": "32"}]}}}, "dtype": {"type": "DT_FLOAT"}}}, {"name": "unknown_7", "op": "Const", "attr": {"value": {"tensor": {"dtype": "DT_FLOAT", "tensorShape": {"dim": [{"size": "32"}]}}}, "dtype": {"type": "DT_FLOAT"}}}, {"name": "PartitionedCall/model_1/tf.concat_1/concat/axis", "op": "Const", "attr": {"value": {"tensor": {"dtype": "DT_INT32", "tensorShape": {}}}, "dtype": {"type": "DT_INT32"}}}, {"name": "unknown_8", "op": "Const", "attr": {"value": {"tensor": {"dtype": "DT_INT32", "tensorShape": {"dim": [{"size": "4"}, {"size": "2"}]}}}, "dtype": {"type": "DT_INT32"}}}, {"name": "unknown_9", "op": "Const", "attr": {"value": {"tensor": {"dtype": "DT_FLOAT", "tensorShape": {"dim": [{"size": "3"}, {"size": "3"}, {"size": "128"}, {"size": "32"}]}}}, "dtype": {"type": "DT_FLOAT"}}}, {"name": "unknown_10", "op": "Const", "attr": {"value": {"tensor": {"dtype": "DT_FLOAT", "tensorShape": {"dim": [{"size": "32"}]}}}, "dtype": {"type": "DT_FLOAT"}}}, {"name": "PartitionedCall/model_1/tf.concat_2/concat/axis", "op": "Const", "attr": {"value": {"tensor": {"dtype": "DT_INT32", "tensorShape": {}}}, "dtype": {"type": "DT_INT32"}}}, {"name": "unknown_11", "op": "Const", "attr": {"value": {"tensor": {"dtype": "DT_INT32", "tensorShape": {"dim": [{"size": "4"}, {"size": "2"}]}}}, "dtype": {"type": "DT_INT32"}}}, {"name": "unknown_12", "op": "Const", "attr": {"value": {"tensor": {"dtype": "DT_FLOAT", "tensorShape": {"dim": [{"size": "3"}, {"size": "3"}, {"size": "160"}, {"size": "32"}]}}}, "dtype": {"type": "DT_FLOAT"}}}, {"name": "unknown_13", "op": "Const", "attr": {"value": {"tensor": {"dtype": "DT_FLOAT", "tensorShape": {"dim": [{"size": "32"}]}}}, "dtype": {"type": "DT_FLOAT"}}}, {"name": "PartitionedCall/model_1/tf.concat_3/concat/axis", "op": "Const", "attr": {"value": {"tensor": {"dtype": "DT_INT32", "tensorShape": {}}}, "dtype": {"type": "DT_INT32"}}}, {"name": "unknown_14", "op": "Const", "attr": {"value": {"tensor": {"dtype": "DT_INT32", "tensorShape": {"dim": [{"size": "4"}, {"size": "2"}]}}}, "dtype": {"type": "DT_INT32"}}}, {"name": "unknown_15", "op": "Const", "attr": {"value": {"tensor": {"dtype": "DT_FLOAT", "tensorShape": {"dim": [{"size": "3"}, {"size": "3"}, {"size": "192"}, {"size": "64"}]}}}, "dtype": {"type": "DT_FLOAT"}}}, {"name": "unknown_16", "op": "Const", "attr": {"value": {"tensor": {"dtype": "DT_FLOAT", "tensorShape": {"dim": [{"size": "64"}]}}}, "dtype": {"type": "DT_FLOAT"}}}, {"name": "PartitionedCall/model_1/tf.math.multiply/Mul/y", "op": "Const", "attr": {"value": {"tensor": {"dtype": "DT_FLOAT", "tensorShape": {}}}, "dtype": {"type": "DT_FLOAT"}}}, {"name": "PartitionedCall/model_1/tf.math.multiply_6/Mul/y", "op": "Const", "attr": {"value": {"tensor": {"dtype": "DT_FLOAT", "tensorShape": {}}}, "dtype": {"type": "DT_FLOAT"}}}, {"name": "unknown", "op": "Const", "attr": {"value": {"tensor": {"dtype": "DT_INT32", "tensorShape": {"dim": [{"size": "4"}, {"size": "2"}]}}}, "dtype": {"type": "DT_INT32"}}}, {"name": "unknown_0", "op": "Const", "attr": {"value": {"tensor": {"dtype": "DT_FLOAT", "tensorShape": {"dim": [{"size": "3"}, {"size": "3"}, {"size": "3"}, {"size": "64"}]}}}, "dtype": {"type": "DT_FLOAT"}}}, {"name": "unknown_1", "op": "Const", "attr": {"value": {"tensor": {"dtype": "DT_FLOAT", "tensorShape": {"dim": [{"size": "64"}]}}}, "dtype": {"type": "DT_FLOAT"}}}, {"name": "unknown_272", "op": "Const", "attr": {"value": {"tensor": {"dtype": "DT_INT32", "tensorShape": {"dim": [{"size": "4"}, {"size": "2"}]}}}, "dtype": {"type": "DT_INT32"}}}, {"name": "unknown_273", "op": "Const", "attr": {"value": {"tensor": {"dtype": "DT_FLOAT", "tensorShape": {"dim": [{"size": "3"}, {"size": "3"}, {"size": "64"}, {"size": "64"}]}}}, "dtype": {"type": "DT_FLOAT"}}}, {"name": "unknown_274", "op": "Const", "attr": {"value": {"tensor": {"dtype": "DT_FLOAT", "tensorShape": {"dim": [{"size": "64"}]}}}, "dtype": {"type": "DT_FLOAT"}}}, {"name": "PartitionedCall/model_1/tf.__operators__.getitem/strided_slice/stack", "op": "Const", "attr": {"value": {"tensor": {"dtype": "DT_INT32", "tensorShape": {"dim": [{"size": "1"}]}}}, "dtype": {"type": "DT_INT32"}}}, {"name": "PartitionedCall/model_1/tf.__operators__.getitem/strided_slice/stack_1", "op": "Const", "attr": {"value": {"tensor": {"dtype": "DT_INT32", "tensorShape": {"dim": [{"size": "1"}]}}}, "dtype": {"type": "DT_INT32"}}}, {"name": "PartitionedCall/model_1/tf.__operators__.getitem/strided_slice/stack_2", "op": "Const", "attr": {"value": {"tensor": {"dtype": "DT_INT32", "tensorShape": {"dim": [{"size": "1"}]}}}, "dtype": {"type": "DT_INT32"}}}, {"name": "unknown_276", "op": "Const", "attr": {"value": {"tensor": {"dtype": "DT_INT32", "tensorShape": {"dim": [{"size": "4"}, {"size": "2"}]}}}, "dtype": {"type": "DT_INT32"}}}, {"name": "unknown_277", "op": "Const", "attr": {"value": {"tensor": {"dtype": "DT_FLOAT", "tensorShape": {"dim": [{"size": "3"}, {"size": "3"}, {"size": "64"}, {"size": "64"}]}}}, "dtype": {"type": "DT_FLOAT"}}}, {"name": "unknown_278", "op": "Const", "attr": {"value": {"tensor": {"dtype": "DT_FLOAT", "tensorShape": {"dim": [{"size": "64"}]}}}, "dtype": {"type": "DT_FLOAT"}}}, {"name": "PartitionedCall/model_1/tf.__operators__.getitem_1/strided_slice/stack", "op": "Const", "attr": {"value": {"tensor": {"dtype": "DT_INT32", "tensorShape": {"dim": [{"size": "1"}]}}}, "dtype": {"type": "DT_INT32"}}}, {"name": "PartitionedCall/model_1/tf.__operators__.getitem_1/strided_slice/stack_1", "op": "Const", "attr": {"value": {"tensor": {"dtype": "DT_INT32", "tensorShape": {"dim": [{"size": "1"}]}}}, "dtype": {"type": "DT_INT32"}}}, {"name": "PartitionedCall/model_1/tf.__operators__.getitem_1/strided_slice/stack_2", "op": "Const", "attr": {"value": {"tensor": {"dtype": "DT_INT32", "tensorShape": {"dim": [{"size": "1"}]}}}, "dtype": {"type": "DT_INT32"}}}, {"name": "unknown_280", "op": "Const", "attr": {"value": {"tensor": {"dtype": "DT_INT32", "tensorShape": {"dim": [{"size": "4"}, {"size": "2"}]}}}, "dtype": {"type": "DT_INT32"}}}, {"name": "unknown_281", "op": "Const", "attr": {"value": {"tensor": {"dtype": "DT_FLOAT", "tensorShape": {"dim": [{"size": "3"}, {"size": "3"}, {"size": "64"}, {"size": "64"}]}}}, "dtype": {"type": "DT_FLOAT"}}}, {"name": "unknown_282", "op": "Const", "attr": {"value": {"tensor": {"dtype": "DT_FLOAT", "tensorShape": {"dim": [{"size": "64"}]}}}, "dtype": {"type": "DT_FLOAT"}}}, {"name": "unknown_283", "op": "Const", "attr": {"value": {"tensor": {"dtype": "DT_INT32", "tensorShape": {"dim": [{"size": "4"}, {"size": "2"}]}}}, "dtype": {"type": "DT_INT32"}}}, {"name": "unknown_284", "op": "Const", "attr": {"value": {"tensor": {"dtype": "DT_FLOAT", "tensorShape": {"dim": [{"size": "3"}, {"size": "3"}, {"size": "64"}, {"size": "64"}]}}}, "dtype": {"type": "DT_FLOAT"}}}, {"name": "unknown_285", "op": "Const", "attr": {"value": {"tensor": {"dtype": "DT_FLOAT", "tensorShape": {"dim": [{"size": "64"}]}}}, "dtype": {"type": "DT_FLOAT"}}}, {"name": "unknown_286", "op": "Const", "attr": {"value": {"tensor": {"dtype": "DT_INT32", "tensorShape": {"dim": [{"size": "4"}, {"size": "2"}]}}}, "dtype": {"type": "DT_INT32"}}}, {"name": "unknown_287", "op": "Const", "attr": {"value": {"tensor": {"dtype": "DT_FLOAT", "tensorShape": {"dim": [{"size": "3"}, {"size": "3"}, {"size": "64"}, {"size": "3"}]}}}, "dtype": {"type": "DT_FLOAT"}}}, {"name": "unknown_288", "op": "Const", "attr": {"value": {"tensor": {"dtype": "DT_FLOAT", "tensorShape": {"dim": [{"size": "3"}]}}}, "dtype": {"type": "DT_FLOAT"}}}, {"name": "input", "op": "Placeholder", "attr": {"shape": {"shape": {"dim": [{"size": "-1"}, {"size": "-1"}, {"size": "-1"}, {"size": "-1"}]}}, "dtype": {"type": "DT_FLOAT"}}}, {"name": "PartitionedCall/model_1/tf.compat.v1.pad/Pad", "op": "Pad", "input": ["input", "unknown"], "attr": {"Tpaddings": {"type": "DT_INT32"}, "T": {"type": "DT_FLOAT"}}}, {"name": "PartitionedCall/model_1/tf.math.add_1/Add", "op": "_FusedConv2D", "input": ["PartitionedCall/model_1/tf.compat.v1.pad/Pad", "unknown_0", "unknown_1"], "device": "/device:CPU:0", "attr": {"num_host_args": {"i": "0"}, "_input_shapes": {"list": {"shape": [{"dim": [{"size": "-2"}, {"size": "-186"}, {"size": "-187"}, {"size": "-185"}]}, {"dim": [{"size": "3"}, {"size": "3"}, {"size": "3"}, {"size": "64"}]}]}}, "filter_format": {"s": "SFdJTw=="}, "data_format": {"s": "TkhXQw=="}, "fused_ops": {"list": {"s": ["Qmlhc0FkZA=="]}}, "num_args": {"i": "1"}, "strides": {"list": {"i": ["1", "1", "1", "1"]}}, "TArgs": {"list": {"type": ["DT_FLOAT"]}}, "padding": {"s": "VkFMSUQ="}, "use_cudnn_on_gpu": {"b": true}, "leakyrelu_alpha": {"f": 0.2}, "epsilon": {"f": 0.0}, "T": {"type": "DT_FLOAT"}, "explicit_paddings": {"list": {}}, "dilations": {"list": {"i": ["1", "1", "1", "1"]}}}}, {"name": "PartitionedCall/model_1/tf.compat.v1.pad_1/Pad", "op": "Pad", "input": ["PartitionedCall/model_1/tf.math.add_1/Add", "unknown_2"], "attr": {"Tpaddings": {"type": "DT_INT32"}, "T": {"type": "DT_FLOAT"}}}, {"name": "PartitionedCall/model_1/tf.nn.leaky_relu/LeakyRelu", "op": "_FusedConv2D", "input": ["PartitionedCall/model_1/tf.compat.v1.pad_1/Pad", "unknown_3", "unknown_4"], "device": "/device:CPU:0", "attr": {"num_host_args": {"i": "0"}, "_input_shapes": {"list": {"shape": [{"dim": [{"size": "-2"}, {"size": "-188"}, {"size": "-189"}, {"size": "64"}]}, {"dim": [{"size": "3"}, {"size": "3"}, {"size": "64"}, {"size": "32"}]}]}}, "filter_format": {"s": "SFdJTw=="}, "data_format": {"s": "TkhXQw=="}, "strides": {"list": {"i": ["1", "1", "1", "1"]}}, "num_args": {"i": "1"}, "fused_ops": {"list": {"s": ["Qmlhc0FkZA==", "TGVha3lSZWx1"]}}, "TArgs": {"list": {"type": ["DT_FLOAT"]}}, "padding": {"s": "VkFMSUQ="}, "use_cudnn_on_gpu": {"b": true}, "leakyrelu_alpha": {"f": 0.2}, "epsilon": {"f": 0.0}, "T": {"type": "DT_FLOAT"}, "explicit_paddings": {"list": {}}, "dilations": {"list": {"i": ["1", "1", "1", "1"]}}}}, {"name": "PartitionedCall/model_1/tf.concat/concat", "op": "ConcatV2", "input": ["PartitionedCall/model_1/tf.math.add_1/Add", "PartitionedCall/model_1/tf.nn.leaky_relu/LeakyRelu", "PartitionedCall/model_1/tf.concat/concat/axis"], "attr": {"N": {"i": "2"}, "T": {"type": "DT_FLOAT"}, "Tidx": {"type": "DT_INT32"}}}, {"name": "PartitionedCall/model_1/tf.compat.v1.pad_2/Pad", "op": "Pad", "input": ["PartitionedCall/model_1/tf.concat/concat", "unknown_5"], "attr": {"Tpaddings": {"type": "DT_INT32"}, "T": {"type": "DT_FLOAT"}}}, {"name": "PartitionedCall/model_1/tf.nn.leaky_relu_1/LeakyRelu", "op": "_FusedConv2D", "input": ["PartitionedCall/model_1/tf.compat.v1.pad_2/Pad", "unknown_6", "unknown_7"], "device": "/device:CPU:0", "attr": {"num_host_args": {"i": "0"}, "_input_shapes": {"list": {"shape": [{"dim": [{"size": "-2"}, {"size": "-190"}, {"size": "-191"}, {"size": "96"}]}, {"dim": [{"size": "3"}, {"size": "3"}, {"size": "96"}, {"size": "32"}]}]}}, "filter_format": {"s": "SFdJTw=="}, "data_format": {"s": "TkhXQw=="}, "fused_ops": {"list": {"s": ["Qmlhc0FkZA==", "TGVha3lSZWx1"]}}, "num_args": {"i": "1"}, "strides": {"list": {"i": ["1", "1", "1", "1"]}}, "TArgs": {"list": {"type": ["DT_FLOAT"]}}, "padding": {"s": "VkFMSUQ="}, "use_cudnn_on_gpu": {"b": true}, "leakyrelu_alpha": {"f": 0.2}, "epsilon": {"f": 0.0}, "T": {"type": "DT_FLOAT"}, "explicit_paddings": {"list": {}}, "dilations": {"list": {"i": ["1", "1", "1", "1"]}}}}, {"name": "PartitionedCall/model_1/tf.concat_1/concat", "op": "ConcatV2", "input": ["PartitionedCall/model_1/tf.math.add_1/Add", "PartitionedCall/model_1/tf.nn.leaky_relu/LeakyRelu", "PartitionedCall/model_1/tf.nn.leaky_relu_1/LeakyRelu", "PartitionedCall/model_1/tf.concat_1/concat/axis"], "attr": {"N": {"i": "3"}, "T": {"type": "DT_FLOAT"}, "Tidx": {"type": "DT_INT32"}}}, {"name": "PartitionedCall/model_1/tf.compat.v1.pad_3/Pad", "op": "Pad", "input": ["PartitionedCall/model_1/tf.concat_1/concat", "unknown_8"], "attr": {"Tpaddings": {"type": "DT_INT32"}, "T": {"type": "DT_FLOAT"}}}, {"name": "PartitionedCall/model_1/tf.nn.leaky_relu_2/LeakyRelu", "op": "_FusedConv2D", "input": ["PartitionedCall/model_1/tf.compat.v1.pad_3/Pad", "unknown_9", "unknown_10"], "device": "/device:CPU:0", "attr": {"num_host_args": {"i": "0"}, "_input_shapes": {"list": {"shape": [{"dim": [{"size": "-2"}, {"size": "-192"}, {"size": "-193"}, {"size": "128"}]}, {"dim": [{"size": "3"}, {"size": "3"}, {"size": "128"}, {"size": "32"}]}]}}, "filter_format": {"s": "SFdJTw=="}, "data_format": {"s": "TkhXQw=="}, "fused_ops": {"list": {"s": ["Qmlhc0FkZA==", "TGVha3lSZWx1"]}}, "num_args": {"i": "1"}, "strides": {"list": {"i": ["1", "1", "1", "1"]}}, "TArgs": {"list": {"type": ["DT_FLOAT"]}}, "padding": {"s": "VkFMSUQ="}, "use_cudnn_on_gpu": {"b": true}, "leakyrelu_alpha": {"f": 0.2}, "epsilon": {"f": 0.0}, "T": {"type": "DT_FLOAT"}, "explicit_paddings": {"list": {}}, "dilations": {"list": {"i": ["1", "1", "1", "1"]}}}}, {"name": "PartitionedCall/model_1/tf.concat_2/concat", "op": "ConcatV2", "input": ["PartitionedCall/model_1/tf.math.add_1/Add", "PartitionedCall/model_1/tf.nn.leaky_relu/LeakyRelu", "PartitionedCall/model_1/tf.nn.leaky_relu_1/LeakyRelu", "PartitionedCall/model_1/tf.nn.leaky_relu_2/LeakyRelu", "PartitionedCall/model_1/tf.concat_2/concat/axis"], "attr": {"N": {"i": "4"}, "T": {"type": "DT_FLOAT"}, "Tidx": {"type": "DT_INT32"}}}, {"name": "PartitionedCall/model_1/tf.compat.v1.pad_4/Pad", "op": "Pad", "input": ["PartitionedCall/model_1/tf.concat_2/concat", "unknown_11"], "attr": {"Tpaddings": {"type": "DT_INT32"}, "T": {"type": "DT_FLOAT"}}}, {"name": "PartitionedCall/model_1/tf.nn.leaky_relu_3/LeakyRelu", "op": "_FusedConv2D", "input": ["PartitionedCall/model_1/tf.compat.v1.pad_4/Pad", "unknown_12", "unknown_13"], "device": "/device:CPU:0", "attr": {"num_host_args": {"i": "0"}, "_input_shapes": {"list": {"shape": [{"dim": [{"size": "-2"}, {"size": "-194"}, {"size": "-195"}, {"size": "160"}]}, {"dim": [{"size": "3"}, {"size": "3"}, {"size": "160"}, {"size": "32"}]}]}}, "filter_format": {"s": "SFdJTw=="}, "data_format": {"s": "TkhXQw=="}, "strides": {"list": {"i": ["1", "1", "1", "1"]}}, "num_args": {"i": "1"}, "fused_ops": {"list": {"s": ["Qmlhc0FkZA==", "TGVha3lSZWx1"]}}, "TArgs": {"list": {"type": ["DT_FLOAT"]}}, "padding": {"s": "VkFMSUQ="}, "use_cudnn_on_gpu": {"b": true}, "leakyrelu_alpha": {"f": 0.2}, "epsilon": {"f": 0.0}, "T": {"type": "DT_FLOAT"}, "explicit_paddings": {"list": {}}, "dilations": {"list": {"i": ["1", "1", "1", "1"]}}}}, {"name": "PartitionedCall/model_1/tf.concat_3/concat", "op": "ConcatV2", "input": ["PartitionedCall/model_1/tf.math.add_1/Add", "PartitionedCall/model_1/tf.nn.leaky_relu/LeakyRelu", "PartitionedCall/model_1/tf.nn.leaky_relu_1/LeakyRelu", "PartitionedCall/model_1/tf.nn.leaky_relu_2/LeakyRelu", "PartitionedCall/model_1/tf.nn.leaky_relu_3/LeakyRelu", "PartitionedCall/model_1/tf.concat_3/concat/axis"], "attr": {"N": {"i": "5"}, "Tidx": {"type": "DT_INT32"}, "T": {"type": "DT_FLOAT"}}}, {"name": "PartitionedCall/model_1/tf.compat.v1.pad_5/Pad", "op": "Pad", "input": ["PartitionedCall/model_1/tf.concat_3/concat", "unknown_14"], "attr": {"Tpaddings": {"type": "DT_INT32"}, "T": {"type": "DT_FLOAT"}}}, {"name": "PartitionedCall/model_1/tf.math.add_6/Add", "op": "_FusedConv2D", "input": ["PartitionedCall/model_1/tf.compat.v1.pad_5/Pad", "unknown_15", "unknown_16"], "device": "/device:CPU:0", "attr": {"num_host_args": {"i": "0"}, "_input_shapes": {"list": {"shape": [{"dim": [{"size": "-2"}, {"size": "-196"}, {"size": "-197"}, {"size": "192"}]}, {"dim": [{"size": "3"}, {"size": "3"}, {"size": "192"}, {"size": "64"}]}]}}, "filter_format": {"s": "SFdJTw=="}, "data_format": {"s": "TkhXQw=="}, "strides": {"list": {"i": ["1", "1", "1", "1"]}}, "num_args": {"i": "1"}, "fused_ops": {"list": {"s": ["Qmlhc0FkZA=="]}}, "TArgs": {"list": {"type": ["DT_FLOAT"]}}, "padding": {"s": "VkFMSUQ="}, "use_cudnn_on_gpu": {"b": true}, "leakyrelu_alpha": {"f": 0.2}, "epsilon": {"f": 0.0}, "T": {"type": "DT_FLOAT"}, "explicit_paddings": {"list": {}}, "dilations": {"list": {"i": ["1", "1", "1", "1"]}}}}, {"name": "PartitionedCall/model_1/tf.math.multiply/Mul", "op": "Mul", "input": ["PartitionedCall/model_1/tf.math.add_6/Add", "PartitionedCall/model_1/tf.math.multiply/Mul/y"], "attr": {"T": {"type": "DT_FLOAT"}}}, {"name": "PartitionedCall/model_1/tf.math.add_7/Add", "op": "AddV2", "input": ["PartitionedCall/model_1/tf.math.multiply/Mul", "PartitionedCall/model_1/tf.math.add_1/Add"], "attr": {"T": {"type": "DT_FLOAT"}}}, {"name": "PartitionedCall/model_1/tf.compat.v1.pad_6/Pad", "op": "Pad", "input": ["PartitionedCall/model_1/tf.math.add_7/Add", "unknown_17"], "attr": {"Tpaddings": {"type": "DT_INT32"}, "T": {"type": "DT_FLOAT"}}}, {"name": "PartitionedCall/model_1/tf.nn.leaky_relu_4/LeakyRelu", "op": "_FusedConv2D", "input": ["PartitionedCall/model_1/tf.compat.v1.pad_6/Pad", "unknown_18", "unknown_19"], "device": "/device:CPU:0", "attr": {"num_host_args": {"i": "0"}, "_input_shapes": {"list": {"shape": [{"dim": [{"size": "-2"}, {"size": "-200"}, {"size": "-201"}, {"size": "64"}]}, {"dim": [{"size": "3"}, {"size": "3"}, {"size": "64"}, {"size": "32"}]}]}}, "filter_format": {"s": "SFdJTw=="}, "data_format": {"s": "TkhXQw=="}, "strides": {"list": {"i": ["1", "1", "1", "1"]}}, "num_args": {"i": "1"}, "fused_ops": {"list": {"s": ["Qmlhc0FkZA==", "TGVha3lSZWx1"]}}, "TArgs": {"list": {"type": ["DT_FLOAT"]}}, "padding": {"s": "VkFMSUQ="}, "use_cudnn_on_gpu": {"b": true}, "leakyrelu_alpha": {"f": 0.2}, "epsilon": {"f": 0.0}, "T": {"type": "DT_FLOAT"}, "explicit_paddings": {"list": {}}, "dilations": {"list": {"i": ["1", "1", "1", "1"]}}}}, {"name": "PartitionedCall/model_1/tf.concat_4/concat", "op": "ConcatV2", "input": ["PartitionedCall/model_1/tf.math.add_7/Add", "PartitionedCall/model_1/tf.nn.leaky_relu_4/LeakyRelu", "PartitionedCall/model_1/tf.concat_4/concat/axis"], "attr": {"N": {"i": "2"}, "T": {"type": "DT_FLOAT"}, "Tidx": {"type": "DT_INT32"}}}, {"name": "PartitionedCall/model_1/tf.compat.v1.pad_7/Pad", "op": "Pad", "input": ["PartitionedCall/model_1/tf.concat_4/concat", "unknown_20"], "attr": {"Tpaddings": {"type": "DT_INT32"}, "T": {"type": "DT_FLOAT"}}}, {"name": "PartitionedCall/model_1/tf.nn.leaky_relu_5/LeakyRelu", "op": "_FusedConv2D", "input": ["PartitionedCall/model_1/tf.compat.v1.pad_7/Pad", "unknown_21", "unknown_22"], "device": "/device:CPU:0", "attr": {"num_host_args": {"i": "0"}, "data_format": {"s": "TkhXQw=="}, "filter_format": {"s": "SFdJTw=="}, "_input_shapes": {"list": {"shape": [{"dim": [{"size": "-2"}, {"size": "-202"}, {"size": "-203"}, {"size": "96"}]}, {"dim": [{"size": "3"}, {"size": "3"}, {"size": "96"}, {"size": "32"}]}]}}, "fused_ops": {"list": {"s": ["Qmlhc0FkZA==", "TGVha3lSZWx1"]}}, "num_args": {"i": "1"}, "strides": {"list": {"i": ["1", "1", "1", "1"]}}, "TArgs": {"list": {"type": ["DT_FLOAT"]}}, "padding": {"s": "VkFMSUQ="}, "use_cudnn_on_gpu": {"b": true}, "leakyrelu_alpha": {"f": 0.2}, "epsilon": {"f": 0.0}, "T": {"type": "DT_FLOAT"}, "explicit_paddings": {"list": {}}, "dilations": {"list": {"i": ["1", "1", "1", "1"]}}}}, {"name": "PartitionedCall/model_1/tf.concat_5/concat", "op": "ConcatV2", "input": ["PartitionedCall/model_1/tf.math.add_7/Add", "PartitionedCall/model_1/tf.nn.leaky_relu_4/LeakyRelu", "PartitionedCall/model_1/tf.nn.leaky_relu_5/LeakyRelu", "PartitionedCall/model_1/tf.concat_5/concat/axis"], "attr": {"N": {"i": "3"}, "T": {"type": "DT_FLOAT"}, "Tidx": {"type": "DT_INT32"}}}, {"name": "PartitionedCall/model_1/tf.compat.v1.pad_8/Pad", "op": "Pad", "input": ["PartitionedCall/model_1/tf.concat_5/concat", "unknown_23"], "attr": {"Tpaddings": {"type": "DT_INT32"}, "T": {"type": "DT_FLOAT"}}}, {"name": "PartitionedCall/model_1/tf.nn.leaky_relu_6/LeakyRelu", "op": "_FusedConv2D", "input": ["PartitionedCall/model_1/tf.compat.v1.pad_8/Pad", "unknown_24", "unknown_25"], "device": "/device:CPU:0", "attr": {"num_host_args": {"i": "0"}, "_input_shapes": {"list": {"shape": [{"dim": [{"size": "-2"}, {"size": "-204"}, {"size": "-205"}, {"size": "128"}]}, {"dim": [{"size": "3"}, {"size": "3"}, {"size": "128"}, {"size": "32"}]}]}}, "filter_format": {"s": "SFdJTw=="}, "data_format": {"s": "TkhXQw=="}, "strides": {"list": {"i": ["1", "1", "1", "1"]}}, "num_args": {"i": "1"}, "fused_ops": {"list": {"s": ["Qmlhc0FkZA==", "TGVha3lSZWx1"]}}, "TArgs": {"list": {"type": ["DT_FLOAT"]}}, "padding": {"s": "VkFMSUQ="}, "use_cudnn_on_gpu": {"b": true}, "leakyrelu_alpha": {"f": 0.2}, "epsilon": {"f": 0.0}, "T": {"type": "DT_FLOAT"}, "explicit_paddings": {"list": {}}, "dilations": {"list": {"i": ["1", "1", "1", "1"]}}}}, {"name": "PartitionedCall/model_1/tf.concat_6/concat", "op": "ConcatV2", "input": ["PartitionedCall/model_1/tf.math.add_7/Add", "PartitionedCall/model_1/tf.nn.leaky_relu_4/LeakyRelu", "PartitionedCall/model_1/tf.nn.leaky_relu_5/LeakyRelu", "PartitionedCall/model_1/tf.nn.leaky_relu_6/LeakyRelu", "PartitionedCall/model_1/tf.concat_6/concat/axis"], "attr": {"N": {"i": "4"}, "Tidx": {"type": "DT_INT32"}, "T": {"type": "DT_FLOAT"}}}, {"name": "PartitionedCall/model_1/tf.compat.v1.pad_9/Pad", "op": "Pad", "input": ["PartitionedCall/model_1/tf.concat_6/concat", "unknown_26"], "attr": {"Tpaddings": {"type": "DT_INT32"}, "T": {"type": "DT_FLOAT"}}}, {"name": "PartitionedCall/model_1/tf.nn.leaky_relu_7/LeakyRelu", "op": "_FusedConv2D", "input": ["PartitionedCall/model_1/tf.compat.v1.pad_9/Pad", "unknown_27", "unknown_28"], "device": "/device:CPU:0", "attr": {"num_host_args": {"i": "0"}, "_input_shapes": {"list": {"shape": [{"dim": [{"size": "-2"}, {"size": "-206"}, {"size": "-207"}, {"size": "160"}]}, {"dim": [{"size": "3"}, {"size": "3"}, {"size": "160"}, {"size": "32"}]}]}}, "filter_format": {"s": "SFdJTw=="}, "data_format": {"s": "TkhXQw=="}, "strides": {"list": {"i": ["1", "1", "1", "1"]}}, "num_args": {"i": "1"}, "fused_ops": {"list": {"s": ["Qmlhc0FkZA==", "TGVha3lSZWx1"]}}, "TArgs": {"list": {"type": ["DT_FLOAT"]}}, "padding": {"s": "VkFMSUQ="}, "use_cudnn_on_gpu": {"b": true}, "leakyrelu_alpha": {"f": 0.2}, "epsilon": {"f": 0.0}, "T": {"type": "DT_FLOAT"}, "explicit_paddings": {"list": {}}, "dilations": {"list": {"i": ["1", "1", "1", "1"]}}}}, {"name": "PartitionedCall/model_1/tf.concat_7/concat", "op": "ConcatV2", "input": ["PartitionedCall/model_1/tf.math.add_7/Add", "PartitionedCall/model_1/tf.nn.leaky_relu_4/LeakyRelu", "PartitionedCall/model_1/tf.nn.leaky_relu_5/LeakyRelu", "PartitionedCall/model_1/tf.nn.leaky_relu_6/LeakyRelu", "PartitionedCall/model_1/tf.nn.leaky_relu_7/LeakyRelu", "PartitionedCall/model_1/tf.concat_7/concat/axis"], "attr": {"N": {"i": "5"}, "Tidx": {"type": "DT_INT32"}, "T": {"type": "DT_FLOAT"}}}, {"name": "PartitionedCall/model_1/tf.compat.v1.pad_10/Pad", "op": "Pad", "input": ["PartitionedCall/model_1/tf.concat_7/concat", "unknown_29"], "attr": {"Tpaddings": {"type": "DT_INT32"}, "T": {"type": "DT_FLOAT"}}}, {"name": "PartitionedCall/model_1/tf.math.add_12/Add", "op": "_FusedConv2D", "input": ["PartitionedCall/model_1/tf.compat.v1.pad_10/Pad", "unknown_30", "unknown_31"], "device": "/device:CPU:0", "attr": {"num_host_args": {"i": "0"}, "_input_shapes": {"list": {"shape": [{"dim": [{"size": "-2"}, {"size": "-208"}, {"size": "-209"}, {"size": "192"}]}, {"dim": [{"size": "3"}, {"size": "3"}, {"size": "192"}, {"size": "64"}]}]}}, "filter_format": {"s": "SFdJTw=="}, "data_format": {"s": "TkhXQw=="}, "fused_ops": {"list": {"s": ["Qmlhc0FkZA=="]}}, "num_args": {"i": "1"}, "strides": {"list": {"i": ["1", "1", "1", "1"]}}, "TArgs": {"list": {"type": ["DT_FLOAT"]}}, "padding": {"s": "VkFMSUQ="}, "use_cudnn_on_gpu": {"b": true}, "leakyrelu_alpha": {"f": 0.2}, "epsilon": {"f": 0.0}, "T": {"type": "DT_FLOAT"}, "explicit_paddings": {"list": {}}, "dilations": {"list": {"i": ["1", "1", "1", "1"]}}}}, {"name": "PartitionedCall/model_1/tf.math.multiply_2/Mul", "op": "Mul", "input": ["PartitionedCall/model_1/tf.math.add_12/Add", "PartitionedCall/model_1/tf.math.multiply_2/Mul/y"], "attr": {"T": {"type": "DT_FLOAT"}}}, {"name": "PartitionedCall/model_1/tf.math.add_13/Add", "op": "AddV2", "input": ["PartitionedCall/model_1/tf.math.multiply_2/Mul", "PartitionedCall/model_1/tf.math.add_7/Add"], "attr": {"T": {"type": "DT_FLOAT"}}}, {"name": "PartitionedCall/model_1/tf.compat.v1.pad_11/Pad", "op": "Pad", "input": ["PartitionedCall/model_1/tf.math.add_13/Add", "unknown_32"], "attr": {"Tpaddings": {"type": "DT_INT32"}, "T": {"type": "DT_FLOAT"}}}, {"name": "PartitionedCall/model_1/tf.nn.leaky_relu_8/LeakyRelu", "op": "_FusedConv2D", "input": ["PartitionedCall/model_1/tf.compat.v1.pad_11/Pad", "unknown_33", "unknown_34"], "device": "/device:CPU:0", "attr": {"num_host_args": {"i": "0"}, "_input_shapes": {"list": {"shape": [{"dim": [{"size": "-2"}, {"size": "-212"}, {"size": "-213"}, {"size": "64"}]}, {"dim": [{"size": "3"}, {"size": "3"}, {"size": "64"}, {"size": "32"}]}]}}, "filter_format": {"s": "SFdJTw=="}, "data_format": {"s": "TkhXQw=="}, "fused_ops": {"list": {"s": ["Qmlhc0FkZA==", "TGVha3lSZWx1"]}}, "num_args": {"i": "1"}, "strides": {"list": {"i": ["1", "1", "1", "1"]}}, "TArgs": {"list": {"type": ["DT_FLOAT"]}}, "padding": {"s": "VkFMSUQ="}, "use_cudnn_on_gpu": {"b": true}, "leakyrelu_alpha": {"f": 0.2}, "epsilon": {"f": 0.0}, "T": {"type": "DT_FLOAT"}, "explicit_paddings": {"list": {}}, "dilations": {"list": {"i": ["1", "1", "1", "1"]}}}}, {"name": "PartitionedCall/model_1/tf.concat_8/concat", "op": "ConcatV2", "input": ["PartitionedCall/model_1/tf.math.add_13/Add", "PartitionedCall/model_1/tf.nn.leaky_relu_8/LeakyRelu", "PartitionedCall/model_1/tf.concat_8/concat/axis"], "attr": {"N": {"i": "2"}, "T": {"type": "DT_FLOAT"}, "Tidx": {"type": "DT_INT32"}}}, {"name": "PartitionedCall/model_1/tf.compat.v1.pad_12/Pad", "op": "Pad", "input": ["PartitionedCall/model_1/tf.concat_8/concat", "unknown_35"], "attr": {"Tpaddings": {"type": "DT_INT32"}, "T": {"type": "DT_FLOAT"}}}, {"name": "PartitionedCall/model_1/tf.nn.leaky_relu_9/LeakyRelu", "op": "_FusedConv2D", "input": ["PartitionedCall/model_1/tf.compat.v1.pad_12/Pad", "unknown_36", "unknown_37"], "device": "/device:CPU:0", "attr": {"num_host_args": {"i": "0"}, "_input_shapes": {"list": {"shape": [{"dim": [{"size": "-2"}, {"size": "-214"}, {"size": "-215"}, {"size": "96"}]}, {"dim": [{"size": "3"}, {"size": "3"}, {"size": "96"}, {"size": "32"}]}]}}, "filter_format": {"s": "SFdJTw=="}, "data_format": {"s": "TkhXQw=="}, "fused_ops": {"list": {"s": ["Qmlhc0FkZA==", "TGVha3lSZWx1"]}}, "num_args": {"i": "1"}, "strides": {"list": {"i": ["1", "1", "1", "1"]}}, "TArgs": {"list": {"type": ["DT_FLOAT"]}}, "padding": {"s": "VkFMSUQ="}, "use_cudnn_on_gpu": {"b": true}, "leakyrelu_alpha": {"f": 0.2}, "epsilon": {"f": 0.0}, "T": {"type": "DT_FLOAT"}, "explicit_paddings": {"list": {}}, "dilations": {"list": {"i": ["1", "1", "1", "1"]}}}}, {"name": "PartitionedCall/model_1/tf.concat_9/concat", "op": "ConcatV2", "input": ["PartitionedCall/model_1/tf.math.add_13/Add", "PartitionedCall/model_1/tf.nn.leaky_relu_8/LeakyRelu", "PartitionedCall/model_1/tf.nn.leaky_relu_9/LeakyRelu", "PartitionedCall/model_1/tf.concat_9/concat/axis"], "attr": {"N": {"i": "3"}, "Tidx": {"type": "DT_INT32"}, "T": {"type": "DT_FLOAT"}}}, {"name": "PartitionedCall/model_1/tf.compat.v1.pad_13/Pad", "op": "Pad", "input": ["PartitionedCall/model_1/tf.concat_9/concat", "unknown_38"], "attr": {"Tpaddings": {"type": "DT_INT32"}, "T": {"type": "DT_FLOAT"}}}, {"name": "PartitionedCall/model_1/tf.nn.leaky_relu_10/LeakyRelu", "op": "_FusedConv2D", "input": ["PartitionedCall/model_1/tf.compat.v1.pad_13/Pad", "unknown_39", "unknown_40"], "device": "/device:CPU:0", "attr": {"num_host_args": {"i": "0"}, "_input_shapes": {"list": {"shape": [{"dim": [{"size": "-2"}, {"size": "-216"}, {"size": "-217"}, {"size": "128"}]}, {"dim": [{"size": "3"}, {"size": "3"}, {"size": "128"}, {"size": "32"}]}]}}, "filter_format": {"s": "SFdJTw=="}, "data_format": {"s": "TkhXQw=="}, "strides": {"list": {"i": ["1", "1", "1", "1"]}}, "num_args": {"i": "1"}, "fused_ops": {"list": {"s": ["Qmlhc0FkZA==", "TGVha3lSZWx1"]}}, "TArgs": {"list": {"type": ["DT_FLOAT"]}}, "padding": {"s": "VkFMSUQ="}, "use_cudnn_on_gpu": {"b": true}, "leakyrelu_alpha": {"f": 0.2}, "epsilon": {"f": 0.0}, "T": {"type": "DT_FLOAT"}, "explicit_paddings": {"list": {}}, "dilations": {"list": {"i": ["1", "1", "1", "1"]}}}}, {"name": "PartitionedCall/model_1/tf.concat_10/concat", "op": "ConcatV2", "input": ["PartitionedCall/model_1/tf.math.add_13/Add", "PartitionedCall/model_1/tf.nn.leaky_relu_8/LeakyRelu", "PartitionedCall/model_1/tf.nn.leaky_relu_9/LeakyRelu", "PartitionedCall/model_1/tf.nn.leaky_relu_10/LeakyRelu", "PartitionedCall/model_1/tf.concat_10/concat/axis"], "attr": {"N": {"i": "4"}, "T": {"type": "DT_FLOAT"}, "Tidx": {"type": "DT_INT32"}}}, {"name": "PartitionedCall/model_1/tf.compat.v1.pad_14/Pad", "op": "Pad", "input": ["PartitionedCall/model_1/tf.concat_10/concat", "unknown_41"], "attr": {"Tpaddings": {"type": "DT_INT32"}, "T": {"type": "DT_FLOAT"}}}, {"name": "PartitionedCall/model_1/tf.nn.leaky_relu_11/LeakyRelu", "op": "_FusedConv2D", "input": ["PartitionedCall/model_1/tf.compat.v1.pad_14/Pad", "unknown_42", "unknown_43"], "device": "/device:CPU:0", "attr": {"num_host_args": {"i": "0"}, "data_format": {"s": "TkhXQw=="}, "filter_format": {"s": "SFdJTw=="}, "_input_shapes": {"list": {"shape": [{"dim": [{"size": "-2"}, {"size": "-218"}, {"size": "-219"}, {"size": "160"}]}, {"dim": [{"size": "3"}, {"size": "3"}, {"size": "160"}, {"size": "32"}]}]}}, "strides": {"list": {"i": ["1", "1", "1", "1"]}}, "num_args": {"i": "1"}, "fused_ops": {"list": {"s": ["Qmlhc0FkZA==", "TGVha3lSZWx1"]}}, "TArgs": {"list": {"type": ["DT_FLOAT"]}}, "padding": {"s": "VkFMSUQ="}, "use_cudnn_on_gpu": {"b": true}, "leakyrelu_alpha": {"f": 0.2}, "epsilon": {"f": 0.0}, "T": {"type": "DT_FLOAT"}, "explicit_paddings": {"list": {}}, "dilations": {"list": {"i": ["1", "1", "1", "1"]}}}}, {"name": "PartitionedCall/model_1/tf.concat_11/concat", "op": "ConcatV2", "input": ["PartitionedCall/model_1/tf.math.add_13/Add", "PartitionedCall/model_1/tf.nn.leaky_relu_8/LeakyRelu", "PartitionedCall/model_1/tf.nn.leaky_relu_9/LeakyRelu", "PartitionedCall/model_1/tf.nn.leaky_relu_10/LeakyRelu", "PartitionedCall/model_1/tf.nn.leaky_relu_11/LeakyRelu", "PartitionedCall/model_1/tf.concat_11/concat/axis"], "attr": {"N": {"i": "5"}, "T": {"type": "DT_FLOAT"}, "Tidx": {"type": "DT_INT32"}}}, {"name": "PartitionedCall/model_1/tf.compat.v1.pad_15/Pad", "op": "Pad", "input": ["PartitionedCall/model_1/tf.concat_11/concat", "unknown_44"], "attr": {"Tpaddings": {"type": "DT_INT32"}, "T": {"type": "DT_FLOAT"}}}, {"name": "PartitionedCall/model_1/tf.math.add_18/Add", "op": "_FusedConv2D", "input": ["PartitionedCall/model_1/tf.compat.v1.pad_15/Pad", "unknown_45", "unknown_46"], "device": "/device:CPU:0", "attr": {"num_host_args": {"i": "0"}, "_input_shapes": {"list": {"shape": [{"dim": [{"size": "-2"}, {"size": "-220"}, {"size": "-221"}, {"size": "192"}]}, {"dim": [{"size": "3"}, {"size": "3"}, {"size": "192"}, {"size": "64"}]}]}}, "filter_format": {"s": "SFdJTw=="}, "data_format": {"s": "TkhXQw=="}, "strides": {"list": {"i": ["1", "1", "1", "1"]}}, "num_args": {"i": "1"}, "fused_ops": {"list": {"s": ["Qmlhc0FkZA=="]}}, "TArgs": {"list": {"type": ["DT_FLOAT"]}}, "padding": {"s": "VkFMSUQ="}, "use_cudnn_on_gpu": {"b": true}, "leakyrelu_alpha": {"f": 0.2}, "epsilon": {"f": 0.0}, "T": {"type": "DT_FLOAT"}, "explicit_paddings": {"list": {}}, "dilations": {"list": {"i": ["1", "1", "1", "1"]}}}}, {"name": "PartitionedCall/model_1/tf.math.multiply_4/Mul", "op": "Mul", "input": ["PartitionedCall/model_1/tf.math.add_18/Add", "PartitionedCall/model_1/tf.math.multiply_4/Mul/y"], "attr": {"T": {"type": "DT_FLOAT"}}}, {"name": "PartitionedCall/model_1/tf.math.add_19/Add", "op": "AddV2", "input": ["PartitionedCall/model_1/tf.math.multiply_4/Mul", "PartitionedCall/model_1/tf.math.add_13/Add"], "attr": {"T": {"type": "DT_FLOAT"}}}, {"name": "PartitionedCall/model_1/tf.math.multiply_6/Mul", "op": "Mul", "input": ["PartitionedCall/model_1/tf.math.add_19/Add", "PartitionedCall/model_1/tf.math.multiply_6/Mul/y"], "attr": {"T": {"type": "DT_FLOAT"}}}, {"name": "PartitionedCall/model_1/tf.math.add_20/Add", "op": "AddV2", "input": ["PartitionedCall/model_1/tf.math.multiply_6/Mul", "PartitionedCall/model_1/tf.math.add_1/Add"], "attr": {"T": {"type": "DT_FLOAT"}}}, {"name": "PartitionedCall/model_1/tf.compat.v1.pad_16/Pad", "op": "Pad", "input": ["PartitionedCall/model_1/tf.math.add_20/Add", "unknown_47"], "attr": {"Tpaddings": {"type": "DT_INT32"}, "T": {"type": "DT_FLOAT"}}}, {"name": "PartitionedCall/model_1/tf.nn.leaky_relu_12/LeakyRelu", "op": "_FusedConv2D", "input": ["PartitionedCall/model_1/tf.compat.v1.pad_16/Pad", "unknown_48", "unknown_49"], "device": "/device:CPU:0", "attr": {"num_host_args": {"i": "0"}, "_input_shapes": {"list": {"shape": [{"dim": [{"size": "-2"}, {"size": "-226"}, {"size": "-227"}, {"size": "64"}]}, {"dim": [{"size": "3"}, {"size": "3"}, {"size": "64"}, {"size": "32"}]}]}}, "filter_format": {"s": "SFdJTw=="}, "data_format": {"s": "TkhXQw=="}, "fused_ops": {"list": {"s": ["Qmlhc0FkZA==", "TGVha3lSZWx1"]}}, "num_args": {"i": "1"}, "strides": {"list": {"i": ["1", "1", "1", "1"]}}, "TArgs": {"list": {"type": ["DT_FLOAT"]}}, "padding": {"s": "VkFMSUQ="}, "use_cudnn_on_gpu": {"b": true}, "leakyrelu_alpha": {"f": 0.2}, "epsilon": {"f": 0.0}, "T": {"type": "DT_FLOAT"}, "explicit_paddings": {"list": {}}, "dilations": {"list": {"i": ["1", "1", "1", "1"]}}}}, {"name": "PartitionedCall/model_1/tf.concat_12/concat", "op": "ConcatV2", "input": ["PartitionedCall/model_1/tf.math.add_20/Add", "PartitionedCall/model_1/tf.nn.leaky_relu_12/LeakyRelu", "PartitionedCall/model_1/tf.concat_12/concat/axis"], "attr": {"N": {"i": "2"}, "T": {"type": "DT_FLOAT"}, "Tidx": {"type": "DT_INT32"}}}, {"name": "PartitionedCall/model_1/tf.compat.v1.pad_17/Pad", "op": "Pad", "input": ["PartitionedCall/model_1/tf.concat_12/concat", "unknown_50"], "attr": {"Tpaddings": {"type": "DT_INT32"}, "T": {"type": "DT_FLOAT"}}}, {"name": "PartitionedCall/model_1/tf.nn.leaky_relu_13/LeakyRelu", "op": "_FusedConv2D", "input": ["PartitionedCall/model_1/tf.compat.v1.pad_17/Pad", "unknown_51", "unknown_52"], "device": "/device:CPU:0", "attr": {"num_host_args": {"i": "0"}, "data_format": {"s": "TkhXQw=="}, "filter_format": {"s": "SFdJTw=="}, "_input_shapes": {"list": {"shape": [{"dim": [{"size": "-2"}, {"size": "-228"}, {"size": "-229"}, {"size": "96"}]}, {"dim": [{"size": "3"}, {"size": "3"}, {"size": "96"}, {"size": "32"}]}]}}, "strides": {"list": {"i": ["1", "1", "1", "1"]}}, "num_args": {"i": "1"}, "fused_ops": {"list": {"s": ["Qmlhc0FkZA==", "TGVha3lSZWx1"]}}, "TArgs": {"list": {"type": ["DT_FLOAT"]}}, "padding": {"s": "VkFMSUQ="}, "use_cudnn_on_gpu": {"b": true}, "leakyrelu_alpha": {"f": 0.2}, "epsilon": {"f": 0.0}, "T": {"type": "DT_FLOAT"}, "explicit_paddings": {"list": {}}, "dilations": {"list": {"i": ["1", "1", "1", "1"]}}}}, {"name": "PartitionedCall/model_1/tf.concat_13/concat", "op": "ConcatV2", "input": ["PartitionedCall/model_1/tf.math.add_20/Add", "PartitionedCall/model_1/tf.nn.leaky_relu_12/LeakyRelu", "PartitionedCall/model_1/tf.nn.leaky_relu_13/LeakyRelu", "PartitionedCall/model_1/tf.concat_13/concat/axis"], "attr": {"N": {"i": "3"}, "Tidx": {"type": "DT_INT32"}, "T": {"type": "DT_FLOAT"}}}, {"name": "PartitionedCall/model_1/tf.compat.v1.pad_18/Pad", "op": "Pad", "input": ["PartitionedCall/model_1/tf.concat_13/concat", "unknown_53"], "attr": {"Tpaddings": {"type": "DT_INT32"}, "T": {"type": "DT_FLOAT"}}}, {"name": "PartitionedCall/model_1/tf.nn.leaky_relu_14/LeakyRelu", "op": "_FusedConv2D", "input": ["PartitionedCall/model_1/tf.compat.v1.pad_18/Pad", "unknown_54", "unknown_55"], "device": "/device:CPU:0", "attr": {"num_host_args": {"i": "0"}, "data_format": {"s": "TkhXQw=="}, "filter_format": {"s": "SFdJTw=="}, "_input_shapes": {"list": {"shape": [{"dim": [{"size": "-2"}, {"size": "-230"}, {"size": "-231"}, {"size": "128"}]}, {"dim": [{"size": "3"}, {"size": "3"}, {"size": "128"}, {"size": "32"}]}]}}, "strides": {"list": {"i": ["1", "1", "1", "1"]}}, "num_args": {"i": "1"}, "fused_ops": {"list": {"s": ["Qmlhc0FkZA==", "TGVha3lSZWx1"]}}, "TArgs": {"list": {"type": ["DT_FLOAT"]}}, "padding": {"s": "VkFMSUQ="}, "use_cudnn_on_gpu": {"b": true}, "leakyrelu_alpha": {"f": 0.2}, "epsilon": {"f": 0.0}, "T": {"type": "DT_FLOAT"}, "explicit_paddings": {"list": {}}, "dilations": {"list": {"i": ["1", "1", "1", "1"]}}}}, {"name": "PartitionedCall/model_1/tf.concat_14/concat", "op": "ConcatV2", "input": ["PartitionedCall/model_1/tf.math.add_20/Add", "PartitionedCall/model_1/tf.nn.leaky_relu_12/LeakyRelu", "PartitionedCall/model_1/tf.nn.leaky_relu_13/LeakyRelu", "PartitionedCall/model_1/tf.nn.leaky_relu_14/LeakyRelu", "PartitionedCall/model_1/tf.concat_14/concat/axis"], "attr": {"N": {"i": "4"}, "Tidx": {"type": "DT_INT32"}, "T": {"type": "DT_FLOAT"}}}, {"name": "PartitionedCall/model_1/tf.compat.v1.pad_19/Pad", "op": "Pad", "input": ["PartitionedCall/model_1/tf.concat_14/concat", "unknown_56"], "attr": {"Tpaddings": {"type": "DT_INT32"}, "T": {"type": "DT_FLOAT"}}}, {"name": "PartitionedCall/model_1/tf.nn.leaky_relu_15/LeakyRelu", "op": "_FusedConv2D", "input": ["PartitionedCall/model_1/tf.compat.v1.pad_19/Pad", "unknown_57", "unknown_58"], "device": "/device:CPU:0", "attr": {"num_host_args": {"i": "0"}, "_input_shapes": {"list": {"shape": [{"dim": [{"size": "-2"}, {"size": "-232"}, {"size": "-233"}, {"size": "160"}]}, {"dim": [{"size": "3"}, {"size": "3"}, {"size": "160"}, {"size": "32"}]}]}}, "filter_format": {"s": "SFdJTw=="}, "data_format": {"s": "TkhXQw=="}, "fused_ops": {"list": {"s": ["Qmlhc0FkZA==", "TGVha3lSZWx1"]}}, "num_args": {"i": "1"}, "strides": {"list": {"i": ["1", "1", "1", "1"]}}, "TArgs": {"list": {"type": ["DT_FLOAT"]}}, "padding": {"s": "VkFMSUQ="}, "use_cudnn_on_gpu": {"b": true}, "leakyrelu_alpha": {"f": 0.2}, "epsilon": {"f": 0.0}, "T": {"type": "DT_FLOAT"}, "explicit_paddings": {"list": {}}, "dilations": {"list": {"i": ["1", "1", "1", "1"]}}}}, {"name": "PartitionedCall/model_1/tf.concat_15/concat", "op": "ConcatV2", "input": ["PartitionedCall/model_1/tf.math.add_20/Add", "PartitionedCall/model_1/tf.nn.leaky_relu_12/LeakyRelu", "PartitionedCall/model_1/tf.nn.leaky_relu_13/LeakyRelu", "PartitionedCall/model_1/tf.nn.leaky_relu_14/LeakyRelu", "PartitionedCall/model_1/tf.nn.leaky_relu_15/LeakyRelu", "PartitionedCall/model_1/tf.concat_15/concat/axis"], "attr": {"N": {"i": "5"}, "Tidx": {"type": "DT_INT32"}, "T": {"type": "DT_FLOAT"}}}, {"name": "PartitionedCall/model_1/tf.compat.v1.pad_20/Pad", "op": "Pad", "input": ["PartitionedCall/model_1/tf.concat_15/concat", "unknown_59"], "attr": {"Tpaddings": {"type": "DT_INT32"}, "T": {"type": "DT_FLOAT"}}}, {"name": "PartitionedCall/model_1/tf.math.add_25/Add", "op": "_FusedConv2D", "input": ["PartitionedCall/model_1/tf.compat.v1.pad_20/Pad", "unknown_60", "unknown_61"], "device": "/device:CPU:0", "attr": {"num_host_args": {"i": "0"}, "data_format": {"s": "TkhXQw=="}, "filter_format": {"s": "SFdJTw=="}, "_input_shapes": {"list": {"shape": [{"dim": [{"size": "-2"}, {"size": "-234"}, {"size": "-235"}, {"size": "192"}]}, {"dim": [{"size": "3"}, {"size": "3"}, {"size": "192"}, {"size": "64"}]}]}}, "fused_ops": {"list": {"s": ["Qmlhc0FkZA=="]}}, "num_args": {"i": "1"}, "strides": {"list": {"i": ["1", "1", "1", "1"]}}, "TArgs": {"list": {"type": ["DT_FLOAT"]}}, "padding": {"s": "VkFMSUQ="}, "use_cudnn_on_gpu": {"b": true}, "leakyrelu_alpha": {"f": 0.2}, "epsilon": {"f": 0.0}, "T": {"type": "DT_FLOAT"}, "explicit_paddings": {"list": {}}, "dilations": {"list": {"i": ["1", "1", "1", "1"]}}}}, {"name": "PartitionedCall/model_1/tf.math.multiply_8/Mul", "op": "Mul", "input": ["PartitionedCall/model_1/tf.math.add_25/Add", "PartitionedCall/model_1/tf.math.multiply_8/Mul/y"], "attr": {"T": {"type": "DT_FLOAT"}}}, {"name": "PartitionedCall/model_1/tf.math.add_26/Add", "op": "AddV2", "input": ["PartitionedCall/model_1/tf.math.multiply_8/Mul", "PartitionedCall/model_1/tf.math.add_20/Add"], "attr": {"T": {"type": "DT_FLOAT"}}}, {"name": "PartitionedCall/model_1/tf.compat.v1.pad_21/Pad", "op": "Pad", "input": ["PartitionedCall/model_1/tf.math.add_26/Add", "unknown_62"], "attr": {"Tpaddings": {"type": "DT_INT32"}, "T": {"type": "DT_FLOAT"}}}, {"name": "PartitionedCall/model_1/tf.nn.leaky_relu_16/LeakyRelu", "op": "_FusedConv2D", "input": ["PartitionedCall/model_1/tf.compat.v1.pad_21/Pad", "unknown_63", "unknown_64"], "device": "/device:CPU:0", "attr": {"num_host_args": {"i": "0"}, "_input_shapes": {"list": {"shape": [{"dim": [{"size": "-2"}, {"size": "-238"}, {"size": "-239"}, {"size": "64"}]}, {"dim": [{"size": "3"}, {"size": "3"}, {"size": "64"}, {"size": "32"}]}]}}, "filter_format": {"s": "SFdJTw=="}, "data_format": {"s": "TkhXQw=="}, "strides": {"list": {"i": ["1", "1", "1", "1"]}}, "num_args": {"i": "1"}, "fused_ops": {"list": {"s": ["Qmlhc0FkZA==", "TGVha3lSZWx1"]}}, "TArgs": {"list": {"type": ["DT_FLOAT"]}}, "padding": {"s": "VkFMSUQ="}, "use_cudnn_on_gpu": {"b": true}, "leakyrelu_alpha": {"f": 0.2}, "epsilon": {"f": 0.0}, "T": {"type": "DT_FLOAT"}, "explicit_paddings": {"list": {}}, "dilations": {"list": {"i": ["1", "1", "1", "1"]}}}}, {"name": "PartitionedCall/model_1/tf.concat_16/concat", "op": "ConcatV2", "input": ["PartitionedCall/model_1/tf.math.add_26/Add", "PartitionedCall/model_1/tf.nn.leaky_relu_16/LeakyRelu", "PartitionedCall/model_1/tf.concat_16/concat/axis"], "attr": {"N": {"i": "2"}, "Tidx": {"type": "DT_INT32"}, "T": {"type": "DT_FLOAT"}}}, {"name": "PartitionedCall/model_1/tf.compat.v1.pad_22/Pad", "op": "Pad", "input": ["PartitionedCall/model_1/tf.concat_16/concat", "unknown_65"], "attr": {"Tpaddings": {"type": "DT_INT32"}, "T": {"type": "DT_FLOAT"}}}, {"name": "PartitionedCall/model_1/tf.nn.leaky_relu_17/LeakyRelu", "op": "_FusedConv2D", "input": ["PartitionedCall/model_1/tf.compat.v1.pad_22/Pad", "unknown_66", "unknown_67"], "device": "/device:CPU:0", "attr": {"num_host_args": {"i": "0"}, "data_format": {"s": "TkhXQw=="}, "filter_format": {"s": "SFdJTw=="}, "_input_shapes": {"list": {"shape": [{"dim": [{"size": "-2"}, {"size": "-240"}, {"size": "-241"}, {"size": "96"}]}, {"dim": [{"size": "3"}, {"size": "3"}, {"size": "96"}, {"size": "32"}]}]}}, "strides": {"list": {"i": ["1", "1", "1", "1"]}}, "num_args": {"i": "1"}, "fused_ops": {"list": {"s": ["Qmlhc0FkZA==", "TGVha3lSZWx1"]}}, "TArgs": {"list": {"type": ["DT_FLOAT"]}}, "padding": {"s": "VkFMSUQ="}, "use_cudnn_on_gpu": {"b": true}, "leakyrelu_alpha": {"f": 0.2}, "epsilon": {"f": 0.0}, "T": {"type": "DT_FLOAT"}, "explicit_paddings": {"list": {}}, "dilations": {"list": {"i": ["1", "1", "1", "1"]}}}}, {"name": "PartitionedCall/model_1/tf.concat_17/concat", "op": "ConcatV2", "input": ["PartitionedCall/model_1/tf.math.add_26/Add", "PartitionedCall/model_1/tf.nn.leaky_relu_16/LeakyRelu", "PartitionedCall/model_1/tf.nn.leaky_relu_17/LeakyRelu", "PartitionedCall/model_1/tf.concat_17/concat/axis"], "attr": {"N": {"i": "3"}, "T": {"type": "DT_FLOAT"}, "Tidx": {"type": "DT_INT32"}}}, {"name": "PartitionedCall/model_1/tf.compat.v1.pad_23/Pad", "op": "Pad", "input": ["PartitionedCall/model_1/tf.concat_17/concat", "unknown_68"], "attr": {"Tpaddings": {"type": "DT_INT32"}, "T": {"type": "DT_FLOAT"}}}, {"name": "PartitionedCall/model_1/tf.nn.leaky_relu_18/LeakyRelu", "op": "_FusedConv2D", "input": ["PartitionedCall/model_1/tf.compat.v1.pad_23/Pad", "unknown_69", "unknown_70"], "device": "/device:CPU:0", "attr": {"num_host_args": {"i": "0"}, "_input_shapes": {"list": {"shape": [{"dim": [{"size": "-2"}, {"size": "-242"}, {"size": "-243"}, {"size": "128"}]}, {"dim": [{"size": "3"}, {"size": "3"}, {"size": "128"}, {"size": "32"}]}]}}, "filter_format": {"s": "SFdJTw=="}, "data_format": {"s": "TkhXQw=="}, "fused_ops": {"list": {"s": ["Qmlhc0FkZA==", "TGVha3lSZWx1"]}}, "num_args": {"i": "1"}, "strides": {"list": {"i": ["1", "1", "1", "1"]}}, "TArgs": {"list": {"type": ["DT_FLOAT"]}}, "padding": {"s": "VkFMSUQ="}, "use_cudnn_on_gpu": {"b": true}, "leakyrelu_alpha": {"f": 0.2}, "epsilon": {"f": 0.0}, "T": {"type": "DT_FLOAT"}, "explicit_paddings": {"list": {}}, "dilations": {"list": {"i": ["1", "1", "1", "1"]}}}}, {"name": "PartitionedCall/model_1/tf.concat_18/concat", "op": "ConcatV2", "input": ["PartitionedCall/model_1/tf.math.add_26/Add", "PartitionedCall/model_1/tf.nn.leaky_relu_16/LeakyRelu", "PartitionedCall/model_1/tf.nn.leaky_relu_17/LeakyRelu", "PartitionedCall/model_1/tf.nn.leaky_relu_18/LeakyRelu", "PartitionedCall/model_1/tf.concat_18/concat/axis"], "attr": {"N": {"i": "4"}, "Tidx": {"type": "DT_INT32"}, "T": {"type": "DT_FLOAT"}}}, {"name": "PartitionedCall/model_1/tf.compat.v1.pad_24/Pad", "op": "Pad", "input": ["PartitionedCall/model_1/tf.concat_18/concat", "unknown_71"], "attr": {"Tpaddings": {"type": "DT_INT32"}, "T": {"type": "DT_FLOAT"}}}, {"name": "PartitionedCall/model_1/tf.nn.leaky_relu_19/LeakyRelu", "op": "_FusedConv2D", "input": ["PartitionedCall/model_1/tf.compat.v1.pad_24/Pad", "unknown_72", "unknown_73"], "device": "/device:CPU:0", "attr": {"num_host_args": {"i": "0"}, "_input_shapes": {"list": {"shape": [{"dim": [{"size": "-2"}, {"size": "-244"}, {"size": "-245"}, {"size": "160"}]}, {"dim": [{"size": "3"}, {"size": "3"}, {"size": "160"}, {"size": "32"}]}]}}, "filter_format": {"s": "SFdJTw=="}, "data_format": {"s": "TkhXQw=="}, "fused_ops": {"list": {"s": ["Qmlhc0FkZA==", "TGVha3lSZWx1"]}}, "num_args": {"i": "1"}, "strides": {"list": {"i": ["1", "1", "1", "1"]}}, "TArgs": {"list": {"type": ["DT_FLOAT"]}}, "padding": {"s": "VkFMSUQ="}, "use_cudnn_on_gpu": {"b": true}, "leakyrelu_alpha": {"f": 0.2}, "epsilon": {"f": 0.0}, "T": {"type": "DT_FLOAT"}, "explicit_paddings": {"list": {}}, "dilations": {"list": {"i": ["1", "1", "1", "1"]}}}}, {"name": "PartitionedCall/model_1/tf.concat_19/concat", "op": "ConcatV2", "input": ["PartitionedCall/model_1/tf.math.add_26/Add", "PartitionedCall/model_1/tf.nn.leaky_relu_16/LeakyRelu", "PartitionedCall/model_1/tf.nn.leaky_relu_17/LeakyRelu", "PartitionedCall/model_1/tf.nn.leaky_relu_18/LeakyRelu", "PartitionedCall/model_1/tf.nn.leaky_relu_19/LeakyRelu", "PartitionedCall/model_1/tf.concat_19/concat/axis"], "attr": {"N": {"i": "5"}, "T": {"type": "DT_FLOAT"}, "Tidx": {"type": "DT_INT32"}}}, {"name": "PartitionedCall/model_1/tf.compat.v1.pad_25/Pad", "op": "Pad", "input": ["PartitionedCall/model_1/tf.concat_19/concat", "unknown_74"], "attr": {"Tpaddings": {"type": "DT_INT32"}, "T": {"type": "DT_FLOAT"}}}, {"name": "PartitionedCall/model_1/tf.math.add_31/Add", "op": "_FusedConv2D", "input": ["PartitionedCall/model_1/tf.compat.v1.pad_25/Pad", "unknown_75", "unknown_76"], "device": "/device:CPU:0", "attr": {"num_host_args": {"i": "0"}, "_input_shapes": {"list": {"shape": [{"dim": [{"size": "-2"}, {"size": "-246"}, {"size": "-247"}, {"size": "192"}]}, {"dim": [{"size": "3"}, {"size": "3"}, {"size": "192"}, {"size": "64"}]}]}}, "filter_format": {"s": "SFdJTw=="}, "data_format": {"s": "TkhXQw=="}, "fused_ops": {"list": {"s": ["Qmlhc0FkZA=="]}}, "num_args": {"i": "1"}, "strides": {"list": {"i": ["1", "1", "1", "1"]}}, "TArgs": {"list": {"type": ["DT_FLOAT"]}}, "padding": {"s": "VkFMSUQ="}, "use_cudnn_on_gpu": {"b": true}, "leakyrelu_alpha": {"f": 0.2}, "epsilon": {"f": 0.0}, "T": {"type": "DT_FLOAT"}, "explicit_paddings": {"list": {}}, "dilations": {"list": {"i": ["1", "1", "1", "1"]}}}}, {"name": "PartitionedCall/model_1/tf.math.multiply_10/Mul", "op": "Mul", "input": ["PartitionedCall/model_1/tf.math.add_31/Add", "PartitionedCall/model_1/tf.math.multiply_10/Mul/y"], "attr": {"T": {"type": "DT_FLOAT"}}}, {"name": "PartitionedCall/model_1/tf.math.add_32/Add", "op": "AddV2", "input": ["PartitionedCall/model_1/tf.math.multiply_10/Mul", "PartitionedCall/model_1/tf.math.add_26/Add"], "attr": {"T": {"type": "DT_FLOAT"}}}, {"name": "PartitionedCall/model_1/tf.compat.v1.pad_26/Pad", "op": "Pad", "input": ["PartitionedCall/model_1/tf.math.add_32/Add", "unknown_77"], "attr": {"Tpaddings": {"type": "DT_INT32"}, "T": {"type": "DT_FLOAT"}}}, {"name": "PartitionedCall/model_1/tf.nn.leaky_relu_20/LeakyRelu", "op": "_FusedConv2D", "input": ["PartitionedCall/model_1/tf.compat.v1.pad_26/Pad", "unknown_78", "unknown_79"], "device": "/device:CPU:0", "attr": {"num_host_args": {"i": "0"}, "_input_shapes": {"list": {"shape": [{"dim": [{"size": "-2"}, {"size": "-250"}, {"size": "-251"}, {"size": "64"}]}, {"dim": [{"size": "3"}, {"size": "3"}, {"size": "64"}, {"size": "32"}]}]}}, "filter_format": {"s": "SFdJTw=="}, "data_format": {"s": "TkhXQw=="}, "fused_ops": {"list": {"s": ["Qmlhc0FkZA==", "TGVha3lSZWx1"]}}, "num_args": {"i": "1"}, "strides": {"list": {"i": ["1", "1", "1", "1"]}}, "TArgs": {"list": {"type": ["DT_FLOAT"]}}, "padding": {"s": "VkFMSUQ="}, "use_cudnn_on_gpu": {"b": true}, "leakyrelu_alpha": {"f": 0.2}, "epsilon": {"f": 0.0}, "T": {"type": "DT_FLOAT"}, "explicit_paddings": {"list": {}}, "dilations": {"list": {"i": ["1", "1", "1", "1"]}}}}, {"name": "PartitionedCall/model_1/tf.concat_20/concat", "op": "ConcatV2", "input": ["PartitionedCall/model_1/tf.math.add_32/Add", "PartitionedCall/model_1/tf.nn.leaky_relu_20/LeakyRelu", "PartitionedCall/model_1/tf.concat_20/concat/axis"], "attr": {"N": {"i": "2"}, "Tidx": {"type": "DT_INT32"}, "T": {"type": "DT_FLOAT"}}}, {"name": "PartitionedCall/model_1/tf.compat.v1.pad_27/Pad", "op": "Pad", "input": ["PartitionedCall/model_1/tf.concat_20/concat", "unknown_80"], "attr": {"Tpaddings": {"type": "DT_INT32"}, "T": {"type": "DT_FLOAT"}}}, {"name": "PartitionedCall/model_1/tf.nn.leaky_relu_21/LeakyRelu", "op": "_FusedConv2D", "input": ["PartitionedCall/model_1/tf.compat.v1.pad_27/Pad", "unknown_81", "unknown_82"], "device": "/device:CPU:0", "attr": {"num_host_args": {"i": "0"}, "data_format": {"s": "TkhXQw=="}, "filter_format": {"s": "SFdJTw=="}, "_input_shapes": {"list": {"shape": [{"dim": [{"size": "-2"}, {"size": "-252"}, {"size": "-253"}, {"size": "96"}]}, {"dim": [{"size": "3"}, {"size": "3"}, {"size": "96"}, {"size": "32"}]}]}}, "strides": {"list": {"i": ["1", "1", "1", "1"]}}, "num_args": {"i": "1"}, "fused_ops": {"list": {"s": ["Qmlhc0FkZA==", "TGVha3lSZWx1"]}}, "TArgs": {"list": {"type": ["DT_FLOAT"]}}, "padding": {"s": "VkFMSUQ="}, "use_cudnn_on_gpu": {"b": true}, "leakyrelu_alpha": {"f": 0.2}, "epsilon": {"f": 0.0}, "T": {"type": "DT_FLOAT"}, "explicit_paddings": {"list": {}}, "dilations": {"list": {"i": ["1", "1", "1", "1"]}}}}, {"name": "PartitionedCall/model_1/tf.concat_21/concat", "op": "ConcatV2", "input": ["PartitionedCall/model_1/tf.math.add_32/Add", "PartitionedCall/model_1/tf.nn.leaky_relu_20/LeakyRelu", "PartitionedCall/model_1/tf.nn.leaky_relu_21/LeakyRelu", "PartitionedCall/model_1/tf.concat_21/concat/axis"], "attr": {"N": {"i": "3"}, "Tidx": {"type": "DT_INT32"}, "T": {"type": "DT_FLOAT"}}}, {"name": "PartitionedCall/model_1/tf.compat.v1.pad_28/Pad", "op": "Pad", "input": ["PartitionedCall/model_1/tf.concat_21/concat", "unknown_83"], "attr": {"Tpaddings": {"type": "DT_INT32"}, "T": {"type": "DT_FLOAT"}}}, {"name": "PartitionedCall/model_1/tf.nn.leaky_relu_22/LeakyRelu", "op": "_FusedConv2D", "input": ["PartitionedCall/model_1/tf.compat.v1.pad_28/Pad", "unknown_84", "unknown_85"], "device": "/device:CPU:0", "attr": {"num_host_args": {"i": "0"}, "data_format": {"s": "TkhXQw=="}, "filter_format": {"s": "SFdJTw=="}, "_input_shapes": {"list": {"shape": [{"dim": [{"size": "-2"}, {"size": "-254"}, {"size": "-255"}, {"size": "128"}]}, {"dim": [{"size": "3"}, {"size": "3"}, {"size": "128"}, {"size": "32"}]}]}}, "fused_ops": {"list": {"s": ["Qmlhc0FkZA==", "TGVha3lSZWx1"]}}, "num_args": {"i": "1"}, "strides": {"list": {"i": ["1", "1", "1", "1"]}}, "TArgs": {"list": {"type": ["DT_FLOAT"]}}, "padding": {"s": "VkFMSUQ="}, "use_cudnn_on_gpu": {"b": true}, "leakyrelu_alpha": {"f": 0.2}, "epsilon": {"f": 0.0}, "T": {"type": "DT_FLOAT"}, "explicit_paddings": {"list": {}}, "dilations": {"list": {"i": ["1", "1", "1", "1"]}}}}, {"name": "PartitionedCall/model_1/tf.concat_22/concat", "op": "ConcatV2", "input": ["PartitionedCall/model_1/tf.math.add_32/Add", "PartitionedCall/model_1/tf.nn.leaky_relu_20/LeakyRelu", "PartitionedCall/model_1/tf.nn.leaky_relu_21/LeakyRelu", "PartitionedCall/model_1/tf.nn.leaky_relu_22/LeakyRelu", "PartitionedCall/model_1/tf.concat_22/concat/axis"], "attr": {"N": {"i": "4"}, "T": {"type": "DT_FLOAT"}, "Tidx": {"type": "DT_INT32"}}}, {"name": "PartitionedCall/model_1/tf.compat.v1.pad_29/Pad", "op": "Pad", "input": ["PartitionedCall/model_1/tf.concat_22/concat", "unknown_86"], "attr": {"Tpaddings": {"type": "DT_INT32"}, "T": {"type": "DT_FLOAT"}}}, {"name": "PartitionedCall/model_1/tf.nn.leaky_relu_23/LeakyRelu", "op": "_FusedConv2D", "input": ["PartitionedCall/model_1/tf.compat.v1.pad_29/Pad", "unknown_87", "unknown_88"], "device": "/device:CPU:0", "attr": {"num_host_args": {"i": "0"}, "data_format": {"s": "TkhXQw=="}, "filter_format": {"s": "SFdJTw=="}, "_input_shapes": {"list": {"shape": [{"dim": [{"size": "-2"}, {"size": "-256"}, {"size": "-257"}, {"size": "160"}]}, {"dim": [{"size": "3"}, {"size": "3"}, {"size": "160"}, {"size": "32"}]}]}}, "strides": {"list": {"i": ["1", "1", "1", "1"]}}, "num_args": {"i": "1"}, "fused_ops": {"list": {"s": ["Qmlhc0FkZA==", "TGVha3lSZWx1"]}}, "TArgs": {"list": {"type": ["DT_FLOAT"]}}, "padding": {"s": "VkFMSUQ="}, "use_cudnn_on_gpu": {"b": true}, "leakyrelu_alpha": {"f": 0.2}, "epsilon": {"f": 0.0}, "T": {"type": "DT_FLOAT"}, "explicit_paddings": {"list": {}}, "dilations": {"list": {"i": ["1", "1", "1", "1"]}}}}, {"name": "PartitionedCall/model_1/tf.concat_23/concat", "op": "ConcatV2", "input": ["PartitionedCall/model_1/tf.math.add_32/Add", "PartitionedCall/model_1/tf.nn.leaky_relu_20/LeakyRelu", "PartitionedCall/model_1/tf.nn.leaky_relu_21/LeakyRelu", "PartitionedCall/model_1/tf.nn.leaky_relu_22/LeakyRelu", "PartitionedCall/model_1/tf.nn.leaky_relu_23/LeakyRelu", "PartitionedCall/model_1/tf.concat_23/concat/axis"], "attr": {"N": {"i": "5"}, "Tidx": {"type": "DT_INT32"}, "T": {"type": "DT_FLOAT"}}}, {"name": "PartitionedCall/model_1/tf.compat.v1.pad_30/Pad", "op": "Pad", "input": ["PartitionedCall/model_1/tf.concat_23/concat", "unknown_89"], "attr": {"Tpaddings": {"type": "DT_INT32"}, "T": {"type": "DT_FLOAT"}}}, {"name": "PartitionedCall/model_1/tf.math.add_37/Add", "op": "_FusedConv2D", "input": ["PartitionedCall/model_1/tf.compat.v1.pad_30/Pad", "unknown_90", "unknown_91"], "device": "/device:CPU:0", "attr": {"num_host_args": {"i": "0"}, "_input_shapes": {"list": {"shape": [{"dim": [{"size": "-2"}, {"size": "-258"}, {"size": "-259"}, {"size": "192"}]}, {"dim": [{"size": "3"}, {"size": "3"}, {"size": "192"}, {"size": "64"}]}]}}, "filter_format": {"s": "SFdJTw=="}, "data_format": {"s": "TkhXQw=="}, "strides": {"list": {"i": ["1", "1", "1", "1"]}}, "num_args": {"i": "1"}, "fused_ops": {"list": {"s": ["Qmlhc0FkZA=="]}}, "TArgs": {"list": {"type": ["DT_FLOAT"]}}, "padding": {"s": "VkFMSUQ="}, "use_cudnn_on_gpu": {"b": true}, "leakyrelu_alpha": {"f": 0.2}, "epsilon": {"f": 0.0}, "T": {"type": "DT_FLOAT"}, "explicit_paddings": {"list": {}}, "dilations": {"list": {"i": ["1", "1", "1", "1"]}}}}, {"name": "PartitionedCall/model_1/tf.math.multiply_12/Mul", "op": "Mul", "input": ["PartitionedCall/model_1/tf.math.add_37/Add", "PartitionedCall/model_1/tf.math.multiply_12/Mul/y"], "attr": {"T": {"type": "DT_FLOAT"}}}, {"name": "PartitionedCall/model_1/tf.math.add_38/Add", "op": "AddV2", "input": ["PartitionedCall/model_1/tf.math.multiply_12/Mul", "PartitionedCall/model_1/tf.math.add_32/Add"], "attr": {"T": {"type": "DT_FLOAT"}}}, {"name": "PartitionedCall/model_1/tf.math.multiply_14/Mul", "op": "Mul", "input": ["PartitionedCall/model_1/tf.math.add_38/Add", "PartitionedCall/model_1/tf.math.multiply_14/Mul/y"], "attr": {"T": {"type": "DT_FLOAT"}}}, {"name": "PartitionedCall/model_1/tf.math.add_39/Add", "op": "AddV2", "input": ["PartitionedCall/model_1/tf.math.multiply_14/Mul", "PartitionedCall/model_1/tf.math.add_20/Add"], "attr": {"T": {"type": "DT_FLOAT"}}}, {"name": "PartitionedCall/model_1/tf.compat.v1.pad_31/Pad", "op": "Pad", "input": ["PartitionedCall/model_1/tf.math.add_39/Add", "unknown_92"], "attr": {"Tpaddings": {"type": "DT_INT32"}, "T": {"type": "DT_FLOAT"}}}, {"name": "PartitionedCall/model_1/tf.nn.leaky_relu_24/LeakyRelu", "op": "_FusedConv2D", "input": ["PartitionedCall/model_1/tf.compat.v1.pad_31/Pad", "unknown_93", "unknown_94"], "device": "/device:CPU:0", "attr": {"num_host_args": {"i": "0"}, "_input_shapes": {"list": {"shape": [{"dim": [{"size": "-2"}, {"size": "-264"}, {"size": "-265"}, {"size": "64"}]}, {"dim": [{"size": "3"}, {"size": "3"}, {"size": "64"}, {"size": "32"}]}]}}, "filter_format": {"s": "SFdJTw=="}, "data_format": {"s": "TkhXQw=="}, "fused_ops": {"list": {"s": ["Qmlhc0FkZA==", "TGVha3lSZWx1"]}}, "num_args": {"i": "1"}, "strides": {"list": {"i": ["1", "1", "1", "1"]}}, "TArgs": {"list": {"type": ["DT_FLOAT"]}}, "padding": {"s": "VkFMSUQ="}, "use_cudnn_on_gpu": {"b": true}, "leakyrelu_alpha": {"f": 0.2}, "epsilon": {"f": 0.0}, "T": {"type": "DT_FLOAT"}, "explicit_paddings": {"list": {}}, "dilations": {"list": {"i": ["1", "1", "1", "1"]}}}}, {"name": "PartitionedCall/model_1/tf.concat_24/concat", "op": "ConcatV2", "input": ["PartitionedCall/model_1/tf.math.add_39/Add", "PartitionedCall/model_1/tf.nn.leaky_relu_24/LeakyRelu", "PartitionedCall/model_1/tf.concat_24/concat/axis"], "attr": {"N": {"i": "2"}, "T": {"type": "DT_FLOAT"}, "Tidx": {"type": "DT_INT32"}}}, {"name": "PartitionedCall/model_1/tf.compat.v1.pad_32/Pad", "op": "Pad", "input": ["PartitionedCall/model_1/tf.concat_24/concat", "unknown_95"], "attr": {"Tpaddings": {"type": "DT_INT32"}, "T": {"type": "DT_FLOAT"}}}, {"name": "PartitionedCall/model_1/tf.nn.leaky_relu_25/LeakyRelu", "op": "_FusedConv2D", "input": ["PartitionedCall/model_1/tf.compat.v1.pad_32/Pad", "unknown_96", "unknown_97"], "device": "/device:CPU:0", "attr": {"num_host_args": {"i": "0"}, "_input_shapes": {"list": {"shape": [{"dim": [{"size": "-2"}, {"size": "-266"}, {"size": "-267"}, {"size": "96"}]}, {"dim": [{"size": "3"}, {"size": "3"}, {"size": "96"}, {"size": "32"}]}]}}, "filter_format": {"s": "SFdJTw=="}, "data_format": {"s": "TkhXQw=="}, "fused_ops": {"list": {"s": ["Qmlhc0FkZA==", "TGVha3lSZWx1"]}}, "num_args": {"i": "1"}, "strides": {"list": {"i": ["1", "1", "1", "1"]}}, "TArgs": {"list": {"type": ["DT_FLOAT"]}}, "padding": {"s": "VkFMSUQ="}, "use_cudnn_on_gpu": {"b": true}, "leakyrelu_alpha": {"f": 0.2}, "epsilon": {"f": 0.0}, "T": {"type": "DT_FLOAT"}, "explicit_paddings": {"list": {}}, "dilations": {"list": {"i": ["1", "1", "1", "1"]}}}}, {"name": "PartitionedCall/model_1/tf.concat_25/concat", "op": "ConcatV2", "input": ["PartitionedCall/model_1/tf.math.add_39/Add", "PartitionedCall/model_1/tf.nn.leaky_relu_24/LeakyRelu", "PartitionedCall/model_1/tf.nn.leaky_relu_25/LeakyRelu", "PartitionedCall/model_1/tf.concat_25/concat/axis"], "attr": {"N": {"i": "3"}, "T": {"type": "DT_FLOAT"}, "Tidx": {"type": "DT_INT32"}}}, {"name": "PartitionedCall/model_1/tf.compat.v1.pad_33/Pad", "op": "Pad", "input": ["PartitionedCall/model_1/tf.concat_25/concat", "unknown_98"], "attr": {"Tpaddings": {"type": "DT_INT32"}, "T": {"type": "DT_FLOAT"}}}, {"name": "PartitionedCall/model_1/tf.nn.leaky_relu_26/LeakyRelu", "op": "_FusedConv2D", "input": ["PartitionedCall/model_1/tf.compat.v1.pad_33/Pad", "unknown_99", "unknown_100"], "device": "/device:CPU:0", "attr": {"num_host_args": {"i": "0"}, "_input_shapes": {"list": {"shape": [{"dim": [{"size": "-2"}, {"size": "-268"}, {"size": "-269"}, {"size": "128"}]}, {"dim": [{"size": "3"}, {"size": "3"}, {"size": "128"}, {"size": "32"}]}]}}, "filter_format": {"s": "SFdJTw=="}, "data_format": {"s": "TkhXQw=="}, "fused_ops": {"list": {"s": ["Qmlhc0FkZA==", "TGVha3lSZWx1"]}}, "num_args": {"i": "1"}, "strides": {"list": {"i": ["1", "1", "1", "1"]}}, "TArgs": {"list": {"type": ["DT_FLOAT"]}}, "padding": {"s": "VkFMSUQ="}, "use_cudnn_on_gpu": {"b": true}, "leakyrelu_alpha": {"f": 0.2}, "epsilon": {"f": 0.0}, "T": {"type": "DT_FLOAT"}, "explicit_paddings": {"list": {}}, "dilations": {"list": {"i": ["1", "1", "1", "1"]}}}}, {"name": "PartitionedCall/model_1/tf.concat_26/concat", "op": "ConcatV2", "input": ["PartitionedCall/model_1/tf.math.add_39/Add", "PartitionedCall/model_1/tf.nn.leaky_relu_24/LeakyRelu", "PartitionedCall/model_1/tf.nn.leaky_relu_25/LeakyRelu", "PartitionedCall/model_1/tf.nn.leaky_relu_26/LeakyRelu", "PartitionedCall/model_1/tf.concat_26/concat/axis"], "attr": {"N": {"i": "4"}, "T": {"type": "DT_FLOAT"}, "Tidx": {"type": "DT_INT32"}}}, {"name": "PartitionedCall/model_1/tf.compat.v1.pad_34/Pad", "op": "Pad", "input": ["PartitionedCall/model_1/tf.concat_26/concat", "unknown_101"], "attr": {"Tpaddings": {"type": "DT_INT32"}, "T": {"type": "DT_FLOAT"}}}, {"name": "PartitionedCall/model_1/tf.nn.leaky_relu_27/LeakyRelu", "op": "_FusedConv2D", "input": ["PartitionedCall/model_1/tf.compat.v1.pad_34/Pad", "unknown_102", "unknown_103"], "device": "/device:CPU:0", "attr": {"num_host_args": {"i": "0"}, "_input_shapes": {"list": {"shape": [{"dim": [{"size": "-2"}, {"size": "-270"}, {"size": "-271"}, {"size": "160"}]}, {"dim": [{"size": "3"}, {"size": "3"}, {"size": "160"}, {"size": "32"}]}]}}, "filter_format": {"s": "SFdJTw=="}, "data_format": {"s": "TkhXQw=="}, "fused_ops": {"list": {"s": ["Qmlhc0FkZA==", "TGVha3lSZWx1"]}}, "num_args": {"i": "1"}, "strides": {"list": {"i": ["1", "1", "1", "1"]}}, "TArgs": {"list": {"type": ["DT_FLOAT"]}}, "padding": {"s": "VkFMSUQ="}, "use_cudnn_on_gpu": {"b": true}, "leakyrelu_alpha": {"f": 0.2}, "epsilon": {"f": 0.0}, "T": {"type": "DT_FLOAT"}, "explicit_paddings": {"list": {}}, "dilations": {"list": {"i": ["1", "1", "1", "1"]}}}}, {"name": "PartitionedCall/model_1/tf.concat_27/concat", "op": "ConcatV2", "input": ["PartitionedCall/model_1/tf.math.add_39/Add", "PartitionedCall/model_1/tf.nn.leaky_relu_24/LeakyRelu", "PartitionedCall/model_1/tf.nn.leaky_relu_25/LeakyRelu", "PartitionedCall/model_1/tf.nn.leaky_relu_26/LeakyRelu", "PartitionedCall/model_1/tf.nn.leaky_relu_27/LeakyRelu", "PartitionedCall/model_1/tf.concat_27/concat/axis"], "attr": {"N": {"i": "5"}, "T": {"type": "DT_FLOAT"}, "Tidx": {"type": "DT_INT32"}}}, {"name": "PartitionedCall/model_1/tf.compat.v1.pad_35/Pad", "op": "Pad", "input": ["PartitionedCall/model_1/tf.concat_27/concat", "unknown_104"], "attr": {"Tpaddings": {"type": "DT_INT32"}, "T": {"type": "DT_FLOAT"}}}, {"name": "PartitionedCall/model_1/tf.math.add_44/Add", "op": "_FusedConv2D", "input": ["PartitionedCall/model_1/tf.compat.v1.pad_35/Pad", "unknown_105", "unknown_106"], "device": "/device:CPU:0", "attr": {"num_host_args": {"i": "0"}, "data_format": {"s": "TkhXQw=="}, "filter_format": {"s": "SFdJTw=="}, "_input_shapes": {"list": {"shape": [{"dim": [{"size": "-2"}, {"size": "-272"}, {"size": "-273"}, {"size": "192"}]}, {"dim": [{"size": "3"}, {"size": "3"}, {"size": "192"}, {"size": "64"}]}]}}, "strides": {"list": {"i": ["1", "1", "1", "1"]}}, "num_args": {"i": "1"}, "fused_ops": {"list": {"s": ["Qmlhc0FkZA=="]}}, "TArgs": {"list": {"type": ["DT_FLOAT"]}}, "padding": {"s": "VkFMSUQ="}, "use_cudnn_on_gpu": {"b": true}, "leakyrelu_alpha": {"f": 0.2}, "epsilon": {"f": 0.0}, "T": {"type": "DT_FLOAT"}, "explicit_paddings": {"list": {}}, "dilations": {"list": {"i": ["1", "1", "1", "1"]}}}}, {"name": "PartitionedCall/model_1/tf.math.multiply_16/Mul", "op": "Mul", "input": ["PartitionedCall/model_1/tf.math.add_44/Add", "PartitionedCall/model_1/tf.math.multiply_16/Mul/y"], "attr": {"T": {"type": "DT_FLOAT"}}}, {"name": "PartitionedCall/model_1/tf.math.add_45/Add", "op": "AddV2", "input": ["PartitionedCall/model_1/tf.math.multiply_16/Mul", "PartitionedCall/model_1/tf.math.add_39/Add"], "attr": {"T": {"type": "DT_FLOAT"}}}, {"name": "PartitionedCall/model_1/tf.compat.v1.pad_36/Pad", "op": "Pad", "input": ["PartitionedCall/model_1/tf.math.add_45/Add", "unknown_107"], "attr": {"Tpaddings": {"type": "DT_INT32"}, "T": {"type": "DT_FLOAT"}}}, {"name": "PartitionedCall/model_1/tf.nn.leaky_relu_28/LeakyRelu", "op": "_FusedConv2D", "input": ["PartitionedCall/model_1/tf.compat.v1.pad_36/Pad", "unknown_108", "unknown_109"], "device": "/device:CPU:0", "attr": {"num_host_args": {"i": "0"}, "data_format": {"s": "TkhXQw=="}, "filter_format": {"s": "SFdJTw=="}, "_input_shapes": {"list": {"shape": [{"dim": [{"size": "-2"}, {"size": "-276"}, {"size": "-277"}, {"size": "64"}]}, {"dim": [{"size": "3"}, {"size": "3"}, {"size": "64"}, {"size": "32"}]}]}}, "strides": {"list": {"i": ["1", "1", "1", "1"]}}, "num_args": {"i": "1"}, "fused_ops": {"list": {"s": ["Qmlhc0FkZA==", "TGVha3lSZWx1"]}}, "TArgs": {"list": {"type": ["DT_FLOAT"]}}, "padding": {"s": "VkFMSUQ="}, "use_cudnn_on_gpu": {"b": true}, "leakyrelu_alpha": {"f": 0.2}, "epsilon": {"f": 0.0}, "T": {"type": "DT_FLOAT"}, "explicit_paddings": {"list": {}}, "dilations": {"list": {"i": ["1", "1", "1", "1"]}}}}, {"name": "PartitionedCall/model_1/tf.concat_28/concat", "op": "ConcatV2", "input": ["PartitionedCall/model_1/tf.math.add_45/Add", "PartitionedCall/model_1/tf.nn.leaky_relu_28/LeakyRelu", "PartitionedCall/model_1/tf.concat_28/concat/axis"], "attr": {"N": {"i": "2"}, "T": {"type": "DT_FLOAT"}, "Tidx": {"type": "DT_INT32"}}}, {"name": "PartitionedCall/model_1/tf.compat.v1.pad_37/Pad", "op": "Pad", "input": ["PartitionedCall/model_1/tf.concat_28/concat", "unknown_110"], "attr": {"Tpaddings": {"type": "DT_INT32"}, "T": {"type": "DT_FLOAT"}}}, {"name": "PartitionedCall/model_1/tf.nn.leaky_relu_29/LeakyRelu", "op": "_FusedConv2D", "input": ["PartitionedCall/model_1/tf.compat.v1.pad_37/Pad", "unknown_111", "unknown_112"], "device": "/device:CPU:0", "attr": {"num_host_args": {"i": "0"}, "_input_shapes": {"list": {"shape": [{"dim": [{"size": "-2"}, {"size": "-278"}, {"size": "-279"}, {"size": "96"}]}, {"dim": [{"size": "3"}, {"size": "3"}, {"size": "96"}, {"size": "32"}]}]}}, "filter_format": {"s": "SFdJTw=="}, "data_format": {"s": "TkhXQw=="}, "strides": {"list": {"i": ["1", "1", "1", "1"]}}, "num_args": {"i": "1"}, "fused_ops": {"list": {"s": ["Qmlhc0FkZA==", "TGVha3lSZWx1"]}}, "TArgs": {"list": {"type": ["DT_FLOAT"]}}, "padding": {"s": "VkFMSUQ="}, "use_cudnn_on_gpu": {"b": true}, "leakyrelu_alpha": {"f": 0.2}, "epsilon": {"f": 0.0}, "T": {"type": "DT_FLOAT"}, "explicit_paddings": {"list": {}}, "dilations": {"list": {"i": ["1", "1", "1", "1"]}}}}, {"name": "PartitionedCall/model_1/tf.concat_29/concat", "op": "ConcatV2", "input": ["PartitionedCall/model_1/tf.math.add_45/Add", "PartitionedCall/model_1/tf.nn.leaky_relu_28/LeakyRelu", "PartitionedCall/model_1/tf.nn.leaky_relu_29/LeakyRelu", "PartitionedCall/model_1/tf.concat_29/concat/axis"], "attr": {"N": {"i": "3"}, "T": {"type": "DT_FLOAT"}, "Tidx": {"type": "DT_INT32"}}}, {"name": "PartitionedCall/model_1/tf.compat.v1.pad_38/Pad", "op": "Pad", "input": ["PartitionedCall/model_1/tf.concat_29/concat", "unknown_113"], "attr": {"Tpaddings": {"type": "DT_INT32"}, "T": {"type": "DT_FLOAT"}}}, {"name": "PartitionedCall/model_1/tf.nn.leaky_relu_30/LeakyRelu", "op": "_FusedConv2D", "input": ["PartitionedCall/model_1/tf.compat.v1.pad_38/Pad", "unknown_114", "unknown_115"], "device": "/device:CPU:0", "attr": {"num_host_args": {"i": "0"}, "data_format": {"s": "TkhXQw=="}, "filter_format": {"s": "SFdJTw=="}, "_input_shapes": {"list": {"shape": [{"dim": [{"size": "-2"}, {"size": "-280"}, {"size": "-281"}, {"size": "128"}]}, {"dim": [{"size": "3"}, {"size": "3"}, {"size": "128"}, {"size": "32"}]}]}}, "fused_ops": {"list": {"s": ["Qmlhc0FkZA==", "TGVha3lSZWx1"]}}, "num_args": {"i": "1"}, "strides": {"list": {"i": ["1", "1", "1", "1"]}}, "TArgs": {"list": {"type": ["DT_FLOAT"]}}, "padding": {"s": "VkFMSUQ="}, "use_cudnn_on_gpu": {"b": true}, "leakyrelu_alpha": {"f": 0.2}, "epsilon": {"f": 0.0}, "T": {"type": "DT_FLOAT"}, "explicit_paddings": {"list": {}}, "dilations": {"list": {"i": ["1", "1", "1", "1"]}}}}, {"name": "PartitionedCall/model_1/tf.concat_30/concat", "op": "ConcatV2", "input": ["PartitionedCall/model_1/tf.math.add_45/Add", "PartitionedCall/model_1/tf.nn.leaky_relu_28/LeakyRelu", "PartitionedCall/model_1/tf.nn.leaky_relu_29/LeakyRelu", "PartitionedCall/model_1/tf.nn.leaky_relu_30/LeakyRelu", "PartitionedCall/model_1/tf.concat_30/concat/axis"], "attr": {"N": {"i": "4"}, "T": {"type": "DT_FLOAT"}, "Tidx": {"type": "DT_INT32"}}}, {"name": "PartitionedCall/model_1/tf.compat.v1.pad_39/Pad", "op": "Pad", "input": ["PartitionedCall/model_1/tf.concat_30/concat", "unknown_116"], "attr": {"Tpaddings": {"type": "DT_INT32"}, "T": {"type": "DT_FLOAT"}}}, {"name": "PartitionedCall/model_1/tf.nn.leaky_relu_31/LeakyRelu", "op": "_FusedConv2D", "input": ["PartitionedCall/model_1/tf.compat.v1.pad_39/Pad", "unknown_117", "unknown_118"], "device": "/device:CPU:0", "attr": {"num_host_args": {"i": "0"}, "data_format": {"s": "TkhXQw=="}, "filter_format": {"s": "SFdJTw=="}, "_input_shapes": {"list": {"shape": [{"dim": [{"size": "-2"}, {"size": "-282"}, {"size": "-283"}, {"size": "160"}]}, {"dim": [{"size": "3"}, {"size": "3"}, {"size": "160"}, {"size": "32"}]}]}}, "fused_ops": {"list": {"s": ["Qmlhc0FkZA==", "TGVha3lSZWx1"]}}, "num_args": {"i": "1"}, "strides": {"list": {"i": ["1", "1", "1", "1"]}}, "TArgs": {"list": {"type": ["DT_FLOAT"]}}, "padding": {"s": "VkFMSUQ="}, "use_cudnn_on_gpu": {"b": true}, "leakyrelu_alpha": {"f": 0.2}, "epsilon": {"f": 0.0}, "T": {"type": "DT_FLOAT"}, "explicit_paddings": {"list": {}}, "dilations": {"list": {"i": ["1", "1", "1", "1"]}}}}, {"name": "PartitionedCall/model_1/tf.concat_31/concat", "op": "ConcatV2", "input": ["PartitionedCall/model_1/tf.math.add_45/Add", "PartitionedCall/model_1/tf.nn.leaky_relu_28/LeakyRelu", "PartitionedCall/model_1/tf.nn.leaky_relu_29/LeakyRelu", "PartitionedCall/model_1/tf.nn.leaky_relu_30/LeakyRelu", "PartitionedCall/model_1/tf.nn.leaky_relu_31/LeakyRelu", "PartitionedCall/model_1/tf.concat_31/concat/axis"], "attr": {"N": {"i": "5"}, "T": {"type": "DT_FLOAT"}, "Tidx": {"type": "DT_INT32"}}}, {"name": "PartitionedCall/model_1/tf.compat.v1.pad_40/Pad", "op": "Pad", "input": ["PartitionedCall/model_1/tf.concat_31/concat", "unknown_119"], "attr": {"Tpaddings": {"type": "DT_INT32"}, "T": {"type": "DT_FLOAT"}}}, {"name": "PartitionedCall/model_1/tf.math.add_50/Add", "op": "_FusedConv2D", "input": ["PartitionedCall/model_1/tf.compat.v1.pad_40/Pad", "unknown_120", "unknown_121"], "device": "/device:CPU:0", "attr": {"num_host_args": {"i": "0"}, "data_format": {"s": "TkhXQw=="}, "filter_format": {"s": "SFdJTw=="}, "_input_shapes": {"list": {"shape": [{"dim": [{"size": "-2"}, {"size": "-284"}, {"size": "-285"}, {"size": "192"}]}, {"dim": [{"size": "3"}, {"size": "3"}, {"size": "192"}, {"size": "64"}]}]}}, "strides": {"list": {"i": ["1", "1", "1", "1"]}}, "num_args": {"i": "1"}, "fused_ops": {"list": {"s": ["Qmlhc0FkZA=="]}}, "TArgs": {"list": {"type": ["DT_FLOAT"]}}, "padding": {"s": "VkFMSUQ="}, "use_cudnn_on_gpu": {"b": true}, "leakyrelu_alpha": {"f": 0.2}, "epsilon": {"f": 0.0}, "T": {"type": "DT_FLOAT"}, "explicit_paddings": {"list": {}}, "dilations": {"list": {"i": ["1", "1", "1", "1"]}}}}, {"name": "PartitionedCall/model_1/tf.math.multiply_18/Mul", "op": "Mul", "input": ["PartitionedCall/model_1/tf.math.add_50/Add", "PartitionedCall/model_1/tf.math.multiply_18/Mul/y"], "attr": {"T": {"type": "DT_FLOAT"}}}, {"name": "PartitionedCall/model_1/tf.math.add_51/Add", "op": "AddV2", "input": ["PartitionedCall/model_1/tf.math.multiply_18/Mul", "PartitionedCall/model_1/tf.math.add_45/Add"], "attr": {"T": {"type": "DT_FLOAT"}}}, {"name": "PartitionedCall/model_1/tf.compat.v1.pad_41/Pad", "op": "Pad", "input": ["PartitionedCall/model_1/tf.math.add_51/Add", "unknown_122"], "attr": {"Tpaddings": {"type": "DT_INT32"}, "T": {"type": "DT_FLOAT"}}}, {"name": "PartitionedCall/model_1/tf.nn.leaky_relu_32/LeakyRelu", "op": "_FusedConv2D", "input": ["PartitionedCall/model_1/tf.compat.v1.pad_41/Pad", "unknown_123", "unknown_124"], "device": "/device:CPU:0", "attr": {"num_host_args": {"i": "0"}, "_input_shapes": {"list": {"shape": [{"dim": [{"size": "-2"}, {"size": "-288"}, {"size": "-289"}, {"size": "64"}]}, {"dim": [{"size": "3"}, {"size": "3"}, {"size": "64"}, {"size": "32"}]}]}}, "filter_format": {"s": "SFdJTw=="}, "data_format": {"s": "TkhXQw=="}, "fused_ops": {"list": {"s": ["Qmlhc0FkZA==", "TGVha3lSZWx1"]}}, "num_args": {"i": "1"}, "strides": {"list": {"i": ["1", "1", "1", "1"]}}, "TArgs": {"list": {"type": ["DT_FLOAT"]}}, "padding": {"s": "VkFMSUQ="}, "use_cudnn_on_gpu": {"b": true}, "leakyrelu_alpha": {"f": 0.2}, "epsilon": {"f": 0.0}, "T": {"type": "DT_FLOAT"}, "explicit_paddings": {"list": {}}, "dilations": {"list": {"i": ["1", "1", "1", "1"]}}}}, {"name": "PartitionedCall/model_1/tf.concat_32/concat", "op": "ConcatV2", "input": ["PartitionedCall/model_1/tf.math.add_51/Add", "PartitionedCall/model_1/tf.nn.leaky_relu_32/LeakyRelu", "PartitionedCall/model_1/tf.concat_32/concat/axis"], "attr": {"N": {"i": "2"}, "T": {"type": "DT_FLOAT"}, "Tidx": {"type": "DT_INT32"}}}, {"name": "PartitionedCall/model_1/tf.compat.v1.pad_42/Pad", "op": "Pad", "input": ["PartitionedCall/model_1/tf.concat_32/concat", "unknown_125"], "attr": {"Tpaddings": {"type": "DT_INT32"}, "T": {"type": "DT_FLOAT"}}}, {"name": "PartitionedCall/model_1/tf.nn.leaky_relu_33/LeakyRelu", "op": "_FusedConv2D", "input": ["PartitionedCall/model_1/tf.compat.v1.pad_42/Pad", "unknown_126", "unknown_127"], "device": "/device:CPU:0", "attr": {"num_host_args": {"i": "0"}, "_input_shapes": {"list": {"shape": [{"dim": [{"size": "-2"}, {"size": "-290"}, {"size": "-291"}, {"size": "96"}]}, {"dim": [{"size": "3"}, {"size": "3"}, {"size": "96"}, {"size": "32"}]}]}}, "filter_format": {"s": "SFdJTw=="}, "data_format": {"s": "TkhXQw=="}, "strides": {"list": {"i": ["1", "1", "1", "1"]}}, "num_args": {"i": "1"}, "fused_ops": {"list": {"s": ["Qmlhc0FkZA==", "TGVha3lSZWx1"]}}, "TArgs": {"list": {"type": ["DT_FLOAT"]}}, "padding": {"s": "VkFMSUQ="}, "use_cudnn_on_gpu": {"b": true}, "leakyrelu_alpha": {"f": 0.2}, "epsilon": {"f": 0.0}, "T": {"type": "DT_FLOAT"}, "explicit_paddings": {"list": {}}, "dilations": {"list": {"i": ["1", "1", "1", "1"]}}}}, {"name": "PartitionedCall/model_1/tf.concat_33/concat", "op": "ConcatV2", "input": ["PartitionedCall/model_1/tf.math.add_51/Add", "PartitionedCall/model_1/tf.nn.leaky_relu_32/LeakyRelu", "PartitionedCall/model_1/tf.nn.leaky_relu_33/LeakyRelu", "PartitionedCall/model_1/tf.concat_33/concat/axis"], "attr": {"N": {"i": "3"}, "T": {"type": "DT_FLOAT"}, "Tidx": {"type": "DT_INT32"}}}, {"name": "PartitionedCall/model_1/tf.compat.v1.pad_43/Pad", "op": "Pad", "input": ["PartitionedCall/model_1/tf.concat_33/concat", "unknown_128"], "attr": {"Tpaddings": {"type": "DT_INT32"}, "T": {"type": "DT_FLOAT"}}}, {"name": "PartitionedCall/model_1/tf.nn.leaky_relu_34/LeakyRelu", "op": "_FusedConv2D", "input": ["PartitionedCall/model_1/tf.compat.v1.pad_43/Pad", "unknown_129", "unknown_130"], "device": "/device:CPU:0", "attr": {"num_host_args": {"i": "0"}, "data_format": {"s": "TkhXQw=="}, "filter_format": {"s": "SFdJTw=="}, "_input_shapes": {"list": {"shape": [{"dim": [{"size": "-2"}, {"size": "-292"}, {"size": "-293"}, {"size": "128"}]}, {"dim": [{"size": "3"}, {"size": "3"}, {"size": "128"}, {"size": "32"}]}]}}, "fused_ops": {"list": {"s": ["Qmlhc0FkZA==", "TGVha3lSZWx1"]}}, "num_args": {"i": "1"}, "strides": {"list": {"i": ["1", "1", "1", "1"]}}, "TArgs": {"list": {"type": ["DT_FLOAT"]}}, "padding": {"s": "VkFMSUQ="}, "use_cudnn_on_gpu": {"b": true}, "leakyrelu_alpha": {"f": 0.2}, "epsilon": {"f": 0.0}, "T": {"type": "DT_FLOAT"}, "explicit_paddings": {"list": {}}, "dilations": {"list": {"i": ["1", "1", "1", "1"]}}}}, {"name": "PartitionedCall/model_1/tf.concat_34/concat", "op": "ConcatV2", "input": ["PartitionedCall/model_1/tf.math.add_51/Add", "PartitionedCall/model_1/tf.nn.leaky_relu_32/LeakyRelu", "PartitionedCall/model_1/tf.nn.leaky_relu_33/LeakyRelu", "PartitionedCall/model_1/tf.nn.leaky_relu_34/LeakyRelu", "PartitionedCall/model_1/tf.concat_34/concat/axis"], "attr": {"N": {"i": "4"}, "Tidx": {"type": "DT_INT32"}, "T": {"type": "DT_FLOAT"}}}, {"name": "PartitionedCall/model_1/tf.compat.v1.pad_44/Pad", "op": "Pad", "input": ["PartitionedCall/model_1/tf.concat_34/concat", "unknown_131"], "attr": {"Tpaddings": {"type": "DT_INT32"}, "T": {"type": "DT_FLOAT"}}}, {"name": "PartitionedCall/model_1/tf.nn.leaky_relu_35/LeakyRelu", "op": "_FusedConv2D", "input": ["PartitionedCall/model_1/tf.compat.v1.pad_44/Pad", "unknown_132", "unknown_133"], "device": "/device:CPU:0", "attr": {"num_host_args": {"i": "0"}, "data_format": {"s": "TkhXQw=="}, "filter_format": {"s": "SFdJTw=="}, "_input_shapes": {"list": {"shape": [{"dim": [{"size": "-2"}, {"size": "-294"}, {"size": "-295"}, {"size": "160"}]}, {"dim": [{"size": "3"}, {"size": "3"}, {"size": "160"}, {"size": "32"}]}]}}, "fused_ops": {"list": {"s": ["Qmlhc0FkZA==", "TGVha3lSZWx1"]}}, "num_args": {"i": "1"}, "strides": {"list": {"i": ["1", "1", "1", "1"]}}, "TArgs": {"list": {"type": ["DT_FLOAT"]}}, "padding": {"s": "VkFMSUQ="}, "use_cudnn_on_gpu": {"b": true}, "leakyrelu_alpha": {"f": 0.2}, "epsilon": {"f": 0.0}, "T": {"type": "DT_FLOAT"}, "explicit_paddings": {"list": {}}, "dilations": {"list": {"i": ["1", "1", "1", "1"]}}}}, {"name": "PartitionedCall/model_1/tf.concat_35/concat", "op": "ConcatV2", "input": ["PartitionedCall/model_1/tf.math.add_51/Add", "PartitionedCall/model_1/tf.nn.leaky_relu_32/LeakyRelu", "PartitionedCall/model_1/tf.nn.leaky_relu_33/LeakyRelu", "PartitionedCall/model_1/tf.nn.leaky_relu_34/LeakyRelu", "PartitionedCall/model_1/tf.nn.leaky_relu_35/LeakyRelu", "PartitionedCall/model_1/tf.concat_35/concat/axis"], "attr": {"N": {"i": "5"}, "T": {"type": "DT_FLOAT"}, "Tidx": {"type": "DT_INT32"}}}, {"name": "PartitionedCall/model_1/tf.compat.v1.pad_45/Pad", "op": "Pad", "input": ["PartitionedCall/model_1/tf.concat_35/concat", "unknown_134"], "attr": {"Tpaddings": {"type": "DT_INT32"}, "T": {"type": "DT_FLOAT"}}}, {"name": "PartitionedCall/model_1/tf.math.add_56/Add", "op": "_FusedConv2D", "input": ["PartitionedCall/model_1/tf.compat.v1.pad_45/Pad", "unknown_135", "unknown_136"], "device": "/device:CPU:0", "attr": {"num_host_args": {"i": "0"}, "data_format": {"s": "TkhXQw=="}, "filter_format": {"s": "SFdJTw=="}, "_input_shapes": {"list": {"shape": [{"dim": [{"size": "-2"}, {"size": "-296"}, {"size": "-297"}, {"size": "192"}]}, {"dim": [{"size": "3"}, {"size": "3"}, {"size": "192"}, {"size": "64"}]}]}}, "fused_ops": {"list": {"s": ["Qmlhc0FkZA=="]}}, "num_args": {"i": "1"}, "strides": {"list": {"i": ["1", "1", "1", "1"]}}, "TArgs": {"list": {"type": ["DT_FLOAT"]}}, "padding": {"s": "VkFMSUQ="}, "use_cudnn_on_gpu": {"b": true}, "leakyrelu_alpha": {"f": 0.2}, "epsilon": {"f": 0.0}, "T": {"type": "DT_FLOAT"}, "explicit_paddings": {"list": {}}, "dilations": {"list": {"i": ["1", "1", "1", "1"]}}}}, {"name": "PartitionedCall/model_1/tf.math.multiply_20/Mul", "op": "Mul", "input": ["PartitionedCall/model_1/tf.math.add_56/Add", "PartitionedCall/model_1/tf.math.multiply_20/Mul/y"], "attr": {"T": {"type": "DT_FLOAT"}}}, {"name": "PartitionedCall/model_1/tf.math.add_57/Add", "op": "AddV2", "input": ["PartitionedCall/model_1/tf.math.multiply_20/Mul", "PartitionedCall/model_1/tf.math.add_51/Add"], "attr": {"T": {"type": "DT_FLOAT"}}}, {"name": "PartitionedCall/model_1/tf.math.multiply_22/Mul", "op": "Mul", "input": ["PartitionedCall/model_1/tf.math.add_57/Add", "PartitionedCall/model_1/tf.math.multiply_22/Mul/y"], "attr": {"T": {"type": "DT_FLOAT"}}}, {"name": "PartitionedCall/model_1/tf.math.add_58/Add", "op": "AddV2", "input": ["PartitionedCall/model_1/tf.math.multiply_22/Mul", "PartitionedCall/model_1/tf.math.add_39/Add"], "attr": {"T": {"type": "DT_FLOAT"}}}, {"name": "PartitionedCall/model_1/tf.compat.v1.pad_46/Pad", "op": "Pad", "input": ["PartitionedCall/model_1/tf.math.add_58/Add", "unknown_137"], "attr": {"Tpaddings": {"type": "DT_INT32"}, "T": {"type": "DT_FLOAT"}}}, {"name": "PartitionedCall/model_1/tf.nn.leaky_relu_36/LeakyRelu", "op": "_FusedConv2D", "input": ["PartitionedCall/model_1/tf.compat.v1.pad_46/Pad", "unknown_138", "unknown_139"], "device": "/device:CPU:0", "attr": {"num_host_args": {"i": "0"}, "_input_shapes": {"list": {"shape": [{"dim": [{"size": "-2"}, {"size": "-302"}, {"size": "-303"}, {"size": "64"}]}, {"dim": [{"size": "3"}, {"size": "3"}, {"size": "64"}, {"size": "32"}]}]}}, "filter_format": {"s": "SFdJTw=="}, "data_format": {"s": "TkhXQw=="}, "fused_ops": {"list": {"s": ["Qmlhc0FkZA==", "TGVha3lSZWx1"]}}, "num_args": {"i": "1"}, "strides": {"list": {"i": ["1", "1", "1", "1"]}}, "TArgs": {"list": {"type": ["DT_FLOAT"]}}, "padding": {"s": "VkFMSUQ="}, "use_cudnn_on_gpu": {"b": true}, "leakyrelu_alpha": {"f": 0.2}, "epsilon": {"f": 0.0}, "T": {"type": "DT_FLOAT"}, "explicit_paddings": {"list": {}}, "dilations": {"list": {"i": ["1", "1", "1", "1"]}}}}, {"name": "PartitionedCall/model_1/tf.concat_36/concat", "op": "ConcatV2", "input": ["PartitionedCall/model_1/tf.math.add_58/Add", "PartitionedCall/model_1/tf.nn.leaky_relu_36/LeakyRelu", "PartitionedCall/model_1/tf.concat_36/concat/axis"], "attr": {"N": {"i": "2"}, "T": {"type": "DT_FLOAT"}, "Tidx": {"type": "DT_INT32"}}}, {"name": "PartitionedCall/model_1/tf.compat.v1.pad_47/Pad", "op": "Pad", "input": ["PartitionedCall/model_1/tf.concat_36/concat", "unknown_140"], "attr": {"Tpaddings": {"type": "DT_INT32"}, "T": {"type": "DT_FLOAT"}}}, {"name": "PartitionedCall/model_1/tf.nn.leaky_relu_37/LeakyRelu", "op": "_FusedConv2D", "input": ["PartitionedCall/model_1/tf.compat.v1.pad_47/Pad", "unknown_141", "unknown_142"], "device": "/device:CPU:0", "attr": {"num_host_args": {"i": "0"}, "_input_shapes": {"list": {"shape": [{"dim": [{"size": "-2"}, {"size": "-304"}, {"size": "-305"}, {"size": "96"}]}, {"dim": [{"size": "3"}, {"size": "3"}, {"size": "96"}, {"size": "32"}]}]}}, "filter_format": {"s": "SFdJTw=="}, "data_format": {"s": "TkhXQw=="}, "strides": {"list": {"i": ["1", "1", "1", "1"]}}, "num_args": {"i": "1"}, "fused_ops": {"list": {"s": ["Qmlhc0FkZA==", "TGVha3lSZWx1"]}}, "TArgs": {"list": {"type": ["DT_FLOAT"]}}, "padding": {"s": "VkFMSUQ="}, "use_cudnn_on_gpu": {"b": true}, "leakyrelu_alpha": {"f": 0.2}, "epsilon": {"f": 0.0}, "T": {"type": "DT_FLOAT"}, "explicit_paddings": {"list": {}}, "dilations": {"list": {"i": ["1", "1", "1", "1"]}}}}, {"name": "PartitionedCall/model_1/tf.concat_37/concat", "op": "ConcatV2", "input": ["PartitionedCall/model_1/tf.math.add_58/Add", "PartitionedCall/model_1/tf.nn.leaky_relu_36/LeakyRelu", "PartitionedCall/model_1/tf.nn.leaky_relu_37/LeakyRelu", "PartitionedCall/model_1/tf.concat_37/concat/axis"], "attr": {"N": {"i": "3"}, "T": {"type": "DT_FLOAT"}, "Tidx": {"type": "DT_INT32"}}}, {"name": "PartitionedCall/model_1/tf.compat.v1.pad_48/Pad", "op": "Pad", "input": ["PartitionedCall/model_1/tf.concat_37/concat", "unknown_143"], "attr": {"Tpaddings": {"type": "DT_INT32"}, "T": {"type": "DT_FLOAT"}}}, {"name": "PartitionedCall/model_1/tf.nn.leaky_relu_38/LeakyRelu", "op": "_FusedConv2D", "input": ["PartitionedCall/model_1/tf.compat.v1.pad_48/Pad", "unknown_144", "unknown_145"], "device": "/device:CPU:0", "attr": {"num_host_args": {"i": "0"}, "_input_shapes": {"list": {"shape": [{"dim": [{"size": "-2"}, {"size": "-306"}, {"size": "-307"}, {"size": "128"}]}, {"dim": [{"size": "3"}, {"size": "3"}, {"size": "128"}, {"size": "32"}]}]}}, "filter_format": {"s": "SFdJTw=="}, "data_format": {"s": "TkhXQw=="}, "strides": {"list": {"i": ["1", "1", "1", "1"]}}, "num_args": {"i": "1"}, "fused_ops": {"list": {"s": ["Qmlhc0FkZA==", "TGVha3lSZWx1"]}}, "TArgs": {"list": {"type": ["DT_FLOAT"]}}, "padding": {"s": "VkFMSUQ="}, "use_cudnn_on_gpu": {"b": true}, "leakyrelu_alpha": {"f": 0.2}, "epsilon": {"f": 0.0}, "T": {"type": "DT_FLOAT"}, "explicit_paddings": {"list": {}}, "dilations": {"list": {"i": ["1", "1", "1", "1"]}}}}, {"name": "PartitionedCall/model_1/tf.concat_38/concat", "op": "ConcatV2", "input": ["PartitionedCall/model_1/tf.math.add_58/Add", "PartitionedCall/model_1/tf.nn.leaky_relu_36/LeakyRelu", "PartitionedCall/model_1/tf.nn.leaky_relu_37/LeakyRelu", "PartitionedCall/model_1/tf.nn.leaky_relu_38/LeakyRelu", "PartitionedCall/model_1/tf.concat_38/concat/axis"], "attr": {"N": {"i": "4"}, "T": {"type": "DT_FLOAT"}, "Tidx": {"type": "DT_INT32"}}}, {"nam…
 "dilations": {"list": {"i": ["1", "1", "1", "1"]}}}}, {"name": "PartitionedCall/model_1/tf.concat_66/concat", "op": "ConcatV2", "input": ["PartitionedCall/model_1/tf.math.add_102/Add", "PartitionedCall/model_1/tf.nn.leaky_relu_64/LeakyRelu", "PartitionedCall/model_1/tf.nn.leaky_relu_65/LeakyRelu", "PartitionedCall/model_1/tf.nn.leaky_relu_66/LeakyRelu", "PartitionedCall/model_1/tf.concat_66/concat/axis"], "attr": {"N": {"i": "4"}, "Tidx": {"type": "DT_INT32"}, "T": {"type": "DT_FLOAT"}}}, {"name": "PartitionedCall/model_1/tf.compat.v1.pad_84/Pad", "op": "Pad", "input": ["PartitionedCall/model_1/tf.concat_66/concat", "unknown_251"], "attr": {"Tpaddings": {"type": "DT_INT32"}, "T": {"type": "DT_FLOAT"}}}, {"name": "PartitionedCall/model_1/tf.nn.leaky_relu_67/LeakyRelu", "op": "_FusedConv2D", "input": ["PartitionedCall/model_1/tf.compat.v1.pad_84/Pad", "unknown_252", "unknown_253"], "device": "/device:CPU:0", "attr": {"num_host_args": {"i": "0"}, "_input_shapes": {"list": {"shape": [{"dim": [{"size": "-2"}, {"size": "-396"}, {"size": "-397"}, {"size": "160"}]}, {"dim": [{"size": "3"}, {"size": "3"}, {"size": "160"}, {"size": "32"}]}]}}, "filter_format": {"s": "SFdJTw=="}, "data_format": {"s": "TkhXQw=="}, "fused_ops": {"list": {"s": ["Qmlhc0FkZA==", "TGVha3lSZWx1"]}}, "num_args": {"i": "1"}, "strides": {"list": {"i": ["1", "1", "1", "1"]}}, "TArgs": {"list": {"type": ["DT_FLOAT"]}}, "padding": {"s": "VkFMSUQ="}, "use_cudnn_on_gpu": {"b": true}, "leakyrelu_alpha": {"f": 0.2}, "epsilon": {"f": 0.0}, "T": {"type": "DT_FLOAT"}, "explicit_paddings": {"list": {}}, "dilations": {"list": {"i": ["1", "1", "1", "1"]}}}}, {"name": "PartitionedCall/model_1/tf.concat_67/concat", "op": "ConcatV2", "input": ["PartitionedCall/model_1/tf.math.add_102/Add", "PartitionedCall/model_1/tf.nn.leaky_relu_64/LeakyRelu", "PartitionedCall/model_1/tf.nn.leaky_relu_65/LeakyRelu", "PartitionedCall/model_1/tf.nn.leaky_relu_66/LeakyRelu", "PartitionedCall/model_1/tf.nn.leaky_relu_67/LeakyRelu", "PartitionedCall/model_1/tf.concat_67/concat/axis"], "attr": {"N": {"i": "5"}, "Tidx": {"type": "DT_INT32"}, "T": {"type": "DT_FLOAT"}}}, {"name": "PartitionedCall/model_1/tf.compat.v1.pad_85/Pad", "op": "Pad", "input": ["PartitionedCall/model_1/tf.concat_67/concat", "unknown_254"], "attr": {"Tpaddings": {"type": "DT_INT32"}, "T": {"type": "DT_FLOAT"}}}, {"name": "PartitionedCall/model_1/tf.math.add_107/Add", "op": "_FusedConv2D", "input": ["PartitionedCall/model_1/tf.compat.v1.pad_85/Pad", "unknown_255", "unknown_256"], "device": "/device:CPU:0", "attr": {"num_host_args": {"i": "0"}, "data_format": {"s": "TkhXQw=="}, "filter_format": {"s": "SFdJTw=="}, "_input_shapes": {"list": {"shape": [{"dim": [{"size": "-2"}, {"size": "-398"}, {"size": "-399"}, {"size": "192"}]}, {"dim": [{"size": "3"}, {"size": "3"}, {"size": "192"}, {"size": "64"}]}]}}, "fused_ops": {"list": {"s": ["Qmlhc0FkZA=="]}}, "num_args": {"i": "1"}, "strides": {"list": {"i": ["1", "1", "1", "1"]}}, "TArgs": {"list": {"type": ["DT_FLOAT"]}}, "padding": {"s": "VkFMSUQ="}, "use_cudnn_on_gpu": {"b": true}, "leakyrelu_alpha": {"f": 0.2}, "epsilon": {"f": 0.0}, "T": {"type": "DT_FLOAT"}, "explicit_paddings": {"list": {}}, "dilations": {"list": {"i": ["1", "1", "1", "1"]}}}}, {"name": "PartitionedCall/model_1/tf.math.multiply_42/Mul", "op": "Mul", "input": ["PartitionedCall/model_1/tf.math.add_107/Add", "PartitionedCall/model_1/tf.math.multiply_42/Mul/y"], "attr": {"T": {"type": "DT_FLOAT"}}}, {"name": "PartitionedCall/model_1/tf.math.add_108/Add", "op": "AddV2", "input": ["PartitionedCall/model_1/tf.math.multiply_42/Mul", "PartitionedCall/model_1/tf.math.add_102/Add"], "attr": {"T": {"type": "DT_FLOAT"}}}, {"name": "PartitionedCall/model_1/tf.compat.v1.pad_86/Pad", "op": "Pad", "input": ["PartitionedCall/model_1/tf.math.add_108/Add", "unknown_257"], "attr": {"Tpaddings": {"type": "DT_INT32"}, "T": {"type": "DT_FLOAT"}}}, {"name": "PartitionedCall/model_1/tf.nn.leaky_relu_68/LeakyRelu", "op": "_FusedConv2D", "input": ["PartitionedCall/model_1/tf.compat.v1.pad_86/Pad", "unknown_258", "unknown_259"], "device": "/device:CPU:0", "attr": {"num_host_args": {"i": "0"}, "_input_shapes": {"list": {"shape": [{"dim": [{"size": "-2"}, {"size": "-402"}, {"size": "-403"}, {"size": "64"}]}, {"dim": [{"size": "3"}, {"size": "3"}, {"size": "64"}, {"size": "32"}]}]}}, "filter_format": {"s": "SFdJTw=="}, "data_format": {"s": "TkhXQw=="}, "strides": {"list": {"i": ["1", "1", "1", "1"]}}, "num_args": {"i": "1"}, "fused_ops": {"list": {"s": ["Qmlhc0FkZA==", "TGVha3lSZWx1"]}}, "TArgs": {"list": {"type": ["DT_FLOAT"]}}, "padding": {"s": "VkFMSUQ="}, "use_cudnn_on_gpu": {"b": true}, "leakyrelu_alpha": {"f": 0.2}, "epsilon": {"f": 0.0}, "T": {"type": "DT_FLOAT"}, "explicit_paddings": {"list": {}}, "dilations": {"list": {"i": ["1", "1", "1", "1"]}}}}, {"name": "PartitionedCall/model_1/tf.concat_68/concat", "op": "ConcatV2", "input": ["PartitionedCall/model_1/tf.math.add_108/Add", "PartitionedCall/model_1/tf.nn.leaky_relu_68/LeakyRelu", "PartitionedCall/model_1/tf.concat_68/concat/axis"], "attr": {"N": {"i": "2"}, "T": {"type": "DT_FLOAT"}, "Tidx": {"type": "DT_INT32"}}}, {"name": "PartitionedCall/model_1/tf.compat.v1.pad_87/Pad", "op": "Pad", "input": ["PartitionedCall/model_1/tf.concat_68/concat", "unknown_260"], "attr": {"Tpaddings": {"type": "DT_INT32"}, "T": {"type": "DT_FLOAT"}}}, {"name": "PartitionedCall/model_1/tf.nn.leaky_relu_69/LeakyRelu", "op": "_FusedConv2D", "input": ["PartitionedCall/model_1/tf.compat.v1.pad_87/Pad", "unknown_261", "unknown_262"], "device": "/device:CPU:0", "attr": {"num_host_args": {"i": "0"}, "_input_shapes": {"list": {"shape": [{"dim": [{"size": "-2"}, {"size": "-404"}, {"size": "-405"}, {"size": "96"}]}, {"dim": [{"size": "3"}, {"size": "3"}, {"size": "96"}, {"size": "32"}]}]}}, "filter_format": {"s": "SFdJTw=="}, "data_format": {"s": "TkhXQw=="}, "fused_ops": {"list": {"s": ["Qmlhc0FkZA==", "TGVha3lSZWx1"]}}, "num_args": {"i": "1"}, "strides": {"list": {"i": ["1", "1", "1", "1"]}}, "TArgs": {"list": {"type": ["DT_FLOAT"]}}, "padding": {"s": "VkFMSUQ="}, "use_cudnn_on_gpu": {"b": true}, "leakyrelu_alpha": {"f": 0.2}, "epsilon": {"f": 0.0}, "T": {"type": "DT_FLOAT"}, "explicit_paddings": {"list": {}}, "dilations": {"list": {"i": ["1", "1", "1", "1"]}}}}, {"name": "PartitionedCall/model_1/tf.concat_69/concat", "op": "ConcatV2", "input": ["PartitionedCall/model_1/tf.math.add_108/Add", "PartitionedCall/model_1/tf.nn.leaky_relu_68/LeakyRelu", "PartitionedCall/model_1/tf.nn.leaky_relu_69/LeakyRelu", "PartitionedCall/model_1/tf.concat_69/concat/axis"], "attr": {"N": {"i": "3"}, "Tidx": {"type": "DT_INT32"}, "T": {"type": "DT_FLOAT"}}}, {"name": "PartitionedCall/model_1/tf.compat.v1.pad_88/Pad", "op": "Pad", "input": ["PartitionedCall/model_1/tf.concat_69/concat", "unknown_263"], "attr": {"Tpaddings": {"type": "DT_INT32"}, "T": {"type": "DT_FLOAT"}}}, {"name": "PartitionedCall/model_1/tf.nn.leaky_relu_70/LeakyRelu", "op": "_FusedConv2D", "input": ["PartitionedCall/model_1/tf.compat.v1.pad_88/Pad", "unknown_264", "unknown_265"], "device": "/device:CPU:0", "attr": {"num_host_args": {"i": "0"}, "data_format": {"s": "TkhXQw=="}, "filter_format": {"s": "SFdJTw=="}, "_input_shapes": {"list": {"shape": [{"dim": [{"size": "-2"}, {"size": "-406"}, {"size": "-407"}, {"size": "128"}]}, {"dim": [{"size": "3"}, {"size": "3"}, {"size": "128"}, {"size": "32"}]}]}}, "strides": {"list": {"i": ["1", "1", "1", "1"]}}, "num_args": {"i": "1"}, "fused_ops": {"list": {"s": ["Qmlhc0FkZA==", "TGVha3lSZWx1"]}}, "TArgs": {"list": {"type": ["DT_FLOAT"]}}, "padding": {"s": "VkFMSUQ="}, "use_cudnn_on_gpu": {"b": true}, "leakyrelu_alpha": {"f": 0.2}, "epsilon": {"f": 0.0}, "T": {"type": "DT_FLOAT"}, "explicit_paddings": {"list": {}}, "dilations": {"list": {"i": ["1", "1", "1", "1"]}}}}, {"name": "PartitionedCall/model_1/tf.concat_70/concat", "op": "ConcatV2", "input": ["PartitionedCall/model_1/tf.math.add_108/Add", "PartitionedCall/model_1/tf.nn.leaky_relu_68/LeakyRelu", "PartitionedCall/model_1/tf.nn.leaky_relu_69/LeakyRelu", "PartitionedCall/model_1/tf.nn.leaky_relu_70/LeakyRelu", "PartitionedCall/model_1/tf.concat_70/concat/axis"], "attr": {"N": {"i": "4"}, "Tidx": {"type": "DT_INT32"}, "T": {"type": "DT_FLOAT"}}}, {"name": "PartitionedCall/model_1/tf.compat.v1.pad_89/Pad", "op": "Pad", "input": ["PartitionedCall/model_1/tf.concat_70/concat", "unknown_266"], "attr": {"Tpaddings": {"type": "DT_INT32"}, "T": {"type": "DT_FLOAT"}}}, {"name": "PartitionedCall/model_1/tf.nn.leaky_relu_71/LeakyRelu", "op": "_FusedConv2D", "input": ["PartitionedCall/model_1/tf.compat.v1.pad_89/Pad", "unknown_267", "unknown_268"], "device": "/device:CPU:0", "attr": {"num_host_args": {"i": "0"}, "_input_shapes": {"list": {"shape": [{"dim": [{"size": "-2"}, {"size": "-408"}, {"size": "-409"}, {"size": "160"}]}, {"dim": [{"size": "3"}, {"size": "3"}, {"size": "160"}, {"size": "32"}]}]}}, "filter_format": {"s": "SFdJTw=="}, "data_format": {"s": "TkhXQw=="}, "fused_ops": {"list": {"s": ["Qmlhc0FkZA==", "TGVha3lSZWx1"]}}, "num_args": {"i": "1"}, "strides": {"list": {"i": ["1", "1", "1", "1"]}}, "TArgs": {"list": {"type": ["DT_FLOAT"]}}, "padding": {"s": "VkFMSUQ="}, "use_cudnn_on_gpu": {"b": true}, "leakyrelu_alpha": {"f": 0.2}, "epsilon": {"f": 0.0}, "T": {"type": "DT_FLOAT"}, "explicit_paddings": {"list": {}}, "dilations": {"list": {"i": ["1", "1", "1", "1"]}}}}, {"name": "PartitionedCall/model_1/tf.concat_71/concat", "op": "ConcatV2", "input": ["PartitionedCall/model_1/tf.math.add_108/Add", "PartitionedCall/model_1/tf.nn.leaky_relu_68/LeakyRelu", "PartitionedCall/model_1/tf.nn.leaky_relu_69/LeakyRelu", "PartitionedCall/model_1/tf.nn.leaky_relu_70/LeakyRelu", "PartitionedCall/model_1/tf.nn.leaky_relu_71/LeakyRelu", "PartitionedCall/model_1/tf.concat_71/concat/axis"], "attr": {"N": {"i": "5"}, "Tidx": {"type": "DT_INT32"}, "T": {"type": "DT_FLOAT"}}}, {"name": "PartitionedCall/model_1/tf.compat.v1.pad_90/Pad", "op": "Pad", "input": ["PartitionedCall/model_1/tf.concat_71/concat", "unknown_269"], "attr": {"Tpaddings": {"type": "DT_INT32"}, "T": {"type": "DT_FLOAT"}}}, {"name": "PartitionedCall/model_1/tf.math.add_113/Add", "op": "_FusedConv2D", "input": ["PartitionedCall/model_1/tf.compat.v1.pad_90/Pad", "unknown_270", "unknown_271"], "device": "/device:CPU:0", "attr": {"num_host_args": {"i": "0"}, "data_format": {"s": "TkhXQw=="}, "filter_format": {"s": "SFdJTw=="}, "_input_shapes": {"list": {"shape": [{"dim": [{"size": "-2"}, {"size": "-410"}, {"size": "-411"}, {"size": "192"}]}, {"dim": [{"size": "3"}, {"size": "3"}, {"size": "192"}, {"size": "64"}]}]}}, "strides": {"list": {"i": ["1", "1", "1", "1"]}}, "num_args": {"i": "1"}, "fused_ops": {"list": {"s": ["Qmlhc0FkZA=="]}}, "TArgs": {"list": {"type": ["DT_FLOAT"]}}, "padding": {"s": "VkFMSUQ="}, "use_cudnn_on_gpu": {"b": true}, "leakyrelu_alpha": {"f": 0.2}, "epsilon": {"f": 0.0}, "T": {"type": "DT_FLOAT"}, "explicit_paddings": {"list": {}}, "dilations": {"list": {"i": ["1", "1", "1", "1"]}}}}, {"name": "PartitionedCall/model_1/tf.math.multiply_44/Mul", "op": "Mul", "input": ["PartitionedCall/model_1/tf.math.add_113/Add", "PartitionedCall/model_1/tf.math.multiply_44/Mul/y"], "attr": {"T": {"type": "DT_FLOAT"}}}, {"name": "PartitionedCall/model_1/tf.math.add_114/Add", "op": "AddV2", "input": ["PartitionedCall/model_1/tf.math.multiply_44/Mul", "PartitionedCall/model_1/tf.math.add_108/Add"], "attr": {"T": {"type": "DT_FLOAT"}}}, {"name": "PartitionedCall/model_1/tf.math.multiply_46/Mul", "op": "Mul", "input": ["PartitionedCall/model_1/tf.math.add_114/Add", "PartitionedCall/model_1/tf.math.multiply_46/Mul/y"], "attr": {"T": {"type": "DT_FLOAT"}}}, {"name": "PartitionedCall/model_1/tf.math.add_115/Add", "op": "AddV2", "input": ["PartitionedCall/model_1/tf.math.multiply_46/Mul", "PartitionedCall/model_1/tf.math.add_96/Add"], "attr": {"T": {"type": "DT_FLOAT"}}}, {"name": "PartitionedCall/model_1/tf.compat.v1.pad_91/Pad", "op": "Pad", "input": ["PartitionedCall/model_1/tf.math.add_115/Add", "unknown_272"], "attr": {"Tpaddings": {"type": "DT_INT32"}, "T": {"type": "DT_FLOAT"}}}, {"name": "PartitionedCall/model_1/tf.math.add_116/Add", "op": "_FusedConv2D", "input": ["PartitionedCall/model_1/tf.compat.v1.pad_91/Pad", "unknown_273", "unknown_274"], "device": "/device:CPU:0", "attr": {"num_host_args": {"i": "0"}, "_input_shapes": {"list": {"shape": [{"dim": [{"size": "-2"}, {"size": "-418"}, {"size": "-419"}, {"size": "64"}]}, {"dim": [{"size": "3"}, {"size": "3"}, {"size": "64"}, {"size": "64"}]}]}}, "filter_format": {"s": "SFdJTw=="}, "data_format": {"s": "TkhXQw=="}, "fused_ops": {"list": {"s": ["Qmlhc0FkZA=="]}}, "num_args": {"i": "1"}, "strides": {"list": {"i": ["1", "1", "1", "1"]}}, "TArgs": {"list": {"type": ["DT_FLOAT"]}}, "padding": {"s": "VkFMSUQ="}, "use_cudnn_on_gpu": {"b": true}, "leakyrelu_alpha": {"f": 0.2}, "epsilon": {"f": 0.0}, "T": {"type": "DT_FLOAT"}, "explicit_paddings": {"list": {}}, "dilations": {"list": {"i": ["1", "1", "1", "1"]}}}}, {"name": "PartitionedCall/model_1/tf.math.add_117/Add", "op": "AddV2", "input": ["PartitionedCall/model_1/tf.math.add_1/Add", "PartitionedCall/model_1/tf.math.add_116/Add"], "attr": {"T": {"type": "DT_FLOAT"}}}, {"name": "PartitionedCall/model_1/tf.compat.v1.shape/Shape", "op": "Shape", "input": ["PartitionedCall/model_1/tf.math.add_117/Add"], "attr": {"T": {"type": "DT_FLOAT"}, "out_type": {"type": "DT_INT32"}}, "experimentalType": {"typeId": "TFT_PRODUCT", "args": [{"typeId": "TFT_SHAPE_TENSOR", "args": [{"typeId": "TFT_INT32"}]}]}}, {"name": "PartitionedCall/model_1/tf.__operators__.getitem/strided_slice", "op": "StridedSlice", "input": ["PartitionedCall/model_1/tf.compat.v1.shape/Shape", "PartitionedCall/model_1/tf.__operators__.getitem/strided_slice/stack", "PartitionedCall/model_1/tf.__operators__.getitem/strided_slice/stack_1", "PartitionedCall/model_1/tf.__operators__.getitem/strided_slice/stack_2"], "attr": {"shrink_axis_mask": {"i": "0"}, "Index": {"type": "DT_INT32"}, "new_axis_mask": {"i": "0"}, "begin_mask": {"i": "0"}, "end_mask": {"i": "0"}, "T": {"type": "DT_INT32"}, "ellipsis_mask": {"i": "0"}}}, {"name": "PartitionedCall/model_1/tf.cast/Cast", "op": "Cast", "input": ["PartitionedCall/model_1/tf.__operators__.getitem/strided_slice"], "attr": {"SrcT": {"type": "DT_INT32"}, "DstT": {"type": "DT_FLOAT"}, "Truncate": {"b": false}}}, {"name": "PartitionedCall/model_1/tf.math.multiply_49/Mul", "op": "Mul", "input": ["unknown_275", "PartitionedCall/model_1/tf.cast/Cast"], "attr": {"T": {"type": "DT_FLOAT"}}}, {"name": "PartitionedCall/model_1/tf.cast_1/Cast", "op": "Cast", "input": ["PartitionedCall/model_1/tf.math.multiply_49/Mul"], "attr": {"SrcT": {"type": "DT_FLOAT"}, "DstT": {"type": "DT_INT32"}, "Truncate": {"b": false}}}, {"name": "PartitionedCall/model_1/tf.compat.v1.image.resize_nearest_neighbor/ResizeNearestNeighbor", "op": "ResizeNearestNeighbor", "input": ["PartitionedCall/model_1/tf.math.add_117/Add", "PartitionedCall/model_1/tf.cast_1/Cast"], "attr": {"T": {"type": "DT_FLOAT"}, "align_corners": {"b": false}, "half_pixel_centers": {"b": false}}}, {"name": "PartitionedCall/model_1/tf.compat.v1.pad_92/Pad", "op": "Pad", "input": ["PartitionedCall/model_1/tf.compat.v1.image.resize_nearest_neighbor/ResizeNearestNeighbor", "unknown_276"], "attr": {"Tpaddings": {"type": "DT_INT32"}, "T": {"type": "DT_FLOAT"}}}, {"name": "PartitionedCall/model_1/tf.nn.leaky_relu_72/LeakyRelu", "op": "_FusedConv2D", "input": ["PartitionedCall/model_1/tf.compat.v1.pad_92/Pad", "unknown_277", "unknown_278"], "device": "/device:CPU:0", "attr": {"num_host_args": {"i": "0"}, "data_format": {"s": "TkhXQw=="}, "filter_format": {"s": "SFdJTw=="}, "_input_shapes": {"list": {"shape": [{"dim": [{"size": "-2"}, {"size": "-426"}, {"size": "-427"}, {"size": "64"}]}, {"dim": [{"size": "3"}, {"size": "3"}, {"size": "64"}, {"size": "64"}]}]}}, "fused_ops": {"list": {"s": ["Qmlhc0FkZA==", "TGVha3lSZWx1"]}}, "num_args": {"i": "1"}, "strides": {"list": {"i": ["1", "1", "1", "1"]}}, "TArgs": {"list": {"type": ["DT_FLOAT"]}}, "padding": {"s": "VkFMSUQ="}, "use_cudnn_on_gpu": {"b": true}, "leakyrelu_alpha": {"f": 0.2}, "epsilon": {"f": 0.0}, "T": {"type": "DT_FLOAT"}, "explicit_paddings": {"list": {}}, "dilations": {"list": {"i": ["1", "1", "1", "1"]}}}}, {"name": "PartitionedCall/model_1/tf.compat.v1.shape_1/Shape", "op": "Shape", "input": ["PartitionedCall/model_1/tf.nn.leaky_relu_72/LeakyRelu"], "attr": {"T": {"type": "DT_FLOAT"}, "out_type": {"type": "DT_INT32"}}, "experimentalType": {"typeId": "TFT_PRODUCT", "args": [{"typeId": "TFT_SHAPE_TENSOR", "args": [{"typeId": "TFT_INT32"}]}]}}, {"name": "PartitionedCall/model_1/tf.__operators__.getitem_1/strided_slice", "op": "StridedSlice", "input": ["PartitionedCall/model_1/tf.compat.v1.shape_1/Shape", "PartitionedCall/model_1/tf.__operators__.getitem_1/strided_slice/stack", "PartitionedCall/model_1/tf.__operators__.getitem_1/strided_slice/stack_1", "PartitionedCall/model_1/tf.__operators__.getitem_1/strided_slice/stack_2"], "attr": {"shrink_axis_mask": {"i": "0"}, "Index": {"type": "DT_INT32"}, "new_axis_mask": {"i": "0"}, "begin_mask": {"i": "0"}, "end_mask": {"i": "0"}, "T": {"type": "DT_INT32"}, "ellipsis_mask": {"i": "0"}}}, {"name": "PartitionedCall/model_1/tf.cast_2/Cast", "op": "Cast", "input": ["PartitionedCall/model_1/tf.__operators__.getitem_1/strided_slice"], "attr": {"SrcT": {"type": "DT_INT32"}, "DstT": {"type": "DT_FLOAT"}, "Truncate": {"b": false}}}, {"name": "PartitionedCall/model_1/tf.math.multiply_50/Mul", "op": "Mul", "input": ["unknown_279", "PartitionedCall/model_1/tf.cast_2/Cast"], "attr": {"T": {"type": "DT_FLOAT"}}}, {"name": "PartitionedCall/model_1/tf.cast_3/Cast", "op": "Cast", "input": ["PartitionedCall/model_1/tf.math.multiply_50/Mul"], "attr": {"SrcT": {"type": "DT_FLOAT"}, "DstT": {"type": "DT_INT32"}, "Truncate": {"b": false}}}, {"name": "PartitionedCall/model_1/tf.compat.v1.image.resize_nearest_neighbor_1/ResizeNearestNeighbor", "op": "ResizeNearestNeighbor", "input": ["PartitionedCall/model_1/tf.nn.leaky_relu_72/LeakyRelu", "PartitionedCall/model_1/tf.cast_3/Cast"], "attr": {"T": {"type": "DT_FLOAT"}, "align_corners": {"b": false}, "half_pixel_centers": {"b": false}}}, {"name": "PartitionedCall/model_1/tf.compat.v1.pad_93/Pad", "op": "Pad", "input": ["PartitionedCall/model_1/tf.compat.v1.image.resize_nearest_neighbor_1/ResizeNearestNeighbor", "unknown_280"], "attr": {"Tpaddings": {"type": "DT_INT32"}, "T": {"type": "DT_FLOAT"}}}, {"name": "PartitionedCall/model_1/tf.nn.leaky_relu_73/LeakyRelu", "op": "_FusedConv2D", "input": ["PartitionedCall/model_1/tf.compat.v1.pad_93/Pad", "unknown_281", "unknown_282"], "device": "/device:CPU:0", "attr": {"num_host_args": {"i": "0"}, "_input_shapes": {"list": {"shape": [{"dim": [{"size": "-2"}, {"size": "-432"}, {"size": "-433"}, {"size": "64"}]}, {"dim": [{"size": "3"}, {"size": "3"}, {"size": "64"}, {"size": "64"}]}]}}, "filter_format": {"s": "SFdJTw=="}, "data_format": {"s": "TkhXQw=="}, "fused_ops": {"list": {"s": ["Qmlhc0FkZA==", "TGVha3lSZWx1"]}}, "num_args": {"i": "1"}, "strides": {"list": {"i": ["1", "1", "1", "1"]}}, "TArgs": {"list": {"type": ["DT_FLOAT"]}}, "padding": {"s": "VkFMSUQ="}, "use_cudnn_on_gpu": {"b": true}, "leakyrelu_alpha": {"f": 0.2}, "epsilon": {"f": 0.0}, "T": {"type": "DT_FLOAT"}, "explicit_paddings": {"list": {}}, "dilations": {"list": {"i": ["1", "1", "1", "1"]}}}}, {"name": "PartitionedCall/model_1/tf.compat.v1.pad_94/Pad", "op": "Pad", "input": ["PartitionedCall/model_1/tf.nn.leaky_relu_73/LeakyRelu", "unknown_283"], "attr": {"Tpaddings": {"type": "DT_INT32"}, "T": {"type": "DT_FLOAT"}}}, {"name": "PartitionedCall/model_1/tf.nn.leaky_relu_74/LeakyRelu", "op": "_FusedConv2D", "input": ["PartitionedCall/model_1/tf.compat.v1.pad_94/Pad", "unknown_284", "unknown_285"], "device": "/device:CPU:0", "attr": {"num_host_args": {"i": "0"}, "_input_shapes": {"list": {"shape": [{"dim": [{"size": "-2"}, {"size": "-436"}, {"size": "-437"}, {"size": "64"}]}, {"dim": [{"size": "3"}, {"size": "3"}, {"size": "64"}, {"size": "64"}]}]}}, "filter_format": {"s": "SFdJTw=="}, "data_format": {"s": "TkhXQw=="}, "strides": {"list": {"i": ["1", "1", "1", "1"]}}, "num_args": {"i": "1"}, "fused_ops": {"list": {"s": ["Qmlhc0FkZA==", "TGVha3lSZWx1"]}}, "TArgs": {"list": {"type": ["DT_FLOAT"]}}, "padding": {"s": "VkFMSUQ="}, "use_cudnn_on_gpu": {"b": true}, "leakyrelu_alpha": {"f": 0.2}, "epsilon": {"f": 0.0}, "T": {"type": "DT_FLOAT"}, "explicit_paddings": {"list": {}}, "dilations": {"list": {"i": ["1", "1", "1", "1"]}}}}, {"name": "PartitionedCall/model_1/tf.compat.v1.pad_95/Pad", "op": "Pad", "input": ["PartitionedCall/model_1/tf.nn.leaky_relu_74/LeakyRelu", "unknown_286"], "attr": {"Tpaddings": {"type": "DT_INT32"}, "T": {"type": "DT_FLOAT"}}}, {"name": "PartitionedCall/model_1/output/Add", "op": "_FusedConv2D", "input": ["PartitionedCall/model_1/tf.compat.v1.pad_95/Pad", "unknown_287", "unknown_288"], "device": "/device:CPU:0", "attr": {"num_host_args": {"i": "0"}, "data_format": {"s": "TkhXQw=="}, "filter_format": {"s": "SFdJTw=="}, "_input_shapes": {"list": {"shape": [{"dim": [{"size": "-2"}, {"size": "-440"}, {"size": "-441"}, {"size": "64"}]}, {"dim": [{"size": "3"}, {"size": "3"}, {"size": "64"}, {"size": "3"}]}]}}, "strides": {"list": {"i": ["1", "1", "1", "1"]}}, "num_args": {"i": "1"}, "fused_ops": {"list": {"s": ["Qmlhc0FkZA=="]}}, "TArgs": {"list": {"type": ["DT_FLOAT"]}}, "padding": {"s": "VkFMSUQ="}, "use_cudnn_on_gpu": {"b": true}, "leakyrelu_alpha": {"f": 0.2}, "epsilon": {"f": 0.0}, "T": {"type": "DT_FLOAT"}, "explicit_paddings": {"list": {}}, "dilations": {"list": {"i": ["1", "1", "1", "1"]}}}}, {"name": "Identity", "op": "Identity", "input": ["PartitionedCall/model_1/output/Add"], "attr": {"T": {"type": "DT_FLOAT"}}}], "library": {}, "versions": {"producer": 1766}}, "weightsManifest": [{"paths": ["group1-shard1of5.bin", "group1-shard2of5.bin", "group1-shard3of5.bin", "group1-shard4of5.bin", "group1-shard5of5.bin"], "weights": [{"name": "unknown_279", "shape": [2], "dtype": "float32"}, {"name": "unknown_275", "shape": [2], "dtype": "float32"}, {"name": "unknown_257", "shape": [4, 2], "dtype": "int32"}, {"name": "unknown_258", "shape": [3, 3, 64, 32], "dtype": "float32"}, {"name": "unknown_259", "shape": [32], "dtype": "float32"}, {"name": "PartitionedCall/model_1/tf.concat_68/concat/axis", "shape": [], "dtype": "int32"}, {"name": "unknown_260", "shape": [4, 2], "dtype": "int32"}, {"name": "unknown_261", "shape": [3, 3, 96, 32], "dtype": "float32"}, {"name": "unknown_262", "shape": [32], "dtype": "float32"}, {"name": "PartitionedCall/model_1/tf.concat_69/concat/axis", "shape": [], "dtype": "int32"}, {"name": "unknown_263", "shape": [4, 2], "dtype": "int32"}, {"name": "unknown_264", "shape": [3, 3, 128, 32], "dtype": "float32"}, {"name": "unknown_265", "shape": [32], "dtype": "float32"}, {"name": "PartitionedCall/model_1/tf.concat_70/concat/axis", "shape": [], "dtype": "int32"}, {"name": "unknown_266", "shape": [4, 2], "dtype": "int32"}, {"name": "unknown_267", "shape": [3, 3, 160, 32], "dtype": "float32"}, {"name": "unknown_268", "shape": [32], "dtype": "float32"}, {"name": "PartitionedCall/model_1/tf.concat_71/concat/axis", "shape": [], "dtype": "int32"}, {"name": "unknown_269", "shape": [4, 2], "dtype": "int32"}, {"name": "unknown_270", "shape": [3, 3, 192, 64], "dtype": "float32"}, {"name": "unknown_271", "shape": [64], "dtype": "float32"}, {"name": "PartitionedCall/model_1/tf.math.multiply_44/Mul/y", "shape": [], "dtype": "float32"}, {"name": "unknown_242", "shape": [4, 2], "dtype": "int32"}, {"name": "unknown_243", "shape": [3, 3, 64, 32], "dtype": "float32"}, {"name": "unknown_244", "shape": [32], "dtype": "float32"}, {"name": "PartitionedCall/model_1/tf.concat_64/concat/axis", "shape": [], "dtype": "int32"}, {"name": "unknown_245", "shape": [4, 2], "dtype": "int32"}, {"name": "unknown_246", "shape": [3, 3, 96, 32], "dtype": "float32"}, {"name": "unknown_247", "shape": [32], "dtype": "float32"}, {"name": "PartitionedCall/model_1/tf.concat_65/concat/axis", "shape": [], "dtype": "int32"}, {"name": "unknown_248", "shape": [4, 2], "dtype": "int32"}, {"name": "unknown_249", "shape": [3, 3, 128, 32], "dtype": "float32"}, {"name": "unknown_250", "shape": [32], "dtype": "float32"}, {"name": "PartitionedCall/model_1/tf.concat_66/concat/axis", "shape": [], "dtype": "int32"}, {"name": "unknown_251", "shape": [4, 2], "dtype": "int32"}, {"name": "unknown_252", "shape": [3, 3, 160, 32], "dtype": "float32"}, {"name": "unknown_253", "shape": [32], "dtype": "float32"}, {"name": "PartitionedCall/model_1/tf.concat_67/concat/axis", "shape": [], "dtype": "int32"}, {"name": "unknown_254", "shape": [4, 2], "dtype": "int32"}, {"name": "unknown_255", "shape": [3, 3, 192, 64], "dtype": "float32"}, {"name": "unknown_256", "shape": [64], "dtype": "float32"}, {"name": "PartitionedCall/model_1/tf.math.multiply_42/Mul/y", "shape": [], "dtype": "float32"}, {"name": "unknown_227", "shape": [4, 2], "dtype": "int32"}, {"name": "unknown_228", "shape": [3, 3, 64, 32], "dtype": "float32"}, {"name": "unknown_229", "shape": [32], "dtype": "float32"}, {"name": "PartitionedCall/model_1/tf.concat_60/concat/axis", "shape": [], "dtype": "int32"}, {"name": "unknown_230", "shape": [4, 2], "dtype": "int32"}, {"name": "unknown_231", "shape": [3, 3, 96, 32], "dtype": "float32"}, {"name": "unknown_232", "shape": [32], "dtype": "float32"}, {"name": "PartitionedCall/model_1/tf.concat_61/concat/axis", "shape": [], "dtype": "int32"}, {"name": "unknown_233", "shape": [4, 2], "dtype": "int32"}, {"name": "unknown_234", "shape": [3, 3, 128, 32], "dtype": "float32"}, {"name": "unknown_235", "shape": [32], "dtype": "float32"}, {"name": "PartitionedCall/model_1/tf.concat_62/concat/axis", "shape": [], "dtype": "int32"}, {"name": "unknown_236", "shape": [4, 2], "dtype": "int32"}, {"name": "unknown_237", "shape": [3, 3, 160, 32], "dtype": "float32"}, {"name": "unknown_238", "shape": [32], "dtype": "float32"}, {"name": "PartitionedCall/model_1/tf.concat_63/concat/axis", "shape": [], "dtype": "int32"}, {"name": "unknown_239", "shape": [4, 2], "dtype": "int32"}, {"name": "unknown_240", "shape": [3, 3, 192, 64], "dtype": "float32"}, {"name": "unknown_241", "shape": [64], "dtype": "float32"}, {"name": "PartitionedCall/model_1/tf.math.multiply_40/Mul/y", "shape": [], "dtype": "float32"}, {"name": "PartitionedCall/model_1/tf.math.multiply_46/Mul/y", "shape": [], "dtype": "float32"}, {"name": "unknown_212", "shape": [4, 2], "dtype": "int32"}, {"name": "unknown_213", "shape": [3, 3, 64, 32], "dtype": "float32"}, {"name": "unknown_214", "shape": [32], "dtype": "float32"}, {"name": "PartitionedCall/model_1/tf.concat_56/concat/axis", "shape": [], "dtype": "int32"}, {"name": "unknown_215", "shape": [4, 2], "dtype": "int32"}, {"name": "unknown_216", "shape": [3, 3, 96, 32], "dtype": "float32"}, {"name": "unknown_217", "shape": [32], "dtype": "float32"}, {"name": "PartitionedCall/model_1/tf.concat_57/concat/axis", "shape": [], "dtype": "int32"}, {"name": "unknown_218", "shape": [4, 2], "dtype": "int32"}, {"name": "unknown_219", "shape": [3, 3, 128, 32], "dtype": "float32"}, {"name": "unknown_220", "shape": [32], "dtype": "float32"}, {"name": "PartitionedCall/model_1/tf.concat_58/concat/axis", "shape": [], "dtype": "int32"}, {"name": "unknown_221", "shape": [4, 2], "dtype": "int32"}, {"name": "unknown_222", "shape": [3, 3, 160, 32], "dtype": "float32"}, {"name": "unknown_223", "shape": [32], "dtype": "float32"}, {"name": "PartitionedCall/model_1/tf.concat_59/concat/axis", "shape": [], "dtype": "int32"}, {"name": "unknown_224", "shape": [4, 2], "dtype": "int32"}, {"name": "unknown_225", "shape": [3, 3, 192, 64], "dtype": "float32"}, {"name": "unknown_226", "shape": [64], "dtype": "float32"}, {"name": "PartitionedCall/model_1/tf.math.multiply_36/Mul/y", "shape": [], "dtype": "float32"}, {"name": "unknown_197", "shape": [4, 2], "dtype": "int32"}, {"name": "unknown_198", "shape": [3, 3, 64, 32], "dtype": "float32"}, {"name": "unknown_199", "shape": [32], "dtype": "float32"}, {"name": "PartitionedCall/model_1/tf.concat_52/concat/axis", "shape": [], "dtype": "int32"}, {"name": "unknown_200", "shape": [4, 2], "dtype": "int32"}, {"name": "unknown_201", "shape": [3, 3, 96, 32], "dtype": "float32"}, {"name": "unknown_202", "shape": [32], "dtype": "float32"}, {"name": "PartitionedCall/model_1/tf.concat_53/concat/axis", "shape": [], "dtype": "int32"}, {"name": "unknown_203", "shape": [4, 2], "dtype": "int32"}, {"name": "unknown_204", "shape": [3, 3, 128, 32], "dtype": "float32"}, {"name": "unknown_205", "shape": [32], "dtype": "float32"}, {"name": "PartitionedCall/model_1/tf.concat_54/concat/axis", "shape": [], "dtype": "int32"}, {"name": "unknown_206", "shape": [4, 2], "dtype": "int32"}, {"name": "unknown_207", "shape": [3, 3, 160, 32], "dtype": "float32"}, {"name": "unknown_208", "shape": [32], "dtype": "float32"}, {"name": "PartitionedCall/model_1/tf.concat_55/concat/axis", "shape": [], "dtype": "int32"}, {"name": "unknown_209", "shape": [4, 2], "dtype": "int32"}, {"name": "unknown_210", "shape": [3, 3, 192, 64], "dtype": "float32"}, {"name": "unknown_211", "shape": [64], "dtype": "float32"}, {"name": "PartitionedCall/model_1/tf.math.multiply_34/Mul/y", "shape": [], "dtype": "float32"}, {"name": "unknown_182", "shape": [4, 2], "dtype": "int32"}, {"name": "unknown_183", "shape": [3, 3, 64, 32], "dtype": "float32"}, {"name": "unknown_184", "shape": [32], "dtype": "float32"}, {"name": "PartitionedCall/model_1/tf.concat_48/concat/axis", "shape": [], "dtype": "int32"}, {"name": "unknown_185", "shape": [4, 2], "dtype": "int32"}, {"name": "unknown_186", "shape": [3, 3, 96, 32], "dtype": "float32"}, {"name": "unknown_187", "shape": [32], "dtype": "float32"}, {"name": "PartitionedCall/model_1/tf.concat_49/concat/axis", "shape": [], "dtype": "int32"}, {"name": "unknown_188", "shape": [4, 2], "dtype": "int32"}, {"name": "unknown_189", "shape": [3, 3, 128, 32], "dtype": "float32"}, {"name": "unknown_190", "shape": [32], "dtype": "float32"}, {"name": "PartitionedCall/model_1/tf.concat_50/concat/axis", "shape": [], "dtype": "int32"}, {"name": "unknown_191", "shape": [4, 2], "dtype": "int32"}, {"name": "unknown_192", "shape": [3, 3, 160, 32], "dtype": "float32"}, {"name": "unknown_193", "shape": [32], "dtype": "float32"}, {"name": "PartitionedCall/model_1/tf.concat_51/concat/axis", "shape": [], "dtype": "int32"}, {"name": "unknown_194", "shape": [4, 2], "dtype": "int32"}, {"name": "unknown_195", "shape": [3, 3, 192, 64], "dtype": "float32"}, {"name": "unknown_196", "shape": [64], "dtype": "float32"}, {"name": "PartitionedCall/model_1/tf.math.multiply_32/Mul/y", "shape": [], "dtype": "float32"}, {"name": "PartitionedCall/model_1/tf.math.multiply_38/Mul/y", "shape": [], "dtype": "float32"}, {"name": "unknown_167", "shape": [4, 2], "dtype": "int32"}, {"name": "unknown_168", "shape": [3, 3, 64, 32], "dtype": "float32"}, {"name": "unknown_169", "shape": [32], "dtype": "float32"}, {"name": "PartitionedCall/model_1/tf.concat_44/concat/axis", "shape": [], "dtype": "int32"}, {"name": "unknown_170", "shape": [4, 2], "dtype": "int32"}, {"name": "unknown_171", "shape": [3, 3, 96, 32], "dtype": "float32"}, {"name": "unknown_172", "shape": [32], "dtype": "float32"}, {"name": "PartitionedCall/model_1/tf.concat_45/concat/axis", "shape": [], "dtype": "int32"}, {"name": "unknown_173", "shape": [4, 2], "dtype": "int32"}, {"name": "unknown_174", "shape": [3, 3, 128, 32], "dtype": "float32"}, {"name": "unknown_175", "shape": [32], "dtype": "float32"}, {"name": "PartitionedCall/model_1/tf.concat_46/concat/axis", "shape": [], "dtype": "int32"}, {"name": "unknown_176", "shape": [4, 2], "dtype": "int32"}, {"name": "unknown_177", "shape": [3, 3, 160, 32], "dtype": "float32"}, {"name": "unknown_178", "shape": [32], "dtype": "float32"}, {"name": "PartitionedCall/model_1/tf.concat_47/concat/axis", "shape": [], "dtype": "int32"}, {"name": "unknown_179", "shape": [4, 2], "dtype": "int32"}, {"name": "unknown_180", "shape": [3, 3, 192, 64], "dtype": "float32"}, {"name": "unknown_181", "shape": [64], "dtype": "float32"}, {"name": "PartitionedCall/model_1/tf.math.multiply_28/Mul/y", "shape": [], "dtype": "float32"}, {"name": "unknown_152", "shape": [4, 2], "dtype": "int32"}, {"name": "unknown_153", "shape": [3, 3, 64, 32], "dtype": "float32"}, {"name": "unknown_154", "shape": [32], "dtype": "float32"}, {"name": "PartitionedCall/model_1/tf.concat_40/concat/axis", "shape": [], "dtype": "int32"}, {"name": "unknown_155", "shape": [4, 2], "dtype": "int32"}, {"name": "unknown_156", "shape": [3, 3, 96, 32], "dtype": "float32"}, {"name": "unknown_157", "shape": [32], "dtype": "float32"}, {"name": "PartitionedCall/model_1/tf.concat_41/concat/axis", "shape": [], "dtype": "int32"}, {"name": "unknown_158", "shape": [4, 2], "dtype": "int32"}, {"name": "unknown_159", "shape": [3, 3, 128, 32], "dtype": "float32"}, {"name": "unknown_160", "shape": [32], "dtype": "float32"}, {"name": "PartitionedCall/model_1/tf.concat_42/concat/axis", "shape": [], "dtype": "int32"}, {"name": "unknown_161", "shape": [4, 2], "dtype": "int32"}, {"name": "unknown_162", "shape": [3, 3, 160, 32], "dtype": "float32"}, {"name": "unknown_163", "shape": [32], "dtype": "float32"}, {"name": "PartitionedCall/model_1/tf.concat_43/concat/axis", "shape": [], "dtype": "int32"}, {"name": "unknown_164", "shape": [4, 2], "dtype": "int32"}, {"name": "unknown_165", "shape": [3, 3, 192, 64], "dtype": "float32"}, {"name": "unknown_166", "shape": [64], "dtype": "float32"}, {"name": "PartitionedCall/model_1/tf.math.multiply_26/Mul/y", "shape": [], "dtype": "float32"}, {"name": "unknown_137", "shape": [4, 2], "dtype": "int32"}, {"name": "unknown_138", "shape": [3, 3, 64, 32], "dtype": "float32"}, {"name": "unknown_139", "shape": [32], "dtype": "float32"}, {"name": "PartitionedCall/model_1/tf.concat_36/concat/axis", "shape": [], "dtype": "int32"}, {"name": "unknown_140", "shape": [4, 2], "dtype": "int32"}, {"name": "unknown_141", "shape": [3, 3, 96, 32], "dtype": "float32"}, {"name": "unknown_142", "shape": [32], "dtype": "float32"}, {"name": "PartitionedCall/model_1/tf.concat_37/concat/axis", "shape": [], "dtype": "int32"}, {"name": "unknown_143", "shape": [4, 2], "dtype": "int32"}, {"name": "unknown_144", "shape": [3, 3, 128, 32], "dtype": "float32"}, {"name": "unknown_145", "shape": [32], "dtype": "float32"}, {"name": "PartitionedCall/model_1/tf.concat_38/concat/axis", "shape": [], "dtype": "int32"}, {"name": "unknown_146", "shape": [4, 2], "dtype": "int32"}, {"name": "unknown_147", "shape": [3, 3, 160, 32], "dtype": "float32"}, {"name": "unknown_148", "shape": [32], "dtype": "float32"}, {"name": "PartitionedCall/model_1/tf.concat_39/concat/axis", "shape": [], "dtype": "int32"}, {"name": "unknown_149", "shape": [4, 2], "dtype": "int32"}, {"name": "unknown_150", "shape": [3, 3, 192, 64], "dtype": "float32"}, {"name": "unknown_151", "shape": [64], "dtype": "float32"}, {"name": "PartitionedCall/model_1/tf.math.multiply_24/Mul/y", "shape": [], "dtype": "float32"}, {"name": "PartitionedCall/model_1/tf.math.multiply_30/Mul/y", "shape": [], "dtype": "float32"}, {"name": "unknown_122", "shape": [4, 2], "dtype": "int32"}, {"name": "unknown_123", "shape": [3, 3, 64, 32], "dtype": "float32"}, {"name": "unknown_124", "shape": [32], "dtype": "float32"}, {"name": "PartitionedCall/model_1/tf.concat_32/concat/axis", "shape": [], "dtype": "int32"}, {"name": "unknown_125", "shape": [4, 2], "dtype": "int32"}, {"name": "unknown_126", "shape": [3, 3, 96, 32], "dtype": "float32"}, {"name": "unknown_127", "shape": [32], "dtype": "float32"}, {"name": "PartitionedCall/model_1/tf.concat_33/concat/axis", "shape": [], "dtype": "int32"}, {"name": "unknown_128", "shape": [4, 2], "dtype": "int32"}, {"name": "unknown_129", "shape": [3, 3, 128, 32], "dtype": "float32"}, {"name": "unknown_130", "shape": [32], "dtype": "float32"}, {"name": "PartitionedCall/model_1/tf.concat_34/concat/axis", "shape": [], "dtype": "int32"}, {"name": "unknown_131", "shape": [4, 2], "dtype": "int32"}, {"name": "unknown_132", "shape": [3, 3, 160, 32], "dtype": "float32"}, {"name": "unknown_133", "shape": [32], "dtype": "float32"}, {"name": "PartitionedCall/model_1/tf.concat_35/concat/axis", "shape": [], "dtype": "int32"}, {"name": "unknown_134", "shape": [4, 2], "dtype": "int32"}, {"name": "unknown_135", "shape": [3, 3, 192, 64], "dtype": "float32"}, {"name": "unknown_136", "shape": [64], "dtype": "float32"}, {"name": "PartitionedCall/model_1/tf.math.multiply_20/Mul/y", "shape": [], "dtype": "float32"}, {"name": "unknown_107", "shape": [4, 2], "dtype": "int32"}, {"name": "unknown_108", "shape": [3, 3, 64, 32], "dtype": "float32"}, {"name": "unknown_109", "shape": [32], "dtype": "float32"}, {"name": "PartitionedCall/model_1/tf.concat_28/concat/axis", "shape": [], "dtype": "int32"}, {"name": "unknown_110", "shape": [4, 2], "dtype": "int32"}, {"name": "unknown_111", "shape": [3, 3, 96, 32], "dtype": "float32"}, {"name": "unknown_112", "shape": [32], "dtype": "float32"}, {"name": "PartitionedCall/model_1/tf.concat_29/concat/axis", "shape": [], "dtype": "int32"}, {"name": "unknown_113", "shape": [4, 2], "dtype": "int32"}, {"name": "unknown_114", "shape": [3, 3, 128, 32], "dtype": "float32"}, {"name": "unknown_115", "shape": [32], "dtype": "float32"}, {"name": "PartitionedCall/model_1/tf.concat_30/concat/axis", "shape": [], "dtype": "int32"}, {"name": "unknown_116", "shape": [4, 2], "dtype": "int32"}, {"name": "unknown_117", "shape": [3, 3, 160, 32], "dtype": "float32"}, {"name": "unknown_118", "shape": [32], "dtype": "float32"}, {"name": "PartitionedCall/model_1/tf.concat_31/concat/axis", "shape": [], "dtype": "int32"}, {"name": "unknown_119", "shape": [4, 2], "dtype": "int32"}, {"name": "unknown_120", "shape": [3, 3, 192, 64], "dtype": "float32"}, {"name": "unknown_121", "shape": [64], "dtype": "float32"}, {"name": "PartitionedCall/model_1/tf.math.multiply_18/Mul/y", "shape": [], "dtype": "float32"}, {"name": "unknown_92", "shape": [4, 2], "dtype": "int32"}, {"name": "unknown_93", "shape": [3, 3, 64, 32], "dtype": "float32"}, {"name": "unknown_94", "shape": [32], "dtype": "float32"}, {"name": "PartitionedCall/model_1/tf.concat_24/concat/axis", "shape": [], "dtype": "int32"}, {"name": "unknown_95", "shape": [4, 2], "dtype": "int32"}, {"name": "unknown_96", "shape": [3, 3, 96, 32], "dtype": "float32"}, {"name": "unknown_97", "shape": [32], "dtype": "float32"}, {"name": "PartitionedCall/model_1/tf.concat_25/concat/axis", "shape": [], "dtype": "int32"}, {"name": "unknown_98", "shape": [4, 2], "dtype": "int32"}, {"name": "unknown_99", "shape": [3, 3, 128, 32], "dtype": "float32"}, {"name": "unknown_100", "shape": [32], "dtype": "float32"}, {"name": "PartitionedCall/model_1/tf.concat_26/concat/axis", "shape": [], "dtype": "int32"}, {"name": "unknown_101", "shape": [4, 2], "dtype": "int32"}, {"name": "unknown_102", "shape": [3, 3, 160, 32], "dtype": "float32"}, {"name": "unknown_103", "shape": [32], "dtype": "float32"}, {"name": "PartitionedCall/model_1/tf.concat_27/concat/axis", "shape": [], "dtype": "int32"}, {"name": "unknown_104", "shape": [4, 2], "dtype": "int32"}, {"name": "unknown_105", "shape": [3, 3, 192, 64], "dtype": "float32"}, {"name": "unknown_106", "shape": [64], "dtype": "float32"}, {"name": "PartitionedCall/model_1/tf.math.multiply_16/Mul/y", "shape": [], "dtype": "float32"}, {"name": "PartitionedCall/model_1/tf.math.multiply_22/Mul/y", "shape": [], "dtype": "float32"}, {"name": "unknown_77", "shape": [4, 2], "dtype": "int32"}, {"name": "unknown_78", "shape": [3, 3, 64, 32], "dtype": "float32"}, {"name": "unknown_79", "shape": [32], "dtype": "float32"}, {"name": "PartitionedCall/model_1/tf.concat_20/concat/axis", "shape": [], "dtype": "int32"}, {"name": "unknown_80", "shape": [4, 2], "dtype": "int32"}, {"name": "unknown_81", "shape": [3, 3, 96, 32], "dtype": "float32"}, {"name": "unknown_82", "shape": [32], "dtype": "float32"}, {"name": "PartitionedCall/model_1/tf.concat_21/concat/axis", "shape": [], "dtype": "int32"}, {"name": "unknown_83", "shape": [4, 2], "dtype": "int32"}, {"name": "unknown_84", "shape": [3, 3, 128, 32], "dtype": "float32"}, {"name": "unknown_85", "shape": [32], "dtype": "float32"}, {"name": "PartitionedCall/model_1/tf.concat_22/concat/axis", "shape": [], "dtype": "int32"}, {"name": "unknown_86", "shape": [4, 2], "dtype": "int32"}, {"name": "unknown_87", "shape": [3, 3, 160, 32], "dtype": "float32"}, {"name": "unknown_88", "shape": [32], "dtype": "float32"}, {"name": "PartitionedCall/model_1/tf.concat_23/concat/axis", "shape": [], "dtype": "int32"}, {"name": "unknown_89", "shape": [4, 2], "dtype": "int32"}, {"name": "unknown_90", "shape": [3, 3, 192, 64], "dtype": "float32"}, {"name": "unknown_91", "shape": [64], "dtype": "float32"}, {"name": "PartitionedCall/model_1/tf.math.multiply_12/Mul/y", "shape": [], "dtype": "float32"}, {"name": "unknown_62", "shape": [4, 2], "dtype": "int32"}, {"name": "unknown_63", "shape": [3, 3, 64, 32], "dtype": "float32"}, {"name": "unknown_64", "shape": [32], "dtype": "float32"}, {"name": "PartitionedCall/model_1/tf.concat_16/concat/axis", "shape": [], "dtype": "int32"}, {"name": "unknown_65", "shape": [4, 2], "dtype": "int32"}, {"name": "unknown_66", "shape": [3, 3, 96, 32], "dtype": "float32"}, {"name": "unknown_67", "shape": [32], "dtype": "float32"}, {"name": "PartitionedCall/model_1/tf.concat_17/concat/axis", "shape": [], "dtype": "int32"}, {"name": "unknown_68", "shape": [4, 2], "dtype": "int32"}, {"name": "unknown_69", "shape": [3, 3, 128, 32], "dtype": "float32"}, {"name": "unknown_70", "shape": [32], "dtype": "float32"}, {"name": "PartitionedCall/model_1/tf.concat_18/concat/axis", "shape": [], "dtype": "int32"}, {"name": "unknown_71", "shape": [4, 2], "dtype": "int32"}, {"name": "unknown_72", "shape": [3, 3, 160, 32], "dtype": "float32"}, {"name": "unknown_73", "shape": [32], "dtype": "float32"}, {"name": "PartitionedCall/model_1/tf.concat_19/concat/axis", "shape": [], "dtype": "int32"}, {"name": "unknown_74", "shape": [4, 2], "dtype": "int32"}, {"name": "unknown_75", "shape": [3, 3, 192, 64], "dtype": "float32"}, {"name": "unknown_76", "shape": [64], "dtype": "float32"}, {"name": "PartitionedCall/model_1/tf.math.multiply_10/Mul/y", "shape": [], "dtype": "float32"}, {"name": "unknown_47", "shape": [4, 2], "dtype": "int32"}, {"name": "unknown_48", "shape": [3, 3, 64, 32], "dtype": "float32"}, {"name": "unknown_49", "shape": [32], "dtype": "float32"}, {"name": "PartitionedCall/model_1/tf.concat_12/concat/axis", "shape": [], "dtype": "int32"}, {"name": "unknown_50", "shape": [4, 2], "dtype": "int32"}, {"name": "unknown_51", "shape": [3, 3, 96, 32], "dtype": "float32"}, {"name": "unknown_52", "shape": [32], "dtype": "float32"}, {"name": "PartitionedCall/model_1/tf.concat_13/concat/axis", "shape": [], "dtype": "int32"}, {"name": "unknown_53", "shape": [4, 2], "dtype": "int32"}, {"name": "unknown_54", "shape": [3, 3, 128, 32], "dtype": "float32"}, {"name": "unknown_55", "shape": [32], "dtype": "float32"}, {"name": "PartitionedCall/model_1/tf.concat_14/concat/axis", "shape": [], "dtype": "int32"}, {"name": "unknown_56", "shape": [4, 2], "dtype": "int32"}, {"name": "unknown_57", "shape": [3, 3, 160, 32], "dtype": "float32"}, {"name": "unknown_58", "shape": [32], "dtype": "float32"}, {"name": "PartitionedCall/model_1/tf.concat_15/concat/axis", "shape": [], "dtype": "int32"}, {"name": "unknown_59", "shape": [4, 2], "dtype": "int32"}, {"name": "unknown_60", "shape": [3, 3, 192, 64], "dtype": "float32"}, {"name": "unknown_61", "shape": [64], "dtype": "float32"}, {"name": "PartitionedCall/model_1/tf.math.multiply_8/Mul/y", "shape": [], "dtype": "float32"}, {"name": "PartitionedCall/model_1/tf.math.multiply_14/Mul/y", "shape": [], "dtype": "float32"}, {"name": "unknown_32", "shape": [4, 2], "dtype": "int32"}, {"name": "unknown_33", "shape": [3, 3, 64, 32], "dtype": "float32"}, {"name": "unknown_34", "shape": [32], "dtype": "float32"}, {"name": "PartitionedCall/model_1/tf.concat_8/concat/axis", "shape": [], "dtype": "int32"}, {"name": "unknown_35", "shape": [4, 2], "dtype": "int32"}, {"name": "unknown_36", "shape": [3, 3, 96, 32], "dtype": "float32"}, {"name": "unknown_37", "shape": [32], "dtype": "float32"}, {"name": "PartitionedCall/model_1/tf.concat_9/concat/axis", "shape": [], "dtype": "int32"}, {"name": "unknown_38", "shape": [4, 2], "dtype": "int32"}, {"name": "unknown_39", "shape": [3, 3, 128, 32], "dtype": "float32"}, {"name": "unknown_40", "shape": [32], "dtype": "float32"}, {"name": "PartitionedCall/model_1/tf.concat_10/concat/axis", "shape": [], "dtype": "int32"}, {"name": "unknown_41", "shape": [4, 2], "dtype": "int32"}, {"name": "unknown_42", "shape": [3, 3, 160, 32], "dtype": "float32"}, {"name": "unknown_43", "shape": [32], "dtype": "float32"}, {"name": "PartitionedCall/model_1/tf.concat_11/concat/axis", "shape": [], "dtype": "int32"}, {"name": "unknown_44", "shape": [4, 2], "dtype": "int32"}, {"name": "unknown_45", "shape": [3, 3, 192, 64], "dtype": "float32"}, {"name": "unknown_46", "shape": [64], "dtype": "float32"}, {"name": "PartitionedCall/model_1/tf.math.multiply_4/Mul/y", "shape": [], "dtype": "float32"}, {"name": "unknown_17", "shape": [4, 2], "dtype": "int32"}, {"name": "unknown_18", "shape": [3, 3, 64, 32], "dtype": "float32"}, {"name": "unknown_19", "shape": [32], "dtype": "float32"}, {"name": "PartitionedCall/model_1/tf.concat_4/concat/axis", "shape": [], "dtype": "int32"}, {"name": "unknown_20", "shape": [4, 2], "dtype": "int32"}, {"name": "unknown_21", "shape": [3, 3, 96, 32], "dtype": "float32"}, {"name": "unknown_22", "shape": [32], "dtype": "float32"}, {"name": "PartitionedCall/model_1/tf.concat_5/concat/axis", "shape": [], "dtype": "int32"}, {"name": "unknown_23", "shape": [4, 2], "dtype": "int32"}, {"name": "unknown_24", "shape": [3, 3, 128, 32], "dtype": "float32"}, {"name": "unknown_25", "shape": [32], "dtype": "float32"}, {"name": "PartitionedCall/model_1/tf.concat_6/concat/axis", "shape": [], "dtype": "int32"}, {"name": "unknown_26", "shape": [4, 2], "dtype": "int32"}, {"name": "unknown_27", "shape": [3, 3, 160, 32], "dtype": "float32"}, {"name": "unknown_28", "shape": [32], "dtype": "float32"}, {"name": "PartitionedCall/model_1/tf.concat_7/concat/axis", "shape": [], "dtype": "int32"}, {"name": "unknown_29", "shape": [4, 2], "dtype": "int32"}, {"name": "unknown_30", "shape": [3, 3, 192, 64], "dtype": "float32"}, {"name": "unknown_31", "shape": [64], "dtype": "float32"}, {"name": "PartitionedCall/model_1/tf.math.multiply_2/Mul/y", "shape": [], "dtype": "float32"}, {"name": "unknown_2", "shape": [4, 2], "dtype": "int32"}, {"name": "unknown_3", "shape": [3, 3, 64, 32], "dtype": "float32"}, {"name": "unknown_4", "shape": [32], "dtype": "float32"}, {"name": "PartitionedCall/model_1/tf.concat/concat/axis", "shape": [], "dtype": "int32"}, {"name": "unknown_5", "shape": [4, 2], "dtype": "int32"}, {"name": "unknown_6", "shape": [3, 3, 96, 32], "dtype": "float32"}, {"name": "unknown_7", "shape": [32], "dtype": "float32"}, {"name": "PartitionedCall/model_1/tf.concat_1/concat/axis", "shape": [], "dtype": "int32"}, {"name": "unknown_8", "shape": [4, 2], "dtype": "int32"}, {"name": "unknown_9", "shape": [3, 3, 128, 32], "dtype": "float32"}, {"name": "unknown_10", "shape": [32], "dtype": "float32"}, {"name": "PartitionedCall/model_1/tf.concat_2/concat/axis", "shape": [], "dtype": "int32"}, {"name": "unknown_11", "shape": [4, 2], "dtype": "int32"}, {"name": "unknown_12", "shape": [3, 3, 160, 32], "dtype": "float32"}, {"name": "unknown_13", "shape": [32], "dtype": "float32"}, {"name": "PartitionedCall/model_1/tf.concat_3/concat/axis", "shape": [], "dtype": "int32"}, {"name": "unknown_14", "shape": [4, 2], "dtype": "int32"}, {"name": "unknown_15", "shape": [3, 3, 192, 64], "dtype": "float32"}, {"name": "unknown_16", "shape": [64], "dtype": "float32"}, {"name": "PartitionedCall/model_1/tf.math.multiply/Mul/y", "shape": [], "dtype": "float32"}, {"name": "PartitionedCall/model_1/tf.math.multiply_6/Mul/y", "shape": [], "dtype": "float32"}, {"name": "unknown", "shape": [4, 2], "dtype": "int32"}, {"name": "unknown_0", "shape": [3, 3, 3, 64], "dtype": "float32"}, {"name": "unknown_1", "shape": [64], "dtype": "float32"}, {"name": "unknown_272", "shape": [4, 2], "dtype": "int32"}, {"name": "unknown_273", "shape": [3, 3, 64, 64], "dtype": "float32"}, {"name": "unknown_274", "shape": [64], "dtype": "float32"}, {"name": "PartitionedCall/model_1/tf.__operators__.getitem/strided_slice/stack", "shape": [1], "dtype": "int32"}, {"name": "PartitionedCall/model_1/tf.__operators__.getitem/strided_slice/stack_1", "shape": [1], "dtype": "int32"}, {"name": "PartitionedCall/model_1/tf.__operators__.getitem/strided_slice/stack_2", "shape": [1], "dtype": "int32"}, {"name": "unknown_276", "shape": [4, 2], "dtype": "int32"}, {"name": "unknown_277", "shape": [3, 3, 64, 64], "dtype": "float32"}, {"name": "unknown_278", "shape": [64], "dtype": "float32"}, {"name": "PartitionedCall/model_1/tf.__operators__.getitem_1/strided_slice/stack", "shape": [1], "dtype": "int32"}, {"name": "PartitionedCall/model_1/tf.__operators__.getitem_1/strided_slice/stack_1", "shape": [1], "dtype": "int32"}, {"name": "PartitionedCall/model_1/tf.__operators__.getitem_1/strided_slice/stack_2", "shape": [1], "dtype": "int32"}, {"name": "unknown_280", "shape": [4, 2], "dtype": "int32"}, {"name": "unknown_281", "shape": [3, 3, 64, 64], "dtype": "float32"}, {"name": "unknown_282", "shape": [64], "dtype": "float32"}, {"name": "unknown_283", "shape": [4, 2], "dtype": "int32"}, {"name": "unknown_284", "shape": [3, 3, 64, 64], "dtype": "float32"}, {"name": "unknown_285", "shape": [64], "dtype": "float32"}, {"name": "unknown_286", "shape": [4, 2], "dtype": "int32"}, {"name": "unknown_287", "shape": [3, 3, 64, 3], "dtype": "float32"}, {"name": "unknown_288", "shape": [3], "dtype": "float32"}]}]}